old_paper/ckpt/simple_Conv_100_19.pth (torch, 147425 bytes, 4 tensors)

features.0.weight f4 [100, 1, 19, 19]
00000000: 87b5 073d e8b3 1cbd ce44 61bd b698 d0bc
00000010: 0afc 163c d80e a5b9 6f28 f43c 996c e9bc
00000020: 5d03 5dbd d578 55bd 9644 85bd 7c7e 26bd
00000030: 0088 c63c 4077 65bd 402c 38bd f11e 0ebd
00000040: 5967 e1bc 6728 57bd f73d 0d3c ba14 013d
00000050: 601f 27bc 27b2 24bd dc4b 28bc 5176 21bd
00000060: d388 56bd a090 aabc c356 87bd ad84 08bd
00000070: 609c 25bd bc9e ba3c 4907 10bd 5bfd 84bd
00000080: 78d2 293c 3eae 71bd 810a 69bd d664 5abd
00000090: 4ce6 07bd c4f4 1fbd 2030 b6bc ea4f 4bbd
000000a0: a0ac 9fbc 5247 52bd a234 a13c 4627 39bd
000000b0: bb35 7cbd 05fb a8bc a161 06bd bdcd 39bd
000000c0: 70a6 023c b37e 8cbd 35a3 34bd 3ffd 24bc
000000d0: 69b8 0abd 3471 d93b 6756 8bbd 57ef 56bd
000000e0: a0dd 56bd 891e 133c 80f5 88bd 37e8 49bd
000000f0: f59b 50bd d73e 89bd 3b87 393c 524c 62bb
00000100: 9694 c6bc 8e22 c1bc 77ef 5bbd b819 24bc
00000110: 244f 57bd 3d17 79bd 3e10 c23c 4beb 5ebd
00000120: 03d6 663c b319 10bd a599 7dbc 5100 90bc
00000130: 3d96 853b 8b78 393c 532e 4fbd d0d4 52bd
00000140: ae82 84bd 0e55 a83c 7cd4 e23b 841b 21ba
00000150: 2db6 3bbd 379d babc ef35 d5bc 7966 6bbd
00000160: f8bb f73c 82d5 33bd 3d8e 80bd 3e04 55bd
00000170: dcc2 c53c 29cc 52bd 1020 81bd d4b6 cbbc
00000180: cb3e 43bd 13cf 6b3c a260 57bd 6266 55bd
00000190: 9772 83bd ab12 50bd af33 f9bc 61a6 133c
000001a0: caa8 86bd 3b4e 8fbb 069c bdbc 7c93 51bd
000001b0: 53b6 28bc e764 0dbd c707 2c3c bc45 87bd
000001c0: 0c3d 8bbd eb09 663c 789d 923c 20b9 b93c
000001d0: ce39 be3c ec08 d1bc 2c4a 023d ffb6 57bd
000001e0: e851 f53c 12fd 78bd 5be9 103c b786 13bd
000001f0: cfeb 89bc d49b 80bd dd98 783c 7a9d 37bd
00000200: e773 fa3c 3ff1 ffbc e6c1 023d 8174 18bd
00000210: 8547 57bd bdf0 78bd 8e27 31bb f070 60bc
00000220: 6c10 453c 3dfc 8bbd fb40 f2bc 095b 44bd
00000230: a4c2 d1bc f999 80bd 7756 b2bc 9a84 d83c
00000240: af4b f5bc fd37 4cbd 225b 873c 026c 4fbd
00000250: 7dee eebc fe18 363c 4f95 50bc 92a2 8dbd
00000260: cc48 8dbb bd68 51bd 2b06 b7bc 868b ea3c
00000270: c49d 30bd d59e 61bd bf9a 2abd c16c 053d
00000280: 1677 093b 0668 9e3c b42c 45bd 1607 8dbd
00000290: a596 4ebd e63f 8ebc a124 00bd 0c4d a33c
000002a0: de47 bd3b 83d3 6ebd ed4b 0f3c c7b3 65bd
000002b0: 32f9 4b3c f484 80bd 09da 66bd d0f3 08bd
000002c0: ee4f 723c 5ca1 be3b c016 d3bc 2990 dc3c
000002d0: b3ca e83c 2000 24bd 48f6 c5bc a9bd e8bc
000002e0: ba43 15bd 54d7 963b dd4f 3ebd 0d9a 5bbd
000002f0: 57a1 fa3c 03fe b7bc ff3f 3dbd cf71 4ebd
00000300: 8bf2 5cbd 7ac0 81bc 43f3 513c 1c2d 563b
00000310: bb11 f43c 0c12 86bd 3f68 b8bc 1811 b5ba
00000320: 95c6 57bd 1b96 36bd de8f 4bbd 748e d63b
00000330: 9832 55bd df4d 093d e09c 86bd 94a0 1c3c
00000340: 3f82 57bd 6d18 853b 5977 d4bc 60cc e13c
00000350: fd2c 99bc ff2a a7bc 1e36 bb3b 4599 8abd
00000360: 5b1b 163c 3364 55bd 9e2b 61bd e420 20bd
00000370: 9fd7 b4bc ed93 80bd f6a1 0abd f489 80bd
00000380: c552 5cbd fe06 213c 61df e2bc f863 e2b9
00000390: b3e7 b3bc f276 56bd 4a53 50bd 0dde d9bc
000003a0: ae1f 3abd 9c77 54bd 3ae9 9a3c 3c7d 903c
000003b0: 7193 7abd 858b 53bc 6325 64bd 2421 043d
000003c0: 1694 78bd 977c f1bc f2e2 75bd 14bb 84bd
000003d0: 44af 49bd 4e18 7cbb 7495 80bd d84d 04bd
000003e0: 5640 b53c a88c 943c 3281 c93c 1126 ff3c
000003f0: b927 6cbd cf99 e93c 0ca2 0dbd a6d3 8cbd
0.033132102 -0.03825751 -0.054997258 -0.025463443 0.009215364 -0.00031482312 0.029804436 -0.028494166
-0.053958286 -0.052117188 -0.06507222 -0.04064797 0.024234772 -0.05602193 -0.044964075 -0.034697477
-0.0275151 -0.052528765 0.008620731 0.031513907 -0.0102003515 -0.04020896 -0.010271993 -0.039419476
-0.05237658 -0.020820916 -0.06608345 -0.033329654 -0.040432334 0.022780769 -0.035163198 -0.06493636
0.010365121 -0.05900406 -0.056894783 -0.05331882 -0.033178613 -0.039051786 -0.022239745 -0.04963676
-0.019491494 -0.051337548 0.019678418 -0.04520347 -0.06157468 -0.020627508 -0.03280795 -0.045362223
0.007974252 -0.068601035 -0.04410096 -0.010070144 -0.033867273 0.0066358093 -0.06803589 -0.052474346
-0.05245745 0.008979448 -0.066874504 -0.049293723 -0.050929982 -0.06701439 0.011323745 -0.0034530354
-0.024240773 -0.023576047 -0.05369517 -0.010015897 -0.05256571 -0.060813177 0.023689386 -0.05442361
0.01408911 -0.03518076 -0.015478526 -0.017578276 0.0040767477 0.011320244 -0.050581288 -0.051472485
-0.06470238 0.02054837 0.006922303 -0.0006145763 -0.045828033 -0.022780044 -0.026026694 -0.057470772
0.030240998 -0.04390479 -0.0627713 -0.052006 0.024140768 -0.051464234 -0.063049436 -0.024867453
-0.047667306 0.014392632 -0.05258239 -0.052099593 -0.06418341 -0.050799053 -0.030420152 0.009011836
-0.06575163 -0.0043733395 -0.023145687 -0.051166043 -0.010297376 -0.034520056 0.010499901 -0.06605098
-0.06798753 0.014040451 0.017897353 0.022671282 0.023220923 -0.02551695 0.031809017 -0.052664753
0.029946283 -0.06078822 0.008844699 -0.036017146 -0.016836075 -0.06279722 0.015173164 -0.044827916
0.030572845 -0.031242965 0.031923197 -0.03722048 -0.05255844 -0.06077646 -0.0027031633 -0.013698801
0.012027841 -0.0683522 -0.029572 -0.04793838 -0.025605507 -0.06279368 -0.021769745 0.026430417
-0.029943315 -0.049858082 0.016522948 -0.050640114 -0.029166454 0.011114357 -0.01273091 -0.069157735
-0.0043116566 -0.051125277 -0.022341808 0.028630983 -0.043119207 -0.055083115 -0.041651484 0.03257442
0.0020975522 0.019336712 -0.048138335 -0.06886117 -0.050436635 -0.017364454 -0.031284932 0.0199342
0.0057763895 -0.058307182 0.008746129 -0.056079652 0.0124495495 -0.06275359 -0.05636028 -0.033435643
0.014789565 0.0058175754 -0.025767684 0.02692421 0.028416967 -0.04003918 -0.024165288 -0.02841075
-0.036441542 0.004603306 -0.046462882 -0.05361371 0.030594511 -0.02245999 -0.04620361 -0.050401505
-0.053942244 -0.01583885 0.012814346 0.0032680696 0.02979361 -0.06546411 -0.022510646 -0.0013814298
-0.052679617 -0.044576745 -0.04969775 0.0065477435 -0.052050203 0.03352153 -0.0657289 0.009559769
-0.052614447 0.0040617497 -0.025935816 0.027563274 -0.01869821 -0.020406244 0.0057132384 -0.06767515
0.0091617955 -0.05209751 -0.054973237 -0.039093867 -0.022075472 -0.062782146 -0.033845864 -0.062763125
-0.053789873 0.009828327 -0.027694406 -0.00043180562 -0.021961069 -0.05235953 -0.05086068 -0.02659514
-0.04544037 -0.05187188 0.01891004 0.017637841 -0.061175767 -0.012911682 -0.055699717 0.032258168
-0.0606881 -0.029478354 -0.060030885 -0.06480995 -0.049239412 -0.0038466635 -0.06278506 -0.0323008
0.022125404 0.018133476 0.024597738 0.031146081 -0.05765507 0.028515724 -0.034578368 -0.06876306

features.0.bias f4 [100]
00000000: 66cb 463d 70e5 2cbc 996e 373e c0ac 41bc
00000010: 303e a73c 0014 e9b8 807e fcbc d190 27bd
00000020: 39e3 4f3e 0375 31bd b95f 193d 4ae7 05bd
00000030: 8f9f bebc 6c86 a9bc 7a41 4e3d c0f5 3eba
00000040: 80c8 d239 1846 1a3d 803e 3eba 3e28 2e3e
00000050: 06bd 37bc da66 aabc ac60 e5bb 608f fdbc
00000060: 832b 3e3e d347 a2bc 5810 b0bc c44d 11bd
00000070: 068c c3bc 0032 c9b9 1db4 26bd 690c 603e
00000080: 8022 5139 2179 113d d4c8 033d 4142 38bd
00000090: e8cc 4c3d 2a84 ab3d 0000 1c39 6662 34bd
000000a0: f345 1ebd 5465 bdbc f083 dcbb d6d9 7a3e
000000b0: 003e 2e3a f48e ccbc 622b d9bc d6b7 95bc
000000c0: f8c9 f03d dcbf cc3d 71d9 87bc 002c d339
000000d0: 00f4 073a 53da 0ebd 400f 81bb c0a9 9239
000000e0: 3a0c 113d 3a74 08bd e0a7 b9ba 688d 623d
000000f0: b7ac 44bd 5e40 2dbd 8ac8 06bd 3872 1c3d
00000100: f8d2 a5bb 8ff7 8a3e fed5 483d e4a9 433d
00000110: 00bc 9fbb 1cc6 cabc fb46 98bc c01c 91bb
00000120: 340c 28bd 40a5 093a ba24 13bd dc11 39bc
00000130: 5ad3 513d 5c53 303e ea55 1cbd 17ad 96bc
00000140: da0a b93d 5a78 ca3d d145 edbc 1495 dfbc
00000150: 73cd 32bd 1709 1dbd b44f c9bb 10ee 09bb
00000160: c015 273d ff65 2bbd b804 343e 125a 573c
00000170: f396 283d 0015 983d b2fd 0fbd 6d82 c33c
00000180: b012 cc3c 0088 c7b9 2c70 f9bc c73e 0abd
0.04853382 -0.010552749 0.17913283 -0.011820972 0.020415395 -0.00011114031 -0.030822039 -0.040909592
0.20301522 -0.04332448 0.037444804 -0.032691278 -0.023269443 -0.02069398 0.050355412 -0.00072845444
0.00040203705 0.037664503 -0.0007257238 0.17007539 -0.0112145 -0.020800997 -0.0070000496 -0.030952156
0.18571286 -0.01980964 -0.021492168 -0.035474554 -0.02387048 -0.0003837496 -0.040699113 0.21879734
0.00019944645 0.03551591 0.032173946 -0.04498506 0.0500001 0.08374818 0.0001487732 -0.044039153
-0.038640928 -0.023119606 -0.0067295954 0.2449716 0.0006646812 -0.02497051 -0.026509944 -0.018276136
0.117572725 0.09997532 -0.016583176 0.0004027784 0.00051862 -0.03487618 -0.0039385855 0.00027973764
0.03541205 -0.033313967 -0.001416441 0.055310637 -0.048016276 -0.042297713 -0.032906093 0.038194865
-0.00506055 0.27141997 0.049032204 0.047769442 -0.0048747063 -0.024752669 -0.018588534 -0.004428476
-0.041027263 0.00052507594 -0.035923697 -0.011295762 0.05122695 0.17219299 -0.03816787 -0.018393083
0.09035273 0.098862365 -0.028963955 -0.027292766 -0.043652963 -0.038338747 -0.0061435346 -0.0021046437
0.040792227 -0.041845318 0.17579925 0.013144033 0.04115958 0.074258804 -0.035154052 0.023865903
0.024911255 -0.00038057566 -0.030448996 -0.033751275

classifier.weight f4 [2, 100]
00000000: f8ba 56be 2d91 493e 3b6b afbe 8b24 0bbe
00000010: 883b 3b3b 4bb2 243e 5674 9bbd 9aa7 2abd
00000020: 1446 bbbe 82f2 6a3d 24a1 33be 8c5b 743d
00000030: 1ca1 2dbd 2530 5abc 4592 4ebe 6f2f 183e
00000040: b516 013e c657 80bd 33a0 143e b0d8 96be
00000050: 487d 523e 6880 aebd b25f 39be f0a2 8a3e
00000060: 7a5f 98be 1971 a1bc bf00 9dbc 4c66 b5bd
00000070: a2d5 d5bc a901 863e aece 073e f656 d6be
00000080: e2d1 223d 2448 81bd 4c5c c8bd 4010 43bd
00000090: cb6c d0bd 1608 7bbe aacb c13e 89e3 c7bb
000000a0: 556f 603c cf0c 4c3e 6087 653e 8312 f4be
000000b0: 7881 073f 6569 133d 9551 243e 790c fcbd
000000c0: 0d77 6fbe 5c83 8cbe 5f7b 42bc d65b c43e
000000d0: aad0 ec3e 230d 52bd ce29 993e 5f94 8e3d
000000e0: 746f 39bd ba48 cabd 4ad5 ec3d 758d 5bbe
000000f0: b041 4abd 5012 0dbd 6785 1c3e 47c0 a9bd
00000100: 9213 263d 2481 01bf 117c 42be 11e7 03be
00000110: b510 533e b456 a33d 9572 27bd 3ba0 5d3e
00000120: b821 9a3d 462a 1c3e d0ce 1dbe 5575 0fbe
00000130: 6e18 07be 9e6d c0be 69e2 a3bd 9363 fdbd
00000140: e03b 49be 70e4 83be 7d17 ef3c 3ce3 e9bd
00000150: 51d2 903c 8512 02bc 1a6d 36be 98d6 653e
00000160: 8f6c 70be fa01 74bd be6c afbe f952 46bc
00000170: 8fcb 65be b220 84be 8638 883d 994e c6bc
00000180: c6ce 6bbe 39e9 863e 6708 06be 0076 ab3d
00000190: 1800 913d e2b8 3abe 881e 9e3e 97c3 153e
000001a0: d1b7 0e3e f3f3 97bd 939f ca3d 3325 ebbc
000001b0: 0616 be3e 80ae 73bd a885 323d 468d 0fbe
000001c0: 1790 9ebd 46a1 873b 4687 df3d 7b29 27be
000001d0: 2c72 a4bd 7fe6 373e 2a90 a3bd 5a1b a63e
000001e0: 3895 32be 2c25 e03d e270 203e 3b94 72be
000001f0: a618 c13e b4b9 8abc 8d0a e6bd 4e92 3e3d
00000200: 9489 94bd 98f6 98be 3189 d6bd a238 c03e
00000210: f873 c9bd d5f3 123e 30d1 763d b5f4 d63b
00000220: 58c7 513e 4f58 7d3e c302 b2be 01ec c3bd
00000230: 6701 4fbd 4c7d 14be e89f fcbd f6ca d23e
00000240: 6555 f8be 8b68 e0bc 2a5f 36be ec47 303d
00000250: c643 a83e e2d2 763e 086a 813c aeef fabe
00000260: 881a ebbe 1690 f73c 4a2a 3abe 689a 41bd
00000270: b10b 6f3e 9fa7 1e3d 3e72 10be 5da0 7c3e
00000280: de8f 13bd 7e34 4c3d 02fe 38be 5499 0f3e
00000290: 5adb 3abe b8ae f43e ea7a c63d 1a53 253e
000002a0: 7e67 8dbe 3abd 233c 9d17 f1bd fe03 1fbe
000002b0: f35b a1bd b19c 89be f5dc 1b3e b413 0d3e
000002c0: 458f 373e 728d 803e c798 a13d 580d 163d
000002d0: 30bd 663e 5aee a23e c4bc 043d 3881 cd3d
000002e0: 42a8 aebd 97d1 9bbd a299 ea3d 15bf d6bd
000002f0: 26e1 b83d 9763 1a3b 511f 983e 89d6 be3d
00000300: 2d14 c53d 54c8 3f3e b478 ffbd aaf5 e53d
00000310: b828 753e 3efb 96be e012 473d 67cb 03be
-0.2096976 0.19684286 -0.34261498 -0.13588159 0.002856942 0.16083638 -0.07590549 -0.041663744
-0.36576903 0.05736018 -0.17541939 0.05965762 -0.042389974 -0.013317143 -0.20172985 0.14861844
0.12606318 -0.062667415 0.14514236 -0.29462194 0.20555604 -0.08520585 -0.18102911 0.27077436
-0.29760343 -0.01970725 -0.019165395 -0.08857402 -0.026102845 0.26173142 0.13262436 -0.4186322
0.03975094 -0.06312588 -0.09783229 -0.04762292 -0.101770006 -0.24514803 0.37850696 -0.0061001224
0.013698419 0.19926761 0.22414923 -0.47670373 0.5293193 0.035989184 0.16046746 -0.123070665
-0.23385258 -0.2744397 -0.011870234 0.38351315 0.46252948 -0.05128206 0.29914707 0.06961893
-0.045272306 -0.09877153 0.11564119 -0.2144068 -0.04937905 -0.034441292 0.15285264 -0.08288627
0.040546007 -0.5058768 -0.1899264 -0.12881114 0.20611842 0.07975522 -0.04088076 0.21643154
0.075259626 0.15250501 -0.15410924 -0.14009602 -0.13192913 -0.3758363 -0.08002169 -0.12372508
-0.19651747 -0.2576022 0.029186005 -0.11420295 0.017678412 -0.007938986 -0.17815056 0.22445142
-0.23478912 -0.059572197 -0.3426265 -0.012104743 -0.22440933 -0.25806195 0.06651406 -0.0242074
-0.23028097 0.2634981 -0.13089143 0.08372116 0.07080096 -0.1823459 0.30882668 0.14625393
0.13937308 -0.074195765 0.098937176 -0.028704261 0.37126178 -0.059492588 0.043584496 -0.14018735
-0.07742327 0.0041390983 0.10914473 -0.16324417 -0.08029589 0.17959021 -0.079864815 0.32442743
-0.17439735 0.1094459 0.15668061 -0.23689358 0.37714118 -0.016934253 -0.11232481 0.046526246
-0.072528034 -0.29875636 -0.10475386 0.37543207 -0.098365724 0.14350827 0.06025809 0.006559933
0.204862 0.24740718 -0.34767732 -0.095664985 -0.050538447 -0.14500922 -0.12335187 0.41170472
-0.4850265 -0.0273936 -0.1780974 0.04303734 0.32864207 0.24103883 0.01579763 -0.49010986
-0.4591868 0.030220073 -0.18180194 -0.047266394 0.23344304 0.038734075 -0.1410608 0.24670549
-0.036025874 0.049854748 -0.18065646 0.14023334 -0.18247738 0.4778955 0.09691413 0.16144982
-0.2761802 0.009993846 -0.11772082 -0.15528867 -0.07878866 -0.2687736 0.15221007 0.13777047
0.17925747 0.25107914 0.07890468 0.03663382 0.22533107 0.31822473 0.032406583 0.10034412
-0.085281864 -0.076083355 0.114550844 -0.10485665 0.09027319 0.0023557895 0.29711393 0.09318263
0.09622989 0.18728763 -0.12474194 0.11228497 0.23941314 -0.29488558 0.048601985 -0.1287056

classifier.bias f4 [2]
00000000: 0879 24bd 30d4 9ebc
-0.040154487 -0.019388288
