old_paper/ckpt/simple_FC_100_5.pth (torch, 13007 bytes, 4 tensors)

features.1.weight f4 [100, 25]
0	0xbe1787a2	-0.14797834
1	0xbdaf23da	-0.0855176
2	0x3dfc0c82	0.12307073
3	0xbe419227	-0.18903409
4	0xbd7553c8	-0.059894353
5	0x3e465be7	0.19370995
6	0x3c53bfb0	0.01292412
7	0x3dca10c2	0.098664775
8	0x3e3cc541	0.18434621
9	0xbd7c3e08	-0.061582595
10	0x3e1c3651	0.15255095
11	0xbe24b6d0	-0.16085362
12	0xbed54399	-0.41653135
13	0x3d486314	0.048922613
14	0xbd56e7f8	-0.052467316
15	0xbbc42ba0	-0.005986646
16	0x3e3966b5	0.18105586
17	0x3de3855a	0.11109419
18	0x3dafefb2	0.0859064
19	0x3e21bca3	0.15794615
20	0x3d462e2c	0.048383877
21	0xbc688920	-0.014192849
22	0x3d42a9c0	0.047525167
23	0x3deecf4e	0.11660634
24	0xbe2c4fc6	-0.16827306
25	0x3cc200c0	0.023681998
26	0xbd33d774	-0.043906644
27	0x3bb15e60	0.0054128617
28	0xbe1e72ed	-0.15473528
29	0xbe0532b5	-0.13007624
30	0x3de49686	0.111615226
31	0xbcc3b800	-0.023891449
32	0x3d7ffde4	0.06249799
33	0x3e42dcb1	0.190295
34	0x3e061521	0.13093998
35	0x3dc70f46	0.0971971
36	0xbda6210d	-0.08111773
37	0x3ea058d3	0.31317768
38	0xbe10b20b	-0.14130418
39	0x3d0133ec	0.031543657
40	0xbe350633	-0.17678146
41	0x3e20f891	0.1571982
42	0x3ccccca8	0.024999931
43	0x3d643054	0.05571015
44	0x3e1d3b39	0.15354623
45	0xbdf0df6a	-0.11761363
46	0xbe2a4c56	-0.16630682
47	0x3de67cce	0.11254273
48	0x3e0634fb	0.13106148
49	0xbe389643	-0.1802607
50	0x3d028b34	0.031871036
51	0xbdfbb283	-0.12289908
52	0xbdb951ed	-0.09048829
53	0xbe296c5e	-0.16545245
54	0xbe4ad03d	-0.19805999
55	0xbdc17953	-0.09446969
56	0xbd81a370	-0.06330001
57	0xbe14f388	-0.14546025
58	0xbdcdfea0	-0.100583315
59	0x3d597e24	0.053098813
60	0xbe026d48	-0.12737
61	0x3da59bfa	0.08086391
62	0xbec40a93	-0.38289317
63	0x3e18f019	0.1493534
64	0x3c9c4ed0	0.01908055
65	0xbda4e103	-0.0805073
66	0xbe449e7a	-0.19201079
67	0xbdc39a83	-0.09550955
68	0xbe2a419e	-0.16626593
69	0x3da955e6	0.08268337
70	0xbd5d318c	-0.05400233
71	0xbe2fb330	-0.17158198
72	0x3d8cd7e2	0.06877114
73	0xbe384192	-0.17993763
74	0xbde4fd73	-0.11181154
75	0x3d966a82	0.073445335
76	0x3d5e5064	0.054275885
77	0x3e33a3f1	0.17543007
78	0x3e173b29	0.14768662
79	0x3df6c2f2	0.120489016
80	0xbd5dd8ac	-0.054161713
81	0x3dbaece6	0.09127216
82	0x3d1ca728	0.03824535
83	0xbe2f58dd	-0.17123742
84	0x3dd46bf6	0.103721544
85	0xbe190b8b	-0.1494581
86	0xbd0bb3cc	-0.034107015
87	0xbe12b2c6	-0.14326009
88	0xbe055f7d	-0.13024707
89	0x3bb1ac40	0.005422145
90	0xbdc9e56a	-0.098582104
91	0x3e43d357	0.19123589
92	0xbe3a1628	-0.18172514
93	0x3e0ea435	0.13929828
94	0xbe3b41bf	-0.18286799
95	0x3e3eaa33	0.18619613
96	0xbc9147b0	-0.017734379
97	0x3dd8f646	0.10593848
98	0x3df0791e	0.11741851
99	0xbd5604b8	-0.052250594
100	0xbe3be032	-0.18347242
101	0x3dfe4556	0.124155685
102	0xbd6602ac	-0.05615489
103	0xbd202a08	-0.039102584
104	0xbe25e038	-0.16198814
105	0xbe0fbb6d	-0.14036341
106	0xbc56aa30	-0.013102099
107	0x3d2e8720	0.042609334
108	0x3dcee5b2	0.10102405
109	0xbdc0f967	-0.0942257
110	0xbe135416	-0.14387545
111	0xbdc3fec3	-0.09570076
112	0x3e028deb	0.1274945
113	0x3d9c004e	0.076172456
114	0xbe2096da	-0.15682545
115	0xbdf8fad3	-0.12157216
116	0x3e1371d7	0.14398895
117	0x3e0a43d9	0.13502444
118	0x3d802b62	0.062582746
119	0xbd3cb098	-0.04606685
120	0xbd52e3c8	-0.05148676
121	0x3da2de5e	0.079525694
122	0xbe09b0cc	-0.13446349
123	0xbe46e2d7	-0.1942247
124	0xbdb6933a	-0.089148
125	0x3d85ea02	0.06538774
126	0x3d889542	0.06669094
127	0x3d285d54	0.04110463
128	0xbe327153	-0.17426042
129	0x3dd6fdc6	0.10497622
130	0x3bf94100	0.0076066256
131	0xbd289254	-0.041155174
132	0x3dbe0a1e	0.092792735
133	0xbc478ab0	-0.012179062
134	0xbcc29ab0	-0.023755401
135	0x3c8165b0	0.015795559
136	0x3ddf1f7a	0.108946756
137	0x3ae08d00	0.0017131865
138	0x3d7060ec	0.058686182
139	0xbd942c06	-0.07234959
140	0xbd03e200	-0.032197952
141	0x3db46eba	0.08810182
142	0x3e0e1017	0.13873325
143	0xbd90b48c	-0.070656866
144	0xbdf36ce7	-0.11886006
145	0x3d7e69bc	0.062112555
146	0x3e34756f	0.17622922
147	0xbe073422	-0.13203481
148	0xbe0796b0	-0.13241076
149	0xbe28dff2	-0.16491678
150	0x3dc5a95a	0.09651442
151	0x3d73a87c	0.05948685
152	0xbd6b60d8	-0.057465404
153	0x3e2e8c9b	0.17045824
154	0xbe2d1df7	-0.16905962
155	0x3e1e6ff3	0.15472393
156	0x3de66812	0.112503186
157	0x3cd10368	0.02551432
158	0xbe0d8206	-0.13819131
159	0x3de57a72	0.11204995
160	0x3cb3f180	0.021965742
161	0xbdc8cac3	-0.09804299
162	0x3ea09ae8	0.31368184
163	0xbe3e5a5d	-0.18589158
164	0xba155000	-0.000569582
165	0x3d9d971e	0.07694839
166	0x3e00f5cd	0.12593766
167	0x3d0c39f8	0.03423497
168	0xbd6956a8	-0.056967407
169	0x3d56b9a4	0.052423134
170	0xba9e6900	-0.0012085736
171	0xba854400	-0.001016736
172	0xbe06a418	-0.13148534
173	0xbdbf945d	-0.0935447
174	0xbd54132c	-0.051776096
175	0x3ddecf96	0.108794376
176	0x3e225145	0.15851314
177	0xbb4bf540	-0.0031121522
178	0x3e0e941b	0.13923685
179	0x3e2662cb	0.16248624
180	0x3e0a3b43	0.13499169
181	0x3d9f911e	0.07791351
182	0xbddfec70	-0.10933769
183	0x3d645b94	0.0557514
184	0x3e43ad27	0.19109021
185	0x3e4a8f19	0.1978115
186	0xbe33c9e3	-0.17557482
187	0xbed454eb	-0.41471037
188	0xbddc3620	-0.10752511
189	0x3ce9a058	0.02851884
190	0x3d85cd32	0.065332785
191	0x3c941110	0.018074542
192	0x3ab68a80	0.0013926774
193	0xbe4b8fd3	-0.19879083
194	0xbd95d590	-0.073161244
195	0xbe216796	-0.15762171
196	0x3e340a39	0.17582025
197	0x3d306698	0.04306659
198	0x3e2714e9	0.1631657
199	0x3d62e1c4	0.055391088
200	0x3cd2c468	0.02572842
201	0x3d5e914c	0.054337785
202	0xbdc7f0fa	-0.097627595
203	0x3d84c4f2	0.06482877
204	0x3e0aa44f	0.13539241
205	0x3e488ab3	0.1958416
206	0xbd7b9480	-0.061420918
207	0xbe1093e8	-0.14118922
208	0x3dc85e12	0.097835675
209	0xbdf535f7	-0.119731836
210	0x3e17b8e3	0.14816622
211	0x3e361739	0.17782296
212	0xbe2be0e2	-0.16785005
213	0x3cc0f318	0.023553416
214	0x3d8ff7ce	0.07029687
215	0xbd3f310c	-0.046677634
216	0x3e4093b7	0.18806349
217	0x3b241880	0.0025039017
218	0x3cde7900	0.027157307
219	0x3d93bbaa	0.072135285
220	0x3e21ff45	0.15820034
221	0xbd96c5f0	-0.07361972
222	0x3dd58762	0.10426213
223	0xbe22e46b	-0.15907447
224	0x3e2a42b7	0.16627012
225	0x3df90622	0.12159373
226	0xbe2f64e8	-0.17128336
227	0x3d6f7034	0.058456615
228	0x3da6da76	0.08147137
229	0x3d66b0fc	0.05632113
230	0x3e4664b1	0.19374348
231	0xbdcc38cd	-0.099717714
232	0x3cb5a8f0	0.022175282
233	0xbdeaad87	-0.11458879
234	0x3d86569a	0.06559487
235	0xbe220e25	-0.15825708
236	0xbd658874	-0.056038335
237	0xbd01b370	-0.031665266
238	0xbd96cf7a	-0.07363792
239	0x3e0b3445	0.13594158
240	0x3b5afe00	0.0033415556
241	0x3e270b89	0.16312994
242	0x3dd2d786	0.10295014
243	0x3db6cdf6	0.08926003
244	0x3e3d7ae7	0.18503915
245	0xbdaf1aea	-0.08550055
246	0x3d899e02	0.06719591
247	0xbd45db58	-0.048304886
248	0x3aaa4d80	0.0012993068
249	0x3bc17f00	0.005905032
250	0xbdfaccf3	-0.12246122
251	0x3d87f1ee	0.06637941
252	0x3e407411	0.18794276
253	0xbe434e4f	-0.19072841
254	0xbd5f25cc	-0.054479405
255	0x3de51e7a	0.111874536

features.1.bias f4 [100]
0	0x3ebec213	0.37257442
1	0x3e911c84	0.28342068
2	0x3eac3986	0.33637637
3	0xbe1f37a5	-0.1554857
4	0x3dea0ea2	0.11428572
5	0xbd4df494	-0.050282076
6	0x3e9e67e2	0.3093863
7	0x3e9519ad	0.29121152
8	0xbe2d2f35	-0.1691254
9	0x3de3de8a	0.1112643
10	0x3e926d53	0.28599033
11	0xbd066885	-0.03281452
12	0x3eaed751	0.34148648
13	0xbe049f16	-0.12951311
14	0x3e41f95b	0.18942778
15	0xbe127acb	-0.14304654
16	0x3dbc87cf	0.09205591
17	0x3e2d4b2f	0.16923212
18	0x3e9f29c4	0.31086552
19	0xbe35fe8a	-0.1777288
20	0x3eda8c34	0.42685091
21	0x3eb7122a	0.35756046
22	0x3e41ec1d	0.18937726
23	0x3ebf4348	0.3735602
24	0x3e303509	0.17207731
25	0x3e4077e7	0.18795739
26	0xbdeb1d6a	-0.1148022
27	0xbdf8cbaf	-0.121482246
28	0xbd7e87d6	-0.062141262
29	0x3e70ccd7	0.2351564
30	0xbe44eb77	-0.19230448
31	0x3e5baf6b	0.21453635
32	0xbe1a4e8a	-0.15069023
33	0xbe250692	-0.16115788
34	0x3e4a66e6	0.19765815
35	0xbd7e3c27	-0.062069084
36	0x3e9337ee	0.28753608
37	0x3e369e47	0.17833816
38	0x3d94297d	0.07234476
39	0x3d1c20d7	0.038117256
40	0xbc09188e	-0.008367671
41	0xbdf9116a	-0.121615246
42	0x3e0e1676	0.13875756
43	0x3e9e0b1e	0.30867857
44	0xbd05533b	-0.032550078
45	0xbdf906be	-0.12159489
46	0x3eb325d9	0.34989813
47	0x3df8bc83	0.12145331
48	0xbd9453a4	-0.07242516
49	0x3ea27866	0.31732482
50	0xbe27fdcc	-0.1640541
51	0xbe4a8fe8	-0.19781458
52	0x3ec4e02e	0.38452286
53	0x3eb4a192	0.35279518
54	0xbdb5de37	-0.08880275
55	0xbe40bd37	-0.1882218
56	0xbe3dd5f8	-0.18538654
57	0xbdec6d83	-0.11544325
58	0xbe4064e5	-0.18788488
59	0x3ecdb581	0.4017754
60	0xbe093a6e	-0.13401195
61	0xbe02c828	-0.12771666
62	0x3e13204d	0.1436779
63	0x3f0d1e63	0.5512449
64	0x3e335eaf	0.17516588
65	0x3e03a703	0.12856679
66	0x3e0d4c55	0.1379865
67	0x3dbd2d19	0.09237117
68	0xbe3534cf	-0.17695926
69	0xbe1513d0	-0.14558339
70	0xbe423c15	-0.18968232
71	0xb9a00a30	-0.00030525168
72	0x3d32a148	0.04361084
73	0x3dd871f1	0.105686076
74	0x3e2fa55f	0.17152928
75	0x3ea722ad	0.32643643
76	0xbe438ff0	-0.19097877
77	0x3e148f9f	0.14507912
78	0x3db6c70b	0.08924683
79	0x3ed99081	0.4249306
80	0xbe20b737	-0.15694891
81	0xbdccab87	-0.09993654
82	0xbe40415f	-0.18774937
83	0xbd16b8ab	-0.036797207
84	0x3e80abaf	0.25130984
85	0x3e3a3fd3	0.1818841
86	0xbe38597a	-0.18002883
87	0xbd8d5a67	-0.069020085
88	0xbe223a96	-0.15842661
89	0xbe498230	-0.19678569
90	0x3e72b7fb	0.23702995
91	0x3e583d7e	0.21117207
92	0x3db17edf	0.08666777
93	0xbe41774b	-0.18893163
94	0xbdce0900	-0.1006031
95	0xbdb7f7dd	-0.08982823
96	0x3ddb5e87	0.10711389
97	0xbe3747ea	-0.17898527
98	0x3e2c6756	0.16836295
99	0x3dc38c9b	0.09548303

classifier.weight f4 [2, 100]
0	0xbe97b9e7	-0.2963402
1	0x3e903e81	0.28172687
2	0xbebfbf47	-0.3745062
3	0xbd44c7fd	-0.048042286
4	0x3db2a34d	0.087225534
5	0x3dca13ed	0.09867082
6	0x3e8e66a6	0.2781269
7	0xbeb60f3f	-0.35558507
8	0x3d16249e	0.036656015
9	0xbd3a41bc	-0.045472845
10	0x3ea8fe47	0.33006498
11	0x3d94083f	0.07228135
12	0x3ec3f93e	0.38276094
13	0x3dcf7099	0.10128898
14	0x3e449067	0.1919571
15	0x3d93782d	0.07200656
16	0x3d6c4f33	0.057692718
17	0x3e4a8b5f	0.19779728
18	0xbeb27d58	-0.34861255
19	0xbd734c2d	-0.05939882
20	0x3ebf4d94	0.37363875
21	0xbeae4eb2	-0.34044415
22	0xbe6fe102	-0.23425677
23	0x3ec03219	0.3753822
24	0xbe124fcd	-0.14288254
25	0x3e2e69f7	0.1703261
26	0x3c2b3de8	0.010451771
27	0xbd6981ec	-0.05700867
28	0xbda3def6	-0.08001511
29	0xbe7ed1f2	-0.24884775
30	0x3d45c83e	0.04828667
31	0xbe6cc5c0	-0.2312231
32	0x3d386a92	0.04502351
33	0x3d1a4b3e	0.037669413
34	0xbdbc1c54	-0.09185091
35	0xbd3ffb89	-0.046870742
36	0xbe5f3c53	-0.21800356
37	0x3da25bd6	0.079276726
38	0xbdc09eef	-0.09405314
39	0xbd18b598	-0.037282556
40	0x3cc753ff	0.024332045
41	0xbdc27b3d	-0.09496162
42	0x3e89d252	0.26918274
43	0xbeb00ea6	-0.34386176
44	0x3d4356d5	0.04769023
45	0xbc8b1dbc	-0.016981952
46	0x3ea63390	0.32461214
47	0x3dba3ac2	0.090932384
48	0x3e2199b7	0.15781294
49	0xbe9e61b0	-0.30933905
50	0x3da9d5a6	0.08292703
51	0x3d607b82	0.054805286
52	0x3ed068e5	0.40705028
53	0x3ea02545	0.31278434
54	0xbd068f8f	-0.032851752
55	0x3d57077e	0.05249738
56	0x3d26c672	0.040716596
57	0x3d939ea5	0.072079934
58	0x3dc99ef5	0.09844772
59	0x3ec70890	0.3887372
60	0xbd85bc1c	-0.0653002
61	0xbdbf4a68	-0.09340364
62	0x3e1b987b	0.15194885
63	0xbf0d00e9	-0.55079514
64	0x3e6b6ed0	0.2299149
65	0xbdd9bffe	-0.10632323
66	0x3e815765	0.2526199
67	0xbe409d13	-0.18809919
68	0x3db005a5	0.085948266
69	0x3c86b28c	0.01644256
70	0x3cc41c28	0.023939207
71	0xbdf5da5f	-0.120045416
72	0x3d9b8a89	0.07594783
73	0xbdd6665f	-0.104687445
74	0xbe8a0fd3	-0.26965198
75	0xbeda7680	-0.42668533
76	0x3cc3050c	0.023806117
77	0xbe51fc74	-0.2050646
78	0xbe33a00a	-0.17541519
79	0x3ee158d1	0.44013074
80	0x3db5b1c2	0.08871795
81	0x3dbebd8f	0.09313499
82	0x3d74e5a6	0.059789322
83	0x3d6894ee	0.056782655
84	0xbe6a8240	-0.22901249
85	0xbe62d0f4	-0.22150022
86	0xbdbea6fa	-0.09309192
87	0xbe0c0c28	-0.13676512
88	0xbd79186d	-0.06081431
89	0x3b9a0300	0.0047000647
90	0x3e86230e	0.2619862
91	0xbe23b275	-0.15986045
92	0xbc2e68ba	-0.010645086
93	0xbd1af343	-0.03782965
94	0xbd2189fa	-0.039438225
95	0xbdde3f0a	-0.108518675
96	0x3c754ae1	0.014971466
97	0x3cae4074	0.021270968
98	0xbe229818	-0.15878332
99	0x3dc2222c	0.09479174
100	0x3ee2984b	0.44256815
101	0xbe96a531	-0.29422906
102	0x3e999d4b	0.30002818
103	0xbced1800	-0.028942108
104	0xbe244ae8	-0.160442
105	0xbc1e7468	-0.009671308
106	0xbe99a92c	-0.3001188
107	0x3ead8e84	0.33897793
108	0xbc552900	-0.013010263
109	0xbc60217f	-0.013679861
110	0xbe5bd47b	-0.21467774
111	0xbe307f11	-0.17235972
112	0xbe90ac30	-0.2825637
113	0x3d74796f	0.05968612
114	0xbe35be01	-0.17748262
115	0xbca2402c	-0.01980599
116	0xbdeb0fb4	-0.114776045
117	0xbe38dae1	-0.18052246
118	0x3e805ae4	0.25069344
119	0x3dba7d95	0.09105984
120	0xbefece08	-0.49766564
121	0x3ea0d06d	0.31409016
122	0x3e148a56	0.14505896
123	0xbeb6e325	-0.35720173
124	0x3e3b66d2	0.18300942
125	0xbe88812b	-0.26661047
126	0xbdb94f97	-0.09048384
127	0xba59b21b	-0.0008304433
128	0x3c281972	0.010259973
129	0x3e40ab63	0.18815379
130	0xbdbdad20	-0.092615366
131	0x3e7b923c	0.24567503
132	0x3dc7dfd9	0.097594924
133	0xbdc06f2d	-0.09396205
134	0x3e50306c	0.20330971
135	0x3e2fbcbd	0.17161842
136	0x3ea080af	0.31348178
137	0xbd680c53	-0.05665238
138	0x3e439b91	0.19102313
139	0x3e3128b6	0.17300686
140	0x3dac20c6	0.084046885
141	0xbd295003	-0.04133607
142	0xbe179857	-0.14804207
143	0x3ecdf0a6	0.40222663
144	0xbdffd525	-0.12491826
145	0x3d86a73a	0.06574865
146	0xbea6ed00	-0.32602692
147	0xbe51572e	-0.20443413
148	0xbdcc01f2	-0.099613085
149	0x3e9c0346	0.30471247
150	0xbcd5087e	-0.026005026
151	0x3cd4906c	0.025947772
152	0xbeba10de	-0.36340994
153	0xbeb7d350	-0.35903406
154	0x3d751f57	0.05984434
155	0x3daa8a97	0.08327215
156	0xbcdd0798	-0.02698116
157	0x3dc3a9bd	0.095538594
158	0x3dad48c7	0.08461147
159	0xbeda2f25	-0.42614093
160	0xbd995aee	-0.074880466
161	0xbb69e2a0	-0.0035688058
162	0xbe1f42f9	-0.15552892
163	0x3f11ce70	0.56955624
164	0xbe7a3ce9	-0.24437298
165	0x3e7ac32d	0.24488516
166	0xbe0a6741	-0.1351595
167	0x3e368404	0.17823797
168	0xbdad64c5	-0.08466486
169	0xbd15790a	-0.036492385
170	0x3d19cc26	0.037548207
171	0x3e08aab2	0.13346365
172	0xbcb37927	-0.021908356
173	0xbcd0cd12	-0.02548841
174	0x3e5f83d2	0.21827629
175	0x3e945b62	0.2897597
176	0x3d60eb0e	0.054911666
177	0x3dd4d511	0.10392202
178	0x3e59b496	0.21260294
179	0xbed3c562	-0.4136153
180	0x3d90ed94	0.070765644
181	0x3d2a44a2	0.04156936
182	0x3da98d81	0.08278943
183	0xbd2f3412	-0.042774267
184	0x3e83ba12	0.25727898
185	0x3e6407dc	0.22268623
186	0x3db0df19	0.086363025
187	0x3dca9c29	0.098930664
188	0xbd4d1ffa	-0.050079323
189	0x3da880e1	0.08227707
190	0xbe52f89d	-0.20602651
191	0x3e2e4e0e	0.17021963
192	0xbc0daf8a	-0.008647809
193	0x3cbfe44c	0.02342429
194	0x3dc1d2a1	0.094640024
195	0xbd8035b6	-0.062602445
196	0x3e11033a	0.14161387
197	0xbc9467ac	-0.01811584
198	0x3e280b8c	0.16410655
199	0xbd9fe1af	-0.078067176

classifier.bias f4 [2]
0	0x3d733b17	0.059382524
1	0xbe1ff3b1	-0.15620305
