old_paper/ckpt/simple_Conv_100_11.pth (torch, 51425 bytes, 4 tensors)

features.0.weight f4 [100, 1, 11, 11]
000000 82 f2 a9 3d 77 c2 1f 3e bf 6c 26 3e 86 50 be 3d
       0.08298208 0.15601526 0.16252421 0.092927024
000010 d2 ae 48 3d cb 2f 4e 3d d9 64 19 3e e9 76 1d 3e
       0.048994847 0.050338548 0.14979877 0.15377392
000020 2a 6b e5 3c 82 8e 30 3b 4b 57 1c 3e b4 94 18 bc
       0.028005201 0.002694041 0.15267675 -0.009312797
000030 c2 38 fc 3d 86 84 d2 3d 47 0d 26 3e ae 94 e8 3d
       0.12315513 0.10279183 0.16216002 0.113564834
000040 f2 c6 3a 3d d3 a4 09 3e 29 9b 11 3e 44 1b 1b bb
       0.045599885 0.13441782 0.14219345 -0.0023667375
000050 4b 81 17 3e 39 b8 1f 3e e2 f7 23 bb 3f 69 12 3e
       0.14795415 0.15597619 -0.0025019576 0.1429796
000060 c1 6d 26 3e 08 a0 25 3e 74 4a 27 bc de 37 10 3e
       0.16252805 0.16174328 -0.010210622 0.14083812
000070 a1 c4 07 3e 8a d2 6c 3c 7f 69 21 3e 32 77 18 3e
       0.13258602 0.014454493 0.157629 0.1488922
000080 64 6a 26 3e 5e 24 15 3e 68 d2 1c 3d ef 66 26 3e
       0.16251522 0.14564654 0.038286597 0.16250204
000090 97 c3 0b 3e 28 e5 c8 3d 1c 6d 26 3e 55 74 c0 3d
       0.1364883 0.09809333 0.1625256 0.093971886
0000a0 d1 12 94 3d e2 91 3e 3d 0a 3b fe 3b 17 78 c4 3d
       0.072301514 0.046525843 0.007758503 0.09593218
0000b0 5b 0d bd 3d 24 42 1f 3e 41 0a dd 3d 61 dd b4 3d
       0.09231063 0.15552574 0.107929714 0.08831287
0000c0 bd 7f 12 3e c5 6b 84 3d 4a 69 e7 3d 38 8b 59 3c
       0.14306541 0.06465868 0.11299379 0.013277821
0000d0 d4 16 bb 3d 92 e6 96 3d 0d 1a 73 3d 20 e0 ba 3d
       0.091352135 0.073681965 0.059351016 0.0912478
0000e0 fb d0 e3 3d fd 4f 0a 3e db 76 25 3e 90 d5 0c 3b
       0.11123844 0.13507076 0.16158621 0.0021489598
0000f0 00 b0 90 3d 85 c6 06 3e bb d7 9c 3c 50 c5 1e 3e
       0.07064819 0.13161667 0.019145837 0.15504956
000100 62 6b 26 3e d2 ab de 3d ca f4 0b 3e 5b 6a 4b 3d
       0.16251901 0.10872616 0.13667598 0.049661975
000110 36 0d a9 3c f1 6b 26 3e 8d 7c 03 3d da 74 99 3d
       0.020636182 0.16252114 0.032101203 0.07492991
000120 39 3d 4b 3d a3 8c 1e 3e 98 9d d0 3d a2 6c 26 3e
       0.049618933 0.15483336 0.101863086 0.16252378
000130 8c 15 17 bc 80 71 28 3d 5e 79 be 3d 66 a0 64 bc
       -0.009221446 0.041123867 0.09300493 -0.013954258
000140 a8 2a c8 3d 79 6a 26 3e 3b 55 13 3e d8 4e 03 3e
       0.09773761 0.16251554 0.14387982 0.12823045
000150 73 76 11 3e 7d c8 a4 3d 5e a8 01 3d a3 36 99 3c
       0.14205341 0.080460526 0.031654708 0.01870281
000160 16 ac 01 3e fd 94 c6 3d e0 ed 10 bb 90 b6 b9 3d
       0.12663302 0.09696386 -0.002211444 0.09068024
000170 21 6c 26 3e 74 93 73 3c 06 d5 8a 3d 1a 97 fe 3c
       0.16252185 0.0148666985 0.06778912 0.03107791
000180 46 44 1f 3e 7d 70 c7 3d 00 bd d2 3b af 30 26 3e
       0.15553388 0.09738252 0.006431222 0.16229509
000190 08 73 f6 3b 62 d8 de 3c b6 15 d3 3c 7a 78 55 3d
       0.007521037 0.027202789 0.025767189 0.05211685
0001a0 44 46 03 3e 13 2b c0 3d d6 fc 22 3e 3e 6c 26 3e
       0.12819773 0.09383216 0.15916762 0.16252229
0001b0 de 84 1b 3e ec 72 19 3e 08 10 9e 3d 30 9c 7e 3c
       0.15187404 0.14985245 0.077179015 0.015540168
0001c0 0e 86 12 3e b5 4d e8 3d a5 4d 7c 3d 3a 6c 26 3e
       0.1430895 0.113429464 0.061597485 0.16252223
0001d0 82 b1 13 3e c3 a3 eb 3d 0b 73 e1 3d 0c 70 af 3d
       0.14423183 0.115058444 0.11008271 0.08566293
0001e0 70 cf e4 3c 0d e9 db 3b 35 70 82 bd 00 90 b6 3d
       0.027930945 0.0067111314 -0.06369058 0.089141846
0001f0 eb 30 70 bd f7 45 8a 3c 6d 66 62 bc 11 83 93 bd
       -0.0586404 0.016879065 -0.0138183655 -0.07202733
000200 39 6b 34 3d a6 ed 97 3c f2 84 29 3d 97 ff 3b bd
       0.044047568 0.018545937 0.041386552 -0.045898046
000210 87 2c 31 bd 1b f7 84 3d 39 78 91 3c 50 ec bf 3c
       -0.043255355 0.06492444 0.017757522 0.023428112
000220 b4 28 95 3c 77 77 8b 3d 58 76 b9 bc f0 de 94 3d
       0.018207885 0.068098955 -0.022639439 0.072690845
000230 7c 37 6b 3d 29 c1 4a bd 5f b5 75 bd 0a 97 9e bd
       0.05742596 -0.049500618 -0.059987422 -0.07743652
000240 aa d7 a1 bd e3 d9 be 3c 80 e3 f6 bc 8b e0 4a bd
       -0.07902463 0.023297256 -0.030137777 -0.049530547
000250 2a dc a5 bd 67 be 84 bd 4e b2 90 bd 27 c5 6d bd
       -0.080986336 -0.06481629 -0.07065259 -0.058049347
000260 3d 6d 29 bd 10 12 9b 3d 82 8e 80 bb c5 75 bb 3a
       -0.041363943 0.075718045 -0.0039232383 0.0014302066
000270 63 69 6f bd e9 ec 63 3c bd af 51 3c 03 89 81 3d
       -0.058450114 0.013911464 0.012798247 0.06324961
000280 b8 30 54 3d 22 9f a2 bd 1a f7 bb 3d 0b 19 ed 3a
       0.051804274 -0.079405084 0.0917799 0.0018089128
000290 22 a9 b6 3d ca 9a a0 3d 04 2e 7e bb 5f 2a 98 bd
       0.08918978 0.07842024 -0.0038784752 -0.07429957
0002a0 64 7d 3d 3d fc db 1d 3d af b6 de ba 3f 40 24 bd
       0.04626216 0.03853987 -0.00169917 -0.040100332
0002b0 f7 04 a2 bc 2e 4c 92 3d be f5 a1 3d 11 95 3d bc
       -0.019777758 0.07143436 0.079082 -0.011571185
0002c0 b7 18 54 3d 67 36 c8 bc 4a 67 b7 3d bd 07 2d bd
       0.051781382 -0.024440004 0.08955248 -0.042243708
0002d0 96 b0 c5 3d eb 16 c0 3c 40 df a9 3d 7c 73 66 3d
       0.09652822 0.023448428 0.08294535 0.05626248
0002e0 30 bc 2f 3d e7 6b 19 bd ee f3 98 bd b8 c1 bc bc
       0.04290408 -0.03745642 -0.07468401 -0.023041591
0002f0 c3 6d 64 bd bb 3a 34 3d 6b ac 8b bd 42 d8 9e bd
       -0.05576874 0.044001322 -0.068199955 -0.07756092
000300 03 8e 8c 3d 13 81 7f bd 93 35 c3 3c 69 9a 79 bd
       0.06863024 -0.062378954 0.023829257 -0.060938273
000310 81 90 8b 3d 2d 16 81 3d 6a 48 99 bd 86 df ae 3d
       0.06814671 0.06303058 -0.07484515 0.085387275
000320 19 34 60 3c 1f bc 4c bd a2 10 8e 3d e7 0a 3b bd
       0.013684296 -0.049984094 0.06936766 -0.045664694
000330 d6 5c 83 3d 75 7d 15 bc 70 16 9d 3d 78 d7 99 3d
       0.064141914 -0.00912415 0.07670295 0.075118005
000340 3e a2 4a ba 6e 10 b2 3d 06 95 03 3d d8 ca 3e 3c
       -0.00077298644 0.0869454 0.03212454 0.011645041
000350 44 ea 8d 3d ba 1c b5 3c 22 57 93 3d fd f6 f8 3b
       0.06929448 0.022108424 0.07194354 0.0075978027
000360 e6 f0 a4 3d 88 ab a6 bb 56 72 c2 3c 76 12 92 3d
       0.0805376 -0.005086366 0.02373616 0.071324274
000370 da da 97 3c ac 70 fe bc 92 e3 61 3d d9 2c 20 3d
       0.018536974 -0.031059586 0.05514867 0.03910527
000380 33 96 c8 bc 14 f5 8d 3d 7e dc 32 bc 84 8a 61 bc
       -0.024485683 0.069315106 -0.010916827 -0.013765935
000390 d8 1b 73 3d f0 50 06 3d 58 9e 44 3d d0 1a f3 3c
       0.059352726 0.03279203 0.04800257 0.029675871
0003a0 51 89 5d bd 44 d0 37 3d 8b 5a 35 3d 29 e3 71 bc
       -0.054086033 0.044876352 0.0442758 -0.014763632
0003b0 77 d9 1b bc bd df 4b bc b9 77 12 3d 67 0c 78 bd
       -0.009512297 -0.01244348 0.035758708 -0.060558703
0003c0 ee aa bb 3d d5 b1 55 3d 96 fb a6 3b b1 d8 a0 3d
       0.091634616 0.052171547 0.0050959093 0.078538306
0003d0 79 67 6a 3d 01 2e b4 bc 62 2d 08 bd 8b 5b 59 3d
       0.057227585 -0.021994593 -0.033246405 0.053065818
0003e0 12 f8 de 3d 7f e0 9a 3d 54 4e 84 3d c1 af ac 3d
       0.108871594 0.075623505 0.064602524 0.0843196
0003f0 74 83 0a 3d 9e df 68 3d 63 4e 83 3d a5 37 63 3d
       0.03381677 0.056853883 0.064114355 0.05547299

features.0.bias f4 [100]
000000 32 7d 26 3e f8 af d3 3c e0 ff da 3d 47 36 df 3d
       0.16258696 0.025840744 0.106933355 0.108990245
000010 ac b2 98 bd 8b 4d 8c bd 84 0a 3c bd 0e d9 a8 3d
       -0.07455954 -0.06850728 -0.045908466 0.08244525
000020 cd 68 13 bd 27 cd 55 3e af ad 16 3e 1f 2b b6 3d
       -0.035988618 0.2087904 0.14714693 0.088949434
000030 ad 01 b9 3d 8c 02 42 bd cf 74 3f bc 97 bc b6 3d
       0.09033523 -0.04736571 -0.011685564 0.089226894
000040 76 d3 f1 3d cb c6 0c bd 30 80 45 bd 78 8b a7 3d
       0.11807911 -0.03436927 -0.048217952 0.081808984
000050 8e e6 cf bb 05 0b 66 3e cf 13 3a bd 61 76 00 bd
       -0.006344623 0.22465141 -0.045429047 -0.031362895
000060 06 d4 0b 3e db d3 16 3e 86 ad 90 3e bb 5d 09 3e
       0.136551 0.14729254 0.28257388 0.13414662
000070 e8 15 a8 3d 00 dd 0d 3e 6a 45 d1 3d ce 6e 05 3e
       0.08207303 0.13853836 0.10218318 0.1303055
000080 62 84 9e 3c 70 c0 7b bd 30 d8 de bc b7 6a 29 3e
       0.019350234 -0.06146282 -0.027202696 0.16544615
000090 d6 5e b8 bd aa 54 d7 3d 0c b9 89 bd 4f 20 f9 3d
       -0.090024635 0.10514195 -0.06724748 0.121643655
0000a0 58 50 89 3e fc e6 0b 3e 37 3b d2 3d 7b b4 5a bc
       0.2681911 0.13662332 0.102652006 -0.013348694
0000b0 03 71 1a bd c5 d5 ba 3d a5 86 93 bd b8 c5 ee 3d
       -0.037705433 0.091228046 -0.07203416 0.116588056
0000c0 5e 79 72 3e 71 42 96 3d f8 d5 28 bc f6 5d 2c 3c
       0.2367911 0.073368914 -0.01030492 0.010520449
0000d0 48 62 e5 3d 02 b9 fd 3d 65 1f 02 3e 37 11 6d 3e
       0.11200386 0.12388803 0.12707289 0.23151098
0000e0 b4 18 f0 3d cb ad 6d 3c 09 e1 bf bc 61 60 f6 3d
       0.11723462 0.0145067675 -0.023422735 0.120301016
0000f0 07 ce 37 bb 20 e5 97 bd 58 b6 b4 3d 36 d2 75 bc
       -0.0028046386 -0.07416749 0.08823842 -0.0150037315
000100 13 ca 70 bc 97 9e 42 3d f2 bc 61 3e 04 88 fe 3d
       -0.014696616 0.047514524 0.22044733 0.12428287
000110 10 88 49 3e 34 80 e2 bc 16 dd 8e bd f1 fc 8d bd
       0.1968081 -0.027649023 -0.069757625 -0.0693301
000120 2c 0d 0b bd 8b a5 3a 3e 84 a8 2c bd 0d 72 bc 3d
       -0.03394811 0.18227212 -0.042152897 0.09201441
000130 ea 50 40 3e e8 fa e3 3d 1b b9 84 3e c6 bc b2 bc
       0.18780866 0.11131841 0.25922474 -0.02181853
000140 5d 18 40 3e a5 dc a2 bd f0 31 3c bd 05 7c 80 3e
       0.18759294 -0.07952241 -0.04594606 0.2509462
000150 77 1c 44 bd 91 ed 76 3d 86 c0 be b9 3c 9a a2 3c
       -0.04787871 0.060285155 -0.00036383065 0.019848935
000160 13 d4 3b 3d 0a 24 22 bd 42 3a d2 3b 20 0a f8 bc
       0.045856547 -0.03958515 0.0064156363 -0.030278265
000170 cb fa 82 3d 4c a3 1c 3e 8a 93 17 3e c8 c8 4b 3c
       0.06395491 0.15296668 0.14802375 0.012438007
000180 fd b0 0c bd 9a 01 14 3e 95 3c 7a bd e1 07 15 bd
       -0.034348477 0.14453736 -0.06109293 -0.036384467

classifier.weight f4 [2, 100]
000000 4c 09 0e 3f c7 bb 26 3b 69 e6 40 3e 2d ff 82 be
       0.55482936 0.0025441514 0.18837894 -0.2558531
000010 42 78 02 bd 3d 84 56 3d 42 21 10 3d 0f 49 45 3e
       -0.031852968 0.052372206 0.035187967 0.19266151
000020 8d d4 fb bd 91 52 42 bf 7b eb b4 be 30 b8 30 be
       -0.122964 -0.75907236 -0.35335907 -0.17257762
000030 38 93 3f 3e e4 01 6d bd a5 4b 8d 3c 2c a4 1e 3e
       0.18708503 -0.05786313 0.017247984 0.15492314
000040 6c 88 57 3e b7 18 42 3e 05 47 e5 bd 0e 0b 1c be
       0.21048135 0.1895474 -0.111951865 -0.15238592
000050 c6 14 2a 3d dd 76 4c 3f 0e ba 9e bd 4d bb f9 3c
       0.041523717 0.7986887 -0.07750331 0.03048482
000060 71 a4 bb be b5 8a e5 be db 5c 8a 3f 9a 3c b3 be
       -0.36648896 -0.44832388 1.0809587 -0.35007173
000070 d0 a5 02 be 7c d7 cf 3e f3 55 54 be 55 d7 d3 3e
       -0.12758565 0.4059409 -0.20735912 0.41375223
000080 8c 53 9a bc 1c e5 18 3d 99 e5 91 3d d7 71 04 bf
       -0.018838666 0.03732787 0.071238704 -0.51736206
000090 fc 17 e0 3c bd 8e 25 3e a6 90 43 bd 51 52 8b 3e
       0.027355187 0.16167732 -0.04774537 0.2721124
0000a0 1b 73 8f bf 5d fb c1 be 90 1f 6a 3e d8 ae 1d 3e
       -1.1207002 -0.37887087 0.22863603 0.15398729
0000b0 18 fd 3d bd 2b 38 f9 3d ef 5d 16 bd 77 9f 7d be
       -0.046383947 0.12168916 -0.036710676 -0.24767862
0000c0 35 71 73 bf 64 fa 4f 3e 3e f1 68 bd 92 d3 5b 3d
       -0.95094615 0.2031036 -0.05687069 0.053668566
0000d0 48 1c 9e be 24 6e a3 be 41 da c7 3e 95 9c 5b bf
       -0.30880952 -0.31919968 0.39033702 -0.857858
0000e0 5f e5 80 be c4 44 6d bc 90 fa 8e bd 60 4c 93 be
       -0.25174996 -0.014481727 -0.06981385 -0.28769207
0000f0 93 5c be bd 69 f0 c1 3d 7c 50 0a 3e a4 8d c0 bc
       -0.09295001 0.09469683 0.13507265 -0.02350504
000100 6d 7b f2 3d ff 59 ab 3c 1c a4 46 3f 9c 23 88 3e
       0.11839948 0.020916937 0.7759416 0.26589668
000110 b0 b7 25 bf b9 a0 d1 3d cb 2b 31 bc cd b2 c2 3b
       -0.6473341 0.102357335 -0.010813664 0.005941725
000120 2a 8b 13 3c d2 69 33 3f 80 b5 ee bc 68 84 32 be
       0.009005347 0.70083344 -0.02913928 -0.17433321
000130 9a 12 1b bf 84 b9 87 3e da 04 82 3f da 97 4a bd
       -0.6057526 0.26508725 1.015773 -0.049461223
000140 1f 8f 20 bf 0e 61 8c bd 3f 18 6c 3d 59 61 67 3f
       -0.62718385 -0.06854449 0.05764031 0.90382916
000150 4c f4 e1 3d 6b fd 97 bd 14 a1 3d 3d 3e a9 55 bc
       0.11032924 -0.074213825 0.046296194 -0.013040839
000160 08 5d e8 3d 1e 2c 3b bb 72 fb e2 3d 6c 3d 16 be
       0.11345869 -0.0028560231 0.11083116 -0.14671868
000170 34 08 31 3d f9 b7 f7 be 8a 73 e0 3e 3d 7b fa 3d
       0.043220714 -0.48382547 0.4383815 0.12230537
000180 52 ab a5 3c f3 41 f6 3e 22 08 a9 3d 0b 9d 52 bd
       0.020223293 0.4809719 0.08253504 -0.0514193
000190 9a fb fc be 0e f2 f9 bd eb 8e 7f be b8 f4 65 3e
       -0.49410707 -0.122043714 -0.24956863 0.22456634
0001a0 5e 34 84 bd 0d 50 f5 3c ad 4f 56 3d 2d 97 b9 bd
       -0.06455301 0.029945398 0.05232208 -0.090620376
0001b0 5b 7b e6 3d 9b 1e 49 3f 9a c6 f9 3e a5 ff 03 3e
       0.11253997 0.78562325 0.48784333 0.1289049
0001c0 21 37 f5 bd 86 9b c4 bd 0f c8 b8 bc ce 92 2a be
       -0.11973406 -0.09599976 -0.022556333 -0.16657564
0001d0 eb 48 b4 be 31 f4 29 be c3 89 88 bc bb 78 d4 3d
       -0.35211882 -0.16597058 -0.016667252 0.1037459
0001e0 f6 c8 ad 3d 82 c0 51 bf 5a 6f b4 3c 7a a1 a0 bc
       0.08485596 -0.8193437 0.022025753 -0.019608248
0001f0 84 4f ce 3e c8 71 de 3e 4c 69 95 bf 27 62 b8 3e
       0.4029504 0.43446183 -1.1672759 0.36012384
000200 04 ac 13 3e d3 04 d7 be 03 83 14 3e 82 07 b2 be
       0.14421088 -0.41995868 0.14503102 -0.34771353
000210 1b d0 b1 3d cf 04 1f bd 52 47 d6 bd 1a a0 02 3f
       0.08682271 -0.038822945 -0.10462822 0.51025546
000220 ca 09 9b bd cd 4d 5f be 1b 81 35 3d 2c cd db be
       -0.075702265 -0.21807022 0.044312578 -0.4292997
000230 73 19 88 3f a7 d3 d8 3e 49 02 40 be da 53 e5 bd
       1.0632766 0.42348978 -0.18750872 -0.11197634
000240 e8 a9 b3 3d bf 57 40 be 1b f4 32 3d 24 8a 91 3e
       0.087726414 -0.18783472 0.04368983 0.28425705
000250 6c 46 4d 3f 9d e1 2e be 1b d7 82 bc 8a 09 8d bc
       0.8018558 -0.17078252 -0.01597171 -0.017216463
000260 29 ee 4c 3e 07 42 9d 3e 07 3a a2 be 5d fa 56 3f
       0.20012726 0.30714437 -0.31684896 0.83975774
000270 4f 02 8b 3e b9 b9 c2 bd 33 71 c4 3d 6a 6e 7d 3e
       0.271502 -0.0950808 0.095919035 0.24749151
000280 bc 21 42 3e 66 4c 80 bd 31 4b 2c be 86 6c 14 3c
       0.18958181 -0.06264572 -0.16825558 0.009059077
000290 6d 99 1c be 34 ab 26 be 98 35 5b bf e5 d2 c5 be
       -0.15292902 -0.16276246 -0.8562865 -0.38637462
0002a0 af 2e 3c 3f b7 01 0b be 86 e5 db bd a1 c1 35 3d
       0.73508734 -0.13574873 -0.107371375 0.044374112
0002b0 db 2b cb 3d 4b 16 19 bf a7 37 76 bd fc 33 51 3e
       0.09920474 -0.5979964 -0.060111668 0.20429987
0002c0 18 0e 2c 3f 88 5d 85 be 45 16 84 bf 67 f7 a8 bd
       0.67209005 -0.2604792 -1.0319296 -0.08250313
0002d0 33 5d 34 3f 71 b2 88 bd cb 74 ad bd e5 b2 74 bf
       0.7045471 -0.0667466 -0.08469542 -0.9558547
0002e0 61 5a 6f bd fe 7f 02 3e 69 3c ef bc ce cf a0 3d
       -0.0584358 0.12744138 -0.02920361 0.078521356
0002f0 d2 cf 1d be 4a 4d d9 3c 1f 5a 85 bd 0e 6b c3 3d
       -0.15411308 0.026526112 -0.0651133 0.095419034
000300 f8 4a 4d be eb 1b de 3e d2 49 0a bf 56 55 6d 3d
       -0.2004813 0.43380675 -0.5401889 0.05794271
000310 23 46 43 bd 10 0e d7 be 02 8b 0f 3d ba 44 6d bd
       -0.04767431 -0.42002916 0.035044678 -0.05792687

classifier.bias f4 [2]
000000 33 09 1e 3c c9 0d d2 3d
       0.009645748 0.102565356
