old_paper/ckpt/simple_FC_100_11.pth (torch, 51413 bytes, 4 tensors)

features.1.weight f4 [100, 121]
0.07632814 -0.090602845 0.08104263 0.0401351 0.016849205 -0.045285054 -0.03955958 -0.060081992
0.06169422 0.0047538057 -0.0056577697 0.05087103 -0.042008173 -0.0010459125 -0.010302708 -0.05738264
0.025582239 -0.051633045 0.018587582 0.039565682 -0.028497197 0.07922953 -0.07463669 -0.058082614
0.040129647 -0.029668473 0.055758655 0.020235844 -0.04914269 -0.07251374 0.054614335 0.08100566
-0.027345233 0.03928119 0.01256115 -0.057882495 0.03350375 0.07404685 -0.05222531 0.045242637
-0.04195827 0.042078525 0.06095487 -0.048886094 -0.0742169 0.08362797 0.06895392 0.053279802
-0.016082741 0.0765259 0.052255392 0.047375128 0.07407613 -0.061116297 -0.062957376 -0.06574235
-0.025955968 0.044249877 0.0049111545 -0.07349836 -0.22525464 -0.051226974 -0.08799072 0.041633397
0.021252371 0.041850775 0.020244986 0.0353937 0.08111608 -0.048150044 0.078716785 -0.07971863
0.03568533 0.08060728 0.040885553 0.06430483 0.07614176 0.07892567 0.06202966 0.028619617
-0.03684017 -0.03932824 -0.06999001 0.0390383 -0.08982327 0.059894264 -0.01809518 -0.086785026
0.03150127 -0.0040473416 0.04392326 0.025307603 -0.0834734 -0.05946257 -0.07669205 -0.06266975
0.021691486 0.08775531 -0.07934171 0.003660269 -0.03441411 0.055486232 0.075451374 -0.08800479
0.079689756 -0.086291164 0.08498183 -0.035322536 0.06798576 0.03401918 -0.08888561 -0.056561105
-0.07021114 -0.06827018 0.02785144 0.06311606 -0.002036117 0.015004277 -0.024541952 -0.018235922
0.05783719 0.032722488 0.08880307 0.07087293 -0.090485275 -0.03184672 0.038005784 -0.06502733
0.021282628 -0.014482737 -0.044091973 -0.059422385 0.04004298 0.07144809 -0.08641524 0.07108021
0.009344451 0.044656932 0.055024296 0.0876331 0.02271118 0.008107632 -0.06948094 0.006667167
0.052764267 -0.07418229 0.020477869 0.039831832 -0.03558029 -0.031172603 -0.058547974 -0.005161375
0.0489043 0.0471839 -0.06365297 -0.08388097 0.04616958 0.03991306 -0.006619811 0.015463941
0.08212784 -0.02316051 -0.011691116 0.051459372 0.06374994 -0.026990525 -0.0062834546 -0.057808813
-0.03593757 0.0851962 0.037792698 -0.026280299 -0.04590349 0.03231208 0.024448365 0.06712404
-0.0209954 0.019983627 -0.027503133 0.00037780404 -0.07432541 0.07382859 -0.08488027 0.049101517
0.071674064 -0.017220393 -0.08601709 -0.06654745 -0.08000514 -0.08144587 -0.04851375 -0.0009679049
-0.05759055 0.05247231 0.075002626 0.07959095 -0.040637504 -0.022772074 -0.09072504 0.08792004
0.026449457 0.068054885 -0.05076557 -0.08485325 0.04057251 0.01616308 -0.083054826 0.012237877
-0.0716434 0.052371442 0.04451643 -0.000707604 -0.048956644 -0.083565585 -0.072929755 0.017437644
0.04426907 0.070871726 -0.04445933 0.046357855 0.008964255 0.066866025 -0.08044187 -0.036199484
0.052726418 -0.06859298 0.06565267 0.04446046 -0.029826675 0.0102362335 0.037199154 0.06060919
-0.030474674 0.035126284 -0.08467137 0.053251967 -0.07862113 -0.04784463 -0.06828047 0.02834487
-0.08144969 0.085956976 0.05058162 -0.08361788 0.027051643 -0.071294144 -0.0147494 0.03848055
0.08155078 0.031720355 -0.048686896 -0.0463172 -0.072350904 0.04935488 -0.06253937 0.025531001
00000000: ee51 9c3d fc8d b9bd aef9 a53d b464 243d
00000010: 5807 8a3c d27c 39bd 3a09 22bd 8918 76bd
00000020: 14b3 7c3d d0c5 9b3b d064 b9bb 245e 503d
00000030: c310 2cbd 0017 89ba b0cc 28bc 0f0a 6bbd
00000040: d891 d13c 2c7d 53bd fc44 983c a00f 223d
00000050: f472 e9bc 1843 a23d 1fdb 98bd 09e8 6dbd
00000060: fc5e 243d 4c0b f3bc 3063 643d a4c5 a53c
00000070: d849 49bd 1582 94bd 48b3 5f3d 4ce6 a53d
00000080: 1c03 e0bc 50e5 203d 48cd 4d3c 3216 6dbd
00000090: 3a3b 093d e0a5 973d 35ea 55bd 5850 393d
000000a0: 6fdc 2bbd 885a 2c3d d0ab 793d c93c 48bd
000000b0: 08ff 97bd 2445 ab3d b637 8d3d ec3b 5a3d
000000c0: f4bf 83bc 9cb9 9c3d c009 563d 6c0c 423d
000000d0: 3ab5 973d 1555 7abd ccef 80bd eda3 86bd
000000e0: 9ca1 d4bc 5c3f 353d c0ed a03b 4f86 96bd
000000f0: 27a9 66be 60d3 51bd 7b34 b4bd c887 2a3d
00000100: 7419 ae3c b86b 2b3d d0d8 a53c fcf8 103d
00000110: 3020 a63d fb38 45bd 4436 a13d 8543 a3bd
00000120: c82a 123d 6e15 a53d 9c77 273d 40b2 833d
00000130: 36f0 9b3d c8a3 a13d d012 7e3d b073 ea3c
00000140: b8e5 16bd a616 21bd ec56 8fbd a0e6 1f3d
00000150: 43f5 b7bd b053 753d 583c 94bc 59bc b1bd
00000160: 7a07 013d 909f 84bb e0e8 333d e451 cf3c
00000170: 1af4 aabd 068f 73bd b910 9dbd ff58 80bd
00000180: 58b2 b13c 0eb9 b33d e87d a2bd 20e1 6f3b
00000190: cff5 0cbd 8845 633d 4086 9a3d db3b b4bd
000001a0: 6234 a33d 6cb9 b0bd f40a ae3d 5dae 10bd
000001b0: 1e3c 8b3d b257 0b3d a909 b6bd 9eac 67bd
000001c0: dcca 8fbd 3cd1 8bbd b428 e43c fe42 813d
000001d0: 6070 05bb 80d4 753c 340c c9bc 8063 95bc
000001e0: b0e6 6c3d 0408 063d 62de b53d d425 913d
000001f0: 5850 b9bd b571 02bd f4ab 1b3d 0c2d 85bd
00000200: e858 ae3c 0049 6dbc c999 34bd e364 73bd
00000210: 1c04 243d 6053 923d 79fa b0bd 8092 913d
00000220: 7819 193c 30ea 363d 2861 613d fc78 b33d
00000230: cc0c ba3c e0d5 043c 064c 8ebd 4078 da3b
00000240: 581f 583d e2ec 97bd 34c1 a73c b426 233d
00000250: a3bc 11bd b05d ffbc 00d0 6fbd c020 a9bb
00000260: e04f 483d e843 413d 7d5c 82bd c9c9 abbd
00000270: 501c 3d3d e07b 233d 00eb d8bb 785c 7d3c
00000280: a432 a83d 1cbb bdbc 188c 3fbc 10c7 523d
00000290: 548f 823d 3c1b ddbc 70e5 cdbb efc8 6cbd
000002a0: 4633 13bd 587b ae3d 84cc 1a3d c849 d7bc
000002b0: 4c05 3cbd ac59 043d f047 c83c 5478 893d
000002c0: 8cfe abbc b4b4 a33c 404e e1bc 0014 c639
000002d0: ec37 98bd 7233 973d b5d5 adbd ac1e 493d
000002e0: dac9 923d c811 8dbc ba29 b0bd 084a 88bd
000002f0: bcd9 a3bd 18cd a6bd 5bb6 46bd 00bb 7dba
00000300: 12e4 6bbd 34ed 563d fa9a 993d 9400 a33d
00000310: 8373 26bd 808c babc 0dce b9bd 6c0f b43d
00000320: 88ac d83c 5c60 8b3d 8fef 4fbd 8ac7 adbd
00000330: 5c2f 263d 7068 843c a618 aabd 6081 483c
00000340: c6b9 92bd 7083 563d dc56 363d 807e 39ba
00000350: c386 48bd 6f24 abbd 325c 95bd 64d9 8e3c
00000360: 7c53 353d 3225 913d fd1a 36bd bce1 3d3d
00000370: d0de 123c 0ef1 883d b5be a4bd e945 14bd
00000380: a8f7 573d 7a7a 8cbd e874 863d 2c1c 363d
00000390: 1257 f4bc e0b5 273c 245e 183d 5841 783d
000003a0: 06a6 f9bc 94e0 0f3d 2f68 adbd bc1e 5a3d
000003b0: 1d04 a1bd bbf8 43bd a2d6 8bbd 8033 e83c
000003c0: 18cf a6bd 360a b03d ac2e 4f3d da3f abbd
000003d0: 689b dd3c aa02 92bd 78a7 71bc c89d 1d3d
000003e0: 1804 a73d 34ed 013d e96b 47bd 1bb7 3dbd
000003f0: b62c 94bd 5828 4a3d a414 80bd 6426 d13c

features.1.bias f4 [100]
0.21660124 -0.051265866 0.12723428 0.00437887 0.025140794 0.07007475 0.18061972 -0.04515013
-0.06771636 0.35510847 -0.050032225 -0.056462854 -0.07005629 0.09413942 0.37730962 0.20916468
0.18327267 0.072430134 0.18859759 -0.062126137 0.49591786 -0.03243003 -0.032257408 -0.07962346
0.20422862 0.18099895 -0.089715265 0.13982412 0.29313964 0.5692139 -0.012112001 0.01189562
0.20519504 0.5929989 0.1554191 0.22788583 0.25053972 -0.062445637 0.2662836 0.038812786
-0.07832801 -0.01664862 0.017698219 -0.06882639 -0.025235686 -0.07537122 -0.056588832 -0.03416484
-0.05777462 0.06936742 0.07489578 0.2253355 0.3394325 -0.07657514 -0.0880738 -0.056553
0.20119594 -0.019329354 0.27222723 0.088900395 -0.033272646 -0.06992323 0.12090943 0.2601354
0.08752973 0.00450013 0.18198396 -0.05020564 0.37870345 0.3325183 0.45865414 -0.02177842
-0.008818298 -0.013974012 -0.088313185 -0.07732941 -0.09032738 -0.076536946 0.19623129 -0.07177608
0.099395044 0.22508158 0.37013566 -0.057675656 -0.014144559 0.046029713 -0.020565286 0.30567303
0.16157486 -0.07976623 -0.11142942 0.28470933 0.18657574 0.2338566 0.099009 0.2954366
-0.052972816 0.24955246 0.23012142 -0.044117678
00000000: b7cc 5d3e 28fc 51bd b449 023e a07c 8f3b
00000010: 11f4 cd3c 5a83 8f3d 60f4 383e 58ef 38bd
00000020: e0ae 8abd c7d0 b53e 97ee 4cbd 9845 67bd
00000030: ac79 8fbd 2bcc c03d ba2e c13e 442f 563e
00000040: d5ab 3b3e 4056 943d ba1f 413e fa77 7ebd
00000050: f2e8 fd3e 5ad5 04bd 5820 04bd a011 a3bd
00000060: 4f21 513e ca57 393e a3bc b7bd 0e2e 0f3e
00000070: 6616 963e 01b8 113f 6a71 46bc d9e5 423c
00000080: a61e 523e c7ce 173f 2f26 1f3e e75a 693e
00000090: be46 803e ffc6 7fbd 5356 883e 28fa 1e3d
000000a0: 706a a0bd b062 88bc dbfb 903c daf4 8cbd
000000b0: 12bb cebc 3a5c 9abd b1c9 67bd 6ef0 0bbd
000000c0: 14a5 6cbd 8210 8e3d f562 993d 59be 663e
000000d0: 19ca ad3e 6dd3 9cbd 0960 b4bd 1ea4 67bd
000000e0: 4f06 4e3e 9858 9ebc 5e61 8b3e 6911 b63d
000000f0: e648 08bd e933 8fbd 5d9f f73d 7830 853e
00000100: c942 b33d d475 933b 015a 3a3e 6ea4 4dbd
00000110: 6be5 c13e d73f aa3e b7d4 ea3e a868 b2bc
00000120: 9f7a 10bc 41f3 64bc 8bdd b4bd e25e 9ebd
00000130: 90fd b8bd 67bf 9cbd dbf0 483e 56ff 92bd
00000140: a18f cb3d c97b 663e 6c82 bd3e 4f3d 6cbd
00000150: 95be 67bc a789 3c3d 8878 a8bc 2d81 9c3e
00000160: e173 253e 7a5c a3bd 1c35 e4bd 6cc5 913e
00000170: b60d 3f3e 1b78 6f3e 3bc5 ca3d 7743 973e
00000180: 06fa 58bd ae8a 7f3e f3a4 6b3e bdb4 34bd

classifier.weight f4 [2, 100]
-0.12421691 0.06923756 -0.19965658 -0.054772113 -0.0336118 -0.033981178 -0.26153967 0.07178012
0.08887964 0.32197803 -0.06320361 0.07466043 0.090695366 -0.030140856 -0.39293912 0.13367054
-0.25992832 -0.10891633 -0.1862404 0.034938745 -0.54883134 -0.07264265 0.03748869 0.018852212
0.21084923 -0.24922381 -0.006518826 0.1603591 0.3600765 -0.59460276 0.036307186 -0.07623093
-0.16920994 0.61400056 0.21779905 -0.2723192 0.24982753 0.07127866 -0.24538925 0.023348955
0.061692722 0.076716 0.05353889 0.019239988 0.009631783 0.03952933 -0.027702793 0.0031255826
-0.061085507 0.07190852 0.062150452 -0.29628783 -0.41047144 0.05646395 0.05386775 0.08259953
-0.26220992 -0.022968486 0.32779774 0.11572982 -0.01852249 -0.094230115 -0.10318378 0.24773337
0.1402487 -0.010730066 0.25489902 0.0832673 0.45541707 0.28446525 -0.4829634 0.025860675
-0.04164278 -0.019338358 0.003973067 -0.084649764 -0.071421646 0.0044109467 0.27518713 -0.09168606
0.115877755 -0.31080458 0.3920072 -0.08232061 0.001982009 0.023626786 -0.034005955 0.22538887
0.16733225 0.05895356 0.08194524 0.3413284 0.26096025 0.23590611 -0.16481504 -0.3264008
0.046224914 -0.28068325 -0.22244005 -0.013996571 0.30178946 0.051501427 0.05174906 0.07597667
0.016361654 0.03125047 0.12718742 -0.04025953 -0.07753189 -0.4335001 0.08119185 -0.052324902
0.07482222 0.15667811 0.4055415 -0.30155712 0.15918265 0.1428375 0.23373969 0.04148709
0.47152138 0.077563316 -0.07889028 0.021913394 -0.26465398 0.16828896 0.0637897 -0.11299581
-0.28868106 0.59113294 -0.01676031 0.07001328 0.2434864 -0.57371277 -0.11354805 0.32643557
-0.2690138 0.09643434 0.28451598 0.05368079 -0.042171966 -0.09664732 0.09310737 -0.084066354
0.080328606 0.08848225 -0.08614795 -0.045609944 -0.0035487264 -0.059643902 -0.13015369 0.15556802
0.28954813 0.06743159 0.07450748 -0.04399866 0.15384369 0.024011657 -0.27979127 -0.021183904
-0.049199436 -0.035985686 0.19024423 -0.28087163 -0.08251392 0.008787456 -0.12719153 0.09244722
-0.41476592 -0.410253 0.4677918 0.012651384 0.0032974808 -0.0075200987 0.010308959 0.00597647
-0.09586475 0.086102985 -0.18128276 0.055869795 -0.18153383 0.16457611 -0.4047399 0.05598136
0.04935666 0.045495808 -0.089398555 -0.3891513 -0.1631644 0.009128295 -0.052403666 -0.24183044
-0.18255667 -0.3090262 0.011621794 0.2793986 0.05882401 0.2945721 0.25343946 -0.050827615
00000000: 6f65 febd 6ccc 8d3d c672 4cbe b958 60bd
00000010: 87ac 09bd d92f 0bbd 87e8 85be 7501 933d
00000020: 8706 b63d 4eda a43e e570 81bd 91e7 983d
00000030: 7ebe b93d f5e9 f6bc 512f c9be eee0 083e
00000040: 5315 85be 860f dfbd ceb5 3ebe ee1b 0f3d
00000050: 3680 0cbf abc5 94bd be8d 193d f46f 9a3c
00000060: dce8 573e 8734 7fbe e09b d5bb 2d35 243e
00000070: f25b b83e e337 18bf d8b6 143d f61e 9cbd
00000080: 5f45 2dbe 242f 1d3f b706 5f3e 6c6d 8bbe
00000090: cad2 7f3e 8cfa 913d 5247 7bbe 4f46 bf3c
000000a0: 82b1 7c3d 471d 9d3d 984b 5b3d 2e9d 9d3c
000000b0: a0ce 1d3c 82e9 213d f8f0 e2bc 93d6 4c3b
000000c0: cc34 7abd c644 933d 7991 7e3d 0ab3 97be
000000d0: 5029 d2be be46 673d 6ea4 5c3d f129 a93d
000000e0: 6140 86be 6828 bcbc 1bd5 a73e c203 ed3d
000000f0: 7abc 97bc b8fb c0bd 0552 d3bd d1ad 7d3e
00000100: 5b9d 0f3e 29cd 2fbc 2082 823e 0c88 aa3d
00000110: 6d2c e93e 6ea5 913e fb46 f7be c4d9 d33c
00000120: 9f91 2abd 7a6b 9ebc 8030 823b db5c adbd
00000130: 8345 92bd b489 903b 54e5 8c3e e7c5 bbbd
00000140: 5151 ed3d c721 9fbe 2bb5 c83e b597 a8bd
00000150: 98e4 013b f68c c13c d449 0bbd 57cc 663e
00000160: 2559 2b3e 4a79 713d e8d2 a73d 99c2 ae3e
00000170: 959c 853e 5f91 713e 46c5 28be 011e a7be
00000180: 5656 3d3d b7b5 8fbe 53c7 63be e051 65bc
00000190: 2684 9a3e 29f3 523d d3f6 533d a899 9b3d
000001a0: e008 863c 7e00 003d 6b3d 023e 2de7 24bd
000001b0: 0ac9 9ebd baf3 ddbe ea47 a63d a352 56bd
000001c0: 643c 993d 3a70 203e 23a3 cf3e b265 9abe
000001d0: c700 233e fe43 123e 7559 6f3e 5eee 293d
000001e0: 406b f13e 84d9 9e3d 3a91 a1bd b883 b33c
000001f0: ba80 87be f153 2c3e 2da4 823d 596a e7bd
00000200: 01ce 93be 7d54 173f eb4c 89bc 1f63 8f3d
00000210: 8054 793e d7de 12bf e18b e8bd 9022 a73e
00000220: 2dbc 89be 5e7f c53d 14ac 913e 63e0 5b3d
00000230: 83bc 2cbd 08ef c5bd 14af be3d fb2a acbd
00000240: 5383 a43d 2f36 b53d 566e b0bd 7ed1 3abd
00000250: c091 68bb 2a4d 74bd 0247 05be 394d 1f3e
00000260: a73f 943e 9319 8a3d 6197 983d f037 34bd
00000270: 3389 1d3e 18b4 c43c cd40 8fbe de89 adbc
00000280: 5985 49bd ba65 13bd 62cf 423e 68ce 8fbe
00000290: 0ffd a8bd 43f9 0f3c 7f3e 02be f854 bd3d
000002a0: 335c d4be ae0c d2be 6882 ef3e c047 4f3c
000002b0: 8c1a 583b 296b f6bb e8e6 283c 44d6 c33b
000002c0: bd54 c4bd c356 b03d 30a2 39be bad7 643d
000002d0: 01e4 39be a486 283e 113a cfbe b64c 653d
000002e0: 362a 4a3d d059 3a3d 9716 b7bd d73e c7be
000002f0: 9214 27be d88e 153c 3aa5 56bd 66a2 77be
00000300: 23f0 3abe af38 9ebe 5669 3e3c 550d 8f3e
00000310: 72f1 703d 27d2 963e d1c2 813e 9e30 50bd

classifier.bias f4 [2]
0.04159001 -0.10050144
00000000: 495a 2a3d b3d3 cdbd
