old_paper/ckpt/simple_Conv_100_5.pth (torch, 13019 bytes, 4 tensors)

features.0.weight f4 [100, 1, 5, 5]
00000000: 0b33 bbbd e5f1 8b3d 6f6e f13d b73e 0bbd
00000010: e214 073d 1c6a 853d b454 5d3d aff3 b73d
00000020: 5e3c 27bd 3a4e daba 10e2 03be ef58 9f3b
00000030: 834e 04be 7b25 ed3d 9322 37be 3bf3 e63d
00000040: af59 f6bd ee95 8a3d e37d cd3d adf6 27be
00000050: fbeb 9f3d 218c 453e ad9f b93c 7405 8bbc
00000060: 23b5 fb3d 3a8f 44be b556 e23d de6c 9ebd
00000070: ed6e 4b3d 0c9c 12bd 542e 123d 4c59 52be
00000080: f0ee 67bd 7115 323e 685d d0bd 31c2 19be
00000090: a871 113d 92ac 53be 00cf e3ba 21c4 073e
000000a0: a72d 263e aab9 91bd 1baa 0d3e fd8d 02be
000000b0: 6ceb 1c3d 0026 133b ac0b 0bbd 24a1 6b3d
000000c0: 813e db3d 998b a53d 4c74 4d3d 109e 03be
000000d0: 900f 0c3e 0c34 793d 1853 b73c a80e 3fbd
000000e0: c0e0 83bb 604f 8bbb 000c 78b9 4c85 4fbd
000000f0: 4ef3 0a3e 9747 3bbe 7f48 47be 06c6 863d
00000100: c255 113e 5a3f db3d a05a 643c ac95 46be
00000110: d2a0 ea3d a089 bbbb 524e 9d3d 8423 7b3d
00000120: c8d3 1cbd 9096 ffbc b833 05be 7233 803d
00000130: d8d9 db3c 43ed fbbd f00f 93bc 0608 873d
00000140: 472a bfbd 603d d5bb 999e 55be 3211 e43d
00000150: 41e4 51be b33e 073e c78b ddbd 5269 cb3d
00000160: 0613 08be aef1 be3d 5b50 163e 905a 9c3c
00000170: 6ad9 92bd a838 2f3d 8189 48be e784 f7bd
00000180: 21f6 4ebe 17e3 9bbd d890 0f3e a037 3b3c
00000190: c432 bcbd eeef ffbd 6f3f 043e ea86 cabd
000001a0: 4af4 35be bfbf 3b3e 319e b0bc cb13 bf3c
000001b0: 8b96 41bc 1d7d 483c 87bd 2b3e 7cce 063e
000001c0: 8ae1 12be dbd1 f53d 7176 24be 727e d03d
000001d0: e10a 59be fdfe 9d3c 3525 0dbe ce9a 50be
000001e0: 2bec 54be 53c1 233e fb5a 793c 8b31 973c
000001f0: 49e6 2abe 24f9 39be eac6 44bd 1342 e4bd
00000200: 2665 263d 4853 7cbe f677 48be 36e8 adbc
00000210: 2a15 8bbe 84b7 6dbe e6bf 04be b880 3abc
00000220: 0d64 14bd 3cd3 0bbe 82bd 713d 4015 8bbe
00000230: fa8f ed3c 13e1 85be e467 28bd f936 88be
00000240: 9a97 4ebe 8cde edbd 1c17 8bbe e414 8bbe
00000250: e4ec 65be 5ff8 8abe e7e7 2bbe bdd6 b5bd
00000260: 4c04 12be d6fc 0bbe f382 c7bd 84c8 34be
00000270: 9838 07be b02d 08bc 122b 4f3e a7e4 22be
00000280: de8c 10be 6a16 93bd b218 803d 2c4b 79bd
00000290: de2a b23d f2a8 4e3e d45d 2d3e 0010 b139
000002a0: c05f 3fbd d6e2 d73d 5302 cfbd 54f2 173d
000002b0: 0a23 ac3d 6aac abbd 0936 063e 6e91 223e
000002c0: 971e 573e c754 553e 9d1b 843d 8c73 8f3e
000002d0: 1444 9b3e d739 2a3e 5a1d 893c 8431 4e3d
000002e0: 7c40 9b3e 5477 923e f246 9b3e f617 8c3e
000002f0: 11ac 3d3c 3de1 0f3e aee8 923e f00c 6b3e
00000300: 1947 9b3e ee75 1f3e 3568 a03d 9c43 9b3e
00000310: ff90 3f3e a6b6 6c3e 9817 7c3e cd53 483e
00000320: 2f3f 01be b234 fa3d 0baa 623e 9c4b 9a3d
00000330: b1c3 d0bd 805d 38bb 9bca 663d 7a7a 7abd
00000340: 5911 513e 9620 bb3d 4851 bcbc d706 243e
00000350: 2ced 1abe 8b32 4ebd e4c2 cdbd 407b 34bb
00000360: abea 86bd cac8 a93d c870 1ebd 4821 003e
00000370: 2e72 193e 7f4a bcbc 7b6e 353e 48ec bbbd
00000380: d009 973c ce13 33bd 2c46 09be 6896 753e
00000390: 36e6 0e3e d0bd 263d 8ca1 743e 390f 5c3e
000003a0: 4c2a 8b3d ccb1 bf3d 02a0 6a3e 5afc 543e
000003b0: 0eb2 bdbd e86b 933d 834a 3f3e a05f c5bd
000003c0: 7a09 463c 204c 82b9 5c18 ec3d 561b b73d
000003d0: 9ac1 113e 1832 2a3e 7a71 493e 8ac2 463e
000003e0: 1862 563e f813 773e 00ed b7bc 882f 39bd
000003f0: a826 c53c 9023 d33c 80b5 4c3d 1ce4 383e
-0.09140595 0.06833247 0.11788642 -0.033995356 0.0329789 0.065143794 0.054035857 0.08982026
-0.040829055 -0.0016655393 -0.12879205 0.0048628966 -0.12920575 0.115794145 -0.17884283 0.11276861
-0.120288245 0.06766878 0.100337766 -0.16402693 0.078086816 0.19291736 0.022659147 -0.016970374
0.122904085 -0.19195262 0.11051694 -0.077356085 0.049666334 -0.03579335 0.035688713 -0.20541877
-0.056624353 0.17390992 -0.10174066 -0.15015484 0.03550878 -0.20671299 -0.0017380416 0.13258411
0.16228352 -0.07115491 0.13834421 -0.12749477 0.038310453 0.002245307 -0.033946678 0.057526723
0.10705281 0.08083267 0.050159737 -0.12853265 0.13677812 0.06084065 0.02237849 -0.046644837
-0.004024595 -0.0042514056 -0.00023655593 -0.05066423 0.13569376 -0.18289028 -0.19461249 0.06580739
0.1419287 0.10705443 0.013937622 -0.19393033 0.11456455 -0.0057231933 0.07680954 0.061313167
-0.038287908 -0.031199723 -0.1300801 0.062598124 0.026837274 -0.123011135 -0.017951936 0.06593327
-0.09334236 -0.0065075606 -0.20861281 0.11136092 -0.20497228 0.13207512 -0.10817676 0.09932198
-0.13288507 0.093234405 0.1467909 0.019086152 -0.07170375 0.04277864 -0.19583704 -0.12085896
-0.20211078 -0.07611673 0.14020097 0.011426836 -0.0918937 -0.12496935 0.12914823 -0.09889014
-0.1776897 0.18334864 -0.021559807 0.023324868 -0.011815677 0.012236861 0.16771518 0.13164705
-0.14343849 0.120029174 -0.16060807 0.101803675 -0.21195556 0.019286627 -0.13783725 -0.20371553
-0.20793216 0.15991716 0.015219445 0.018456241 -0.1668941 -0.18161446 -0.04804126 -0.11145415
0.040623806 -0.24641144 -0.19577011 -0.02122889 -0.27164584 -0.23214537 -0.12963828 -0.011383228
-0.03622823 -0.13654798 0.05901862 -0.2716465 0.028999317 -0.2614828 -0.041114703 -0.2660444
-0.20175019 -0.11614713 -0.2716607 -0.27164376 -0.22453648 -0.27142617 -0.16787682 -0.08878849
-0.14259452 -0.13670668 -0.097417735 -0.17654616 -0.13205183 -0.008311674 0.20231274 -0.15907536
-0.14116237 -0.071820095 0.0625471 -0.060862705 0.086995825 0.20181635 0.16930324 0.00033771992
-0.046722174 0.105413124 -0.10107865 0.037096336 0.08405121 -0.08382495 0.1310655 0.1587579
0.21007763 0.20833121 0.06450579 0.28017843 0.30325377 0.16623627 0.016737629 0.05034019
0.30322635 0.28606665 0.30327564 0.2736203 0.011576668 0.14050765 0.28693146 0.22954154
0.3032768 0.1557233 0.07832376 0.3032502 0.18707655 0.2311655 0.24618375 0.19563217
-0.12621759 0.12217082 0.22135179 0.075339526 -0.10193575 -0.0028131902 0.056345563 -0.06115196
0.20416774 0.09137075 -0.022987977 0.16018234 -0.15129536 -0.05034117 -0.10046938 -0.0027539283
-0.06587728 0.082902506 -0.038681775 0.12512696 0.14984962 -0.022984741 0.17717926 -0.091759264
0.018437296 -0.04372006 -0.13405675 0.23983157 0.13955006 0.040708363 0.2388975 0.21490182
0.06795177 0.09360084 0.229126 0.2079939 -0.09262477 0.07198316 0.18680768 -0.0963738
0.01208722 -0.0002485225 0.11528084 0.08940761 0.1423401 0.16620672 0.19672194 0.19410148
0.20935857 0.24128711 -0.022451878 -0.045211345 0.024066284 0.025773793 0.04997778 0.18055767

features.0.bias f4 [100]
00000000: daf5 8b3d c258 33bd 677e ccbd 86e7 08be
00000010: 299b 123e 4021 8b3e e6fb 12be ed50 9b3e
00000020: bf5c bcbc e51b 703e ea9d 1ebe 546c 833d
00000030: 19e3 193e d4fc 1a3d 8ac9 77bd a63f 6e3e
00000040: d977 693e 72dc ae3e 9a48 2c3e 5afe 7ebd
00000050: f2d5 c3bd bf4a ef3d b36e 483e d743 fabd
00000060: 0265 44be b280 643e 8117 253e e56b fbbd
00000070: d360 4abe 3bab 863d 0996 fa3d 80c2 db3c
00000080: afc8 2fbe 7e86 41be e1b8 23be 26b0 a13e
00000090: 038b 48be 399f a4bd 8d0c 26be 4c71 fcbd
000000a0: 8d8c 073e 1de7 733e 89dc 76bd 30a2 703e
000000b0: f56b 1ebe 94e0 c83e c867 32be 0f2f b03e
000000c0: e720 55bd aece 463e 6856 903e cff3 783c
000000d0: 6cdd b43e 5a81 ea3d b998 373e 2f10 0c3d
000000e0: 9750 823e 964c 25be 3a3c c23e 99c9 2fbe
000000f0: 27c7 cb3d c117 303e 3d0e 47bc 1a04 95bc
00000100: 3dd1 343c 048f 5cbd 482c 953e 2cb7 f8bd
00000110: afc8 13be 659e 933e c7fa 5f3d 9ebe 9f3c
00000120: a4ee 96bd fd56 733e 4f4d 6abc 845c b6bd
00000130: fa74 e33d 55c0 b23d e9cc a33e 333e 323e
00000140: 94a9 a2bd fd7a d03d d317 a43d 7abf 463e
00000150: d9b5 833e 3d9e 7a3e 1210 6c3e b86a 803e
00000160: b6b7 ec3d 2fb6 13be 30d0 623e 1d2d ecbc
00000170: 05b0 e1bd 51b9 99bd ba0d c6bd a4d3 003e
00000180: 0646 2d3d f88f 39be 8099 4abe 9007 e23e
0.06834002 -0.043785818 -0.09985047 -0.13369569 0.14317001 0.27173805 -0.14353904 0.3033518
-0.022993444 0.23448141 -0.15489927 0.06417146 0.15028037 0.037838772 -0.060494937 0.23266467
0.22799625 0.3415256 0.1682457 -0.062254287 -0.09562291 0.116841786 0.19573478 -0.12219971
-0.19179156 0.22314718 0.16122247 -0.122764386 -0.19763498 0.06575628 0.12235648 0.026826143
-0.17166398 -0.18898961 -0.15988494 0.31579703 -0.19584279 -0.08038182 -0.16215725 -0.12326297
0.1323721 0.23818631 -0.060268912 0.2349937 -0.1547087 0.3923384 -0.17422402 0.34410903
-0.05203333 0.1941478 0.28190923 0.015194847 0.3532518 0.11450453 0.17929353 0.03419512
0.2545211 -0.16142496 0.37936574 -0.17166747 0.09950095 0.17196561 -0.012149391 -0.018190432
0.011036214 -0.053847328 0.29135346 -0.12144312 -0.14432023 0.28831783 0.05468252 0.019500073
-0.07369736 0.23763652 -0.014300658 -0.08904365 0.11106296 0.08728091 0.31992272 0.1740654
-0.07942501 0.10179708 0.080123566 0.1940898 0.25724676 0.24474426 0.23053005 0.2508142
0.115584776 -0.14424966 0.2214973 -0.028830105 -0.11019901 -0.075060494 -0.09670587 0.12580734
0.042303108 -0.18121326 -0.19785118 0.44146395

classifier.weight f4 [2, 100]
00000000: 4603 d73d 1721 e33c 4346 583d d6f8 a53c
00000010: 42c9 acbd a2a8 07bf bc98 2a3d bdf4 2e3f
00000020: 59f6 a73d 2b9c cd3e 14e0 a4bd 59f1 fb3d
00000030: 2bbd 19be 5f49 e13d 6fa6 5e3d cf06 043f
00000040: fef4 823e c4fa 533f 081b ffbc e47c b03d
00000050: 5537 12be bb53 513e c6aa babe e972 aabd
00000060: a097 e9bc cc43 b1be 9a43 5e3e d0dd c6bd
00000070: 0549 8dbd d093 babd 7c40 043e 3039 a93d
00000080: 044c debc 2a4e d9bc c99f e43c 86e6 48bf
00000090: 0c3d 14bd 0a92 f33c a5e0 abbc 0090 efbd
000000a0: 9012 203c c961 e53e 817b 0f3e ab40 893e
000000b0: 81fd 103c 25eb 813f a018 143d 6139 6a3f
000000c0: 0f3f 21be aab2 e7bd 0e34 05bf 2956 05be
000000d0: eaa1 643f 658a 023e 7a43 f9bc a651 5b3d
000000e0: fdcc fcbe 5ba1 af3d 91ac 5fbf ddb3 943d
000000f0: 0f65 1cbd 213b 51be 0d39 973d 15eb c6bc
00000100: e3c4 df3c 50ee 59bc 6fd2 0dbf 5454 64bd
00000110: 6b2e 1f3d 1e22 15bf ed4f c9bd 5d10 993c
00000120: 0dfd 943b b1a7 be3e 7070 2b3e 93ba a63d
00000130: 9a01 47bd d6cc 493e 6096 22bf caf0 3fbe
00000140: 6c0a 4bbd 0647 c03d 5eab 1dbc ec0c 943e
00000150: 5f88 093f 4032 e03e 47e6 8fbe 65d6 b63e
00000160: 806a 403e e529 b8bc 072c a7be 74c0 0cbe
00000170: 09a7 d3bd 4590 ba3c f676 85bd fbc7 443d
00000180: 6b0a 2dbe 0fd8 093d 8591 81bd b37a 9dbf
00000190: 5400 a4bc 9f52 e03d 5d82 db3d 4745 043e
000001a0: e86a e73d 0e6f 013f c999 fcbc 1b95 38bf
000001b0: 8620 0dbe 8824 b1be 3d97 753b 31a5 f7bd
000001c0: 830c 423e d375 13be 0357 92bd ec11 ccbe
000001d0: da74 86be 2669 58bf ebb3 4a3d f196 943d
000001e0: f45d bc3d 54ea 3fbe f79f 833e 3566 4bbd
000001f0: e015 c6bd 8763 cd3e de08 20be 54d0 b23d
00000200: 2b6d c03d ad92 ec3d 5713 d6bd 1cfc a9bd
00000210: db98 cf3d 1489 763c ddd4 bbbd 5959 5a3f
00000220: 8559 91bd f669 1cbe cf99 88bd 9124 ca3c
00000230: 205c 40be 8229 bdbe ddb0 823c 5096 d5be
00000240: a222 02bd e29f 81bf b344 6bbd fde0 53bf
00000250: 3343 e03d 29f1 623e 13a0 e03e 64ec d93b
00000260: 6635 71bf cd3d 29be be53 1dbc 7c50 373d
00000270: 228e 003f ed1e e7bc 8dd4 633f 405c 0fbd
00000280: 711c fe3d 44d3 1a3e c6f4 6fbd acb1 64bd
00000290: ed0f 31bc 9a18 673c b053 f13e 725d 9cbd
000002a0: e3bf c93d cc15 333f c747 c33d 9878 afbc
000002b0: 4fa1 93bc 57ea f7be ad5f 01be a2b2 d73c
000002c0: c11a 133d f6c4 a4bd a37a 2f3f 4d75 a13e
000002d0: 3732 973d 4ee9 4cbe 3773 533d 34f4 8bbe
000002e0: e6e5 d3be 7f0d c0be 98e8 a33e b357 cbbe
000002f0: d806 6ebe 46ee 063d 1faa b63e f409 6a3c
00000300: a0a9 f13d 5729 a23c 5b7a 95bb 9775 06be
00000310: 788e 093e 1ef9 fa3c d351 6dbd 87d5 9b3f
0.10498671 0.02772574 0.05280138 0.020260256 -0.084368244 -0.5299169 0.041649565 0.6834219
0.08201284 0.4015821 -0.08050552 0.12301893 -0.15013568 0.110003226 0.054357942 0.5157289
0.2557754 0.8280451 -0.03114082 0.08617571 -0.1427892 0.20442097 -0.36458415 -0.083226986
-0.028514683 -0.34622037 0.21705475 -0.09710276 -0.06898693 -0.09110224 0.12915224 0.08262861
-0.027135856 -0.02652653 0.027908223 -0.7847675 -0.03619103 0.029732723 -0.020981142 -0.11697388
0.009770051 0.44801167 0.14011957 0.2680715 0.008849503 1.0149885 0.036156297 0.91493803
-0.15746711 -0.11313374 -0.52032554 -0.13021149 0.8930956 0.12748106 -0.030427683 0.053544663
-0.49375144 0.08575698 -0.8737269 0.07260869 -0.038182314 -0.20432712 0.073839284 -0.024282018
0.027315563 -0.013301447 -0.5539922 -0.055744484 0.038862627 -0.58255184 -0.09829698 0.01868456
0.0045467676 0.37237313 0.1674211 0.08141055 -0.04858551 0.19707045 -0.63510704 -0.18744197
-0.049570486 0.09388547 -0.009623377 0.2891611 0.5372371 0.43788338 -0.28105375 0.35710445
0.18790627 -0.022480914 -0.32650778 -0.1374529 -0.10334594 0.022773871 -0.065168306 0.04804228
-0.16898505 0.033653315 -0.06326584 -1.230307 -0.020019688 0.10953259 0.10718224 0.12917052
0.112996876 0.5056008 -0.03083505 -0.72102517 -0.13781938 -0.34598184 0.0037474178 -0.12092055
0.18950085 -0.14400415 -0.071455024 -0.39857423 -0.26261026 -0.84535444 0.04948799 0.07255352
0.09197608 -0.18741733 0.2570798 -0.04965802 -0.09672141 0.40114996 -0.15628383 0.08731142
0.09395822 0.11551414 -0.104529075 -0.08300039 0.10136577 0.01504733 -0.0917146 0.85292584
-0.070971526 -0.15274796 -0.06669962 0.02467564 -0.18785143 -0.3694573 0.015953476 -0.41716242
-0.03177131 -1.0126917 -0.057438564 -0.8276518 0.10950317 0.22162308 0.43872127 0.0066504944
-0.94222105 -0.16527481 -0.009602485 0.04475449 0.5021688 -0.028212989 0.889962 -0.035000086
0.124077685 0.15119654 -0.058583044 -0.055833504 -0.01080702 0.014104987 0.4713416 -0.07635011
0.098510526 0.69955134 0.09535175 -0.021419808 -0.018021254 -0.48420975 -0.12634154 0.026330296
0.035914186 -0.0804538 0.68546504 0.31534806 0.073826246 -0.20010874 0.05162355 -0.2733475
-0.41386336 -0.37510297 0.32013392 -0.39715347 -0.23244798 0.03294208 0.35676667 0.0142846
0.117999315 0.019795103 -0.004561705 -0.13130794 0.13433254 0.030636366 -0.05793936 1.2174538

classifier.bias f4 [2]
00000000: 2fe9 a6bd 5feb c93c
-0.08149945 0.024648366
