old_paper/ckpt/simple_Conv_100_25.pth (torch, 253025 bytes, 4 tensors)

features.0.weight f4 [100, 1, 25, 25]
000000 57 bf e3 3b 97 7c c2 bb f7 ba 07 3d 9c bf 25 3b
       0.0069502997 -0.0059352624 0.033137288 0.002529121
000010 d5 46 a6 3c c6 38 82 3c a0 38 b9 bc 0f 6a 9d 3c
       0.020297447 0.015896212 -0.022610009 0.019215612
000020 30 74 24 3d c0 5f 8c 3b 0c 4d 4c 3c ed 89 4c 3d
       0.040149868 0.004283875 0.012469541 0.049936224
000030 fa c4 1c bb 4b c3 3b bc 45 96 17 3d 53 60 1b bc
       -0.0023921118 -0.011460136 0.037008543 -0.009483415
000040 83 32 d4 3c f1 2d 91 bb 66 85 b1 bc 74 ee 2e 3d
       0.025902992 -0.0044305255 -0.021670055 0.042707875
000050 cc b7 4e 3d 81 f3 00 3d 0d 6f 56 3d 1b d2 35 3d
       0.05046825 0.031482223 0.052352 0.044389825
000060 01 1c 43 3d 57 c7 0e 3d c3 1d 09 3d 22 43 23 3d
       0.04763413 0.034858074 0.03347565 0.039858945
000070 93 49 0c 3d 25 82 a4 3c af ae 42 3d 5a 0f 49 3d
       0.034249853 0.020081589 0.047529873 0.049086906
000080 b4 fe 14 3d 34 9a ee 3c 88 34 78 bc 5e ea 5b 3d
       0.036375716 0.029126264 -0.015149243 0.053690307
000090 c4 3e 59 bc 14 e0 c5 bc fb 9a 3a 3d 11 0b 9b bc
       -0.013259593 -0.0241547 0.045557957 -0.018926175
0000a0 b2 09 16 bc c4 ee 1a 3d 03 ce 96 3c 1e 51 4e 3d
       -0.009157585 0.03782536 0.01840878 0.050370328
0000b0 1c 7d 30 3d 3c 12 f1 3b f4 c7 10 3d 9c 8a 21 3d
       0.043088064 0.00735691 0.03534694 0.03943883
0000c0 23 e6 57 3d e6 a0 89 3c 0f ce 26 3d e1 69 32 3d
       0.05270971 0.016800355 0.040723857 0.043558005
0000d0 bd 89 c6 bc f8 ae a2 ba 14 47 1d 3d f1 45 5a 3c
       -0.0242356 -0.0012411764 0.038397864 0.013322339
0000e0 b6 5c 11 3d 86 fb 59 3d 6a b4 af bc 8b ee 85 3b
       0.035488807 0.053218387 -0.021448333 0.0040872744
0000f0 7f e3 47 3d b1 fc bd bc 75 e7 1e 3d 83 f5 84 bb
       0.04880094 -0.023191782 0.038794953 -0.0040575876
000100 de 54 40 3d 28 43 4e 3d cc 44 54 bb 3d 12 c7 bc
       0.046955936 0.050357014 -0.003238964 -0.024300689
000110 63 6c f2 3c 3a 2d 53 3d be f8 50 3d 39 f3 8f 3c
       0.029592698 0.051556803 0.05101847 0.017572032
000120 19 a7 1f 3d ce c5 11 3d 63 fa 7f bc b9 3a ad 3c
       0.038977716 0.035589032 -0.015623662 0.021146165
000130 7a 27 f7 3c 45 41 bb bc 91 11 c2 3b 4b 52 29 bc
       0.030170191 -0.022858271 0.0059225042 -0.010334562
000140 65 91 f6 bb a9 81 b0 3b 89 0b 3e 3d 80 16 9e bb
       -0.0075246566 0.0053865504 0.04639772 -0.0048244596
000150 49 21 57 3d 2a b2 1e 3d aa e9 53 3d 90 f1 1b 3d
       0.052521978 0.03874413 0.05173651 0.03807217
000160 84 63 8d bc bb 0e e1 3b 0a 0f dd 3c ba 4b 05 bb
       -0.017259367 0.006868211 0.02698471 -0.0020339326
000170 5c 88 86 bb 6a a9 07 3d 72 e8 39 3d 94 07 95 3b
       -0.004105611 0.03312055 0.045387693 0.0045480225
000180 f3 59 0d 3d f9 53 ae bc 70 a8 71 3c ae db cc 3b
       0.03450961 -0.021280276 0.014749631 0.006251774
000190 ca fa 10 3d 9f c1 ae 3c 96 8e b7 3a 27 5a 8f 3c
       0.03539542 0.02133256 0.0014004286 0.017499043
0001a0 09 d6 f2 3c 75 e5 be bc 6d f1 ae bc 5f c0 20 3d
       0.029643076 -0.023302773 -0.021355355 0.03924596
0001b0 df 8a 02 bc d7 bb 0f 3d 71 68 d4 3c 67 0d 48 3d
       -0.00796768 0.035091247 0.025928708 0.048840906
0001c0 7f 66 08 3d 8d ce 9f 3b 05 75 46 bc ab 4b 9d bc
       0.033300873 0.0048769177 -0.012112861 -0.01920112
0001d0 84 3f 7c bc 7c 50 0c 3d 71 dd 4a bc 4a 9d 18 3d
       -0.015396003 0.034256443 -0.012381897 0.037259378
0001e0 75 dc 90 3c cd 05 2d bc 83 85 bc bc bc 42 16 3d
       0.017683247 -0.010560465 -0.023012882 0.036684737
0001f0 47 ff b5 3c 95 41 11 3d 95 14 87 bc 96 75 a1 bc
       0.022216452 0.035462935 -0.016489306 -0.01970939
000200 59 8b 3f 3d 21 5b 8d 3c 49 e7 22 3d c1 67 f5 3c
       0.04676375 0.017255368 0.039771352 0.0299567
000210 10 b0 7b bc d0 b9 25 3d bd 80 3e 3d db c8 8e 3b
       -0.015361801 0.040460408 0.046509493 0.00435744
000220 28 4c 93 bc ca ac 2c 3d c6 e4 af bc a8 b0 4a 3d
       -0.01798065 0.042156972 -0.021471392 0.04948488
000230 04 c1 e4 3c 12 ca 0d 3b 5c 13 a4 bc 71 73 01 3d
       0.027924068 0.0021635336 -0.020028763 0.031604234
000240 55 28 19 3d 9d 59 04 3d f8 89 dc 3c bb 4f 52 3d
       0.03739198 0.032312024 0.026921257 0.05134557
000250 7e 2b 25 3d 0c 8c aa 3c cd 72 19 3d 21 16 9b bc
       0.04032468 0.020818733 0.037463 -0.01893145
000260 d2 45 14 3d f5 a0 4d 3d 0c 02 23 3c fc 0b 7a 3c
       0.0361994 0.05020233 0.0099492185 0.015261646
000270 0f 1a 5d 3a e6 15 91 bc 76 19 b9 3a 16 91 bd bc
       0.0008434364 -0.017710637 0.0014121968 -0.023140471
000280 aa c1 56 bb 31 79 0a 3d 49 00 12 3d 18 4a 1d 3d
       -0.0032769241 0.033806983 0.035644803 0.03840074
000290 c4 0b aa 3c 65 b5 6c bc ac b1 49 3d 18 e3 20 3d
       0.020757563 -0.014447545 0.049241707 0.039279073
0002a0 7a af b9 bb 99 d1 c6 bc 11 13 24 3d 20 33 1b 3d
       -0.0056666704 -0.024269866 0.040057246 0.037890553
0002b0 a5 4d 44 3d 17 42 c3 bb 2c 01 20 3d 2c 9f 4d 3c
       0.04792561 -0.0059588063 0.039063618 0.012550157
0002c0 1b 9e da bb e0 a1 82 bc 24 da 93 3b 3a b5 0c 3c
       -0.0066716797 -0.015946329 0.0045120884 0.00858813
0002d0 77 bc a5 3c cf c9 9d 3c b5 a9 15 3d d6 e6 06 bc
       0.020231469 0.019261269 0.0365388 -0.0082337465
0002e0 03 02 e5 3b 41 2c 01 3d c8 93 e2 3c bc 7e 9e 39
       0.006988765 0.031536344 0.027658358 0.00030230533
0002f0 c2 97 27 3d 72 d5 b0 bc e8 08 6b bb 02 db 2d 3d
       0.040916212 -0.021586154 -0.0035863463 0.04244519
000300 c4 23 0e 3d 3c 28 83 bc 00 f2 73 3c 63 3c 18 bc
       0.034702078 -0.016010396 0.01488924 -0.009291741
000310 a8 fa cc ba 0d 90 be bc 3a 4c 68 3b f3 f2 03 3d
       -0.0015638666 -0.023262048 0.0035445825 0.032214116
000320 f7 a0 34 bc cd 31 23 3d c9 35 26 3d bc fe 2e 3d
       -0.011024705 0.039842416 0.040578637 0.042723402
000330 ff c5 e9 3c fa 0e 6d bc fa de 4b 3d 94 2e b4 bc
       0.028536795 -0.014468903 0.049773194 -0.021994866
000340 99 f7 4e 3a 95 a5 1f 3d 38 30 49 3d 49 9c b7 bb
       0.00078951713 0.03897627 0.04911825 -0.0056033474
000350 b4 f4 28 3a 45 ba 31 bc 44 96 4b 3d c6 7d e7 ba
       0.0006445155 -0.010847633 0.04970385 -0.0017661385
000360 1a 81 bd bc 74 af 2d 3d 9b 61 e9 bb 7c 76 e1 bb
       -0.02313285 0.042403653 -0.007122231 -0.0068805795
000370 83 ac 3e 3d f3 b7 41 3d 82 83 16 bc e6 6a 86 3c
       0.04655124 0.04729457 -0.009186627 0.016408395
000380 16 05 01 3d 5a 3e 15 3d d0 ed 37 3d 49 ce bb bc
       0.03149899 0.036436416 0.04490453 -0.022925513
000390 bc c4 05 bc e0 0b 1e 3d 47 7c 28 3d 92 da 22 3d
       -0.008164581 0.038585544 0.041134145 0.039759226
0003a0 bc fd 48 3d 5b 80 a7 3c d5 dc 63 bc 9d a9 db bb
       0.049070105 0.020446947 -0.013907631 -0.006703569
0003b0 1c c0 26 3b 2c d2 82 bc 5a e1 ca 3c b3 48 1b bc
       0.0025444096 -0.015969358 0.02476566 -0.009477782
0003c0 04 51 50 3d d3 39 54 3c 13 b5 5a bc 58 de 25 3d
       0.050858513 0.0129532395 -0.0133488355 0.040495247
0003d0 10 60 3c 3d 46 bd 11 3d 67 d1 b5 3c 74 c6 01 bb
       0.04599005 0.035580896 0.022194577 -0.0019802125
0003e0 fa cf 15 3d bf de e9 3c 01 4c 54 bc 94 15 20 3d
       0.036575295 0.028548596 -0.012957574 0.03908308
0003f0 29 f5 5b 3d 29 2e ef 3c 94 d6 a6 bc 05 db 19 3d
       0.0537006 0.029196816 -0.02036599 0.03756239

features.0.bias f4 [100]
000000 f6 af 2a 3d 60 b9 4a 3d b4 dd 2f 3d 7d 96 00 bc
       0.041671716 0.049493194 0.042936042 -0.007848379
000010 18 b4 81 bb 42 58 d8 bc 20 3c 99 bb 24 ec 1c 3d
       -0.0039582364 -0.026409272 -0.004676357 0.03831114
000020 a4 e0 1d 3d e0 18 01 3d 62 4a c8 bc 8a 3a 10 bd
       0.038544312 0.031517863 -0.024449531 -0.035212077
000030 71 50 8c 3e a5 d3 0f bd f5 cc fd bc 29 58 8a bc
       0.27405122 -0.03511395 -0.03098152 -0.016887741
000040 9e e9 a0 bc 32 0b 10 3d e0 e1 63 ba 41 29 19 3c
       -0.019642647 0.035166927 -0.0008693021 0.009348215
000050 c8 06 50 3b 60 85 49 3d 5b 65 06 bd 72 4b e1 3d
       0.0031742323 0.049199462 -0.032811504 0.11000718
000060 40 f8 78 bc d0 53 8b bc 41 27 89 3e d5 c3 15 3d
       -0.015195906 -0.017007738 0.2678776 0.036563713
000070 2b 59 b0 bc d4 2e 16 3d f2 65 10 3d f0 9f be bc
       -0.021526894 0.036665753 0.035253473 -0.023269624
000080 82 b3 ff bc d5 ba 80 3d b8 ad 0c bb 37 93 01 bc
       -0.031213526 0.062856354 -0.002146585 -0.007908634
000090 0e 29 90 3c 60 5b 7b 3a d4 de 39 3d c0 dc d1 bc
       0.017597701 0.0009588506 0.04537852 -0.025617957
0000a0 57 86 32 bc 60 b7 74 bc a2 db 19 3d b4 33 30 bc
       -0.010896287 -0.014936298 0.037562974 -0.0107545145
0000b0 ac 70 c2 bc c9 0b f2 bc 48 3a 76 3d 35 46 9e 3d
       -0.023735367 -0.029546635 0.060114175 0.07728235
0000c0 80 11 c8 39 0a bc 9e bc fc 5e ce bc ca e8 27 3d
       0.0003816001 -0.019376773 -0.025191776 0.04099349
0000d0 0f 73 4c bc da a2 d0 bc 2d 0d 29 3e 68 0f 31 3d
       -0.012478604 -0.025468279 0.16508932 0.043227583
0000e0 86 8d 18 bd 00 26 84 b8 36 25 ec 3c d4 27 fa bc
       -0.037244342 -6.3013285e-05 0.028826337 -0.03053657
0000f0 9f 3a 0a 3e e0 25 52 bc 16 fa 10 3d a0 03 da bb
       0.13498925 -0.012826413 0.03539475 -0.006653264
000100 36 cc 07 bd c5 de 76 bc e8 f2 17 3e 2f b1 17 bd
       -0.033153735 -0.015067761 0.14838755 -0.03703421
000110 11 e3 c7 bc 28 bd 3f 3d 4e e7 38 bc 4f 20 10 3d
       -0.024400266 0.046811253 -0.011285616 0.035187062
000120 37 38 a2 3e fc fb 32 bb 88 86 a2 bc bd 0d 01 bd
       0.31683514 -0.002731084 -0.01983954 -0.031507242
000130 68 37 02 3d f0 6f 17 3a b0 c3 08 3e 4c 2e ab bc
       0.03179112 0.0005776873 0.13355899 -0.0208961
000140 c8 cd d7 3a 70 58 36 3d ea 73 83 bc 18 ba 5d 3b
       0.0016464526 0.044517934 -0.016046483 0.0033832844
000150 17 61 02 bd 65 68 15 bd 0c 83 a2 bc 7f e9 2e 3e
       -0.031830873 -0.03647651 -0.019837879 0.17081259
000160 24 fe d6 bc c8 49 93 3a b5 9c 03 bd a5 20 d9 bc
       -0.02624423 0.0011237198 -0.03213187 -0.026504824
000170 0e 05 1c bd 6d 45 58 bc ac 9a 5d 3e 55 76 f7 3b
       -0.038090758 -0.013200146 0.21641034 0.007551948
000180 2c a4 93 3d b5 0c de bc 73 aa 38 bc 63 d3 04 bd
       0.07209048 -0.027105669 -0.011271107 -0.032428157

classifier.weight f4 [2, 100]
000000 bd ea d5 3d 64 d0 78 be 29 c9 80 be 0f 92 0d 3d
       0.104451634 -0.24298245 -0.25153473 0.03456312
000010 d7 47 4b be f3 36 b2 bc e6 e0 79 bd 71 00 f7 3d
       -0.19851623 -0.021754717 -0.061005495 0.12060631
000020 a2 c4 92 3d 3c 2b 5a 3d 57 36 38 3d 85 c3 b1 bd
       0.07166411 0.053263888 0.044973698 -0.086798705
000030 2b 03 c3 3e a0 69 54 bd 59 d4 b5 3d a2 1f 48 bb
       0.38088354 -0.051858544 0.08878393 -0.0030536433
000040 36 57 a7 3d 60 e3 3c be 4a 9f ed bd df 13 05 bd
       0.08170931 -0.18446112 -0.116026476 -0.032489654
000050 77 e2 ae bd e7 1e 8d be 0c 27 c1 bd ca c5 e1 3d
       -0.085392885 -0.2756264 -0.09431276 0.110240534
000060 09 28 7c bd c8 ac d1 bd de 6e c8 3e c2 1f 42 3e
       -0.061561618 -0.102380335 0.39147085 0.18957427
000070 36 4f 05 bc 12 fe 81 3d e5 a8 64 be dc dd 91 3d
       -0.008136561 0.06347288 -0.22330053 0.071223944
000080 65 0c 8d 3b 7b d2 7b 3e 04 c6 60 bd ca 92 d0 3d
       0.004304456 0.2459201 -0.054876342 0.10184248
000090 9e b7 12 3d 7e 00 01 be f9 dc 57 be 41 c2 25 be
       0.035819642 -0.12597844 -0.21080388 -0.16187383
0000a0 a3 92 e4 bd 4f d6 62 be 81 a6 4e 3e 80 b3 20 3d
       -0.11160781 -0.22152065 0.20180704 0.039233685
0000b0 3d f2 3c bc 29 4d a0 3d 1c a6 a0 be 9e ae 47 3e
       -0.0115323635 0.07827217 -0.3137673 0.19500205
0000c0 84 9d 47 bd 68 7a 37 3c 1a 78 48 3c ed 95 5f be
       -0.048734203 0.0111986175 0.012235666 -0.21834536
0000d0 d1 b5 f3 3d 1c d0 05 be a7 f9 61 3e 21 dd 70 be
       0.11899913 -0.13067669 0.22067891 -0.23521854
0000e0 cc fe 83 bd 90 7d 93 ba be 5a bb 3c b0 46 d8 3d
       -0.06445083 -0.001125263 0.022870418 0.105603576
0000f0 7c f4 4b 3e d4 22 c2 3d 90 af 65 be 9c 40 f5 bd
       0.19917482 0.09479299 -0.22430253 -0.11975214
000100 3c 88 ac bd 9b 15 e2 3d 15 1f 5c 3e b3 97 eb 3c
       -0.08424422 0.11039277 0.21496232 0.02875886
000110 57 05 f5 3c 60 27 60 be 2e 64 c9 3d 78 80 06 3e
       0.029909773 -0.2189002 0.09833561 0.13134944
000120 b4 74 df 3e 69 69 09 bd 49 a2 ce 3d 84 e6 32 bd
       0.43643725 -0.033547793 0.10089547 -0.043676868
000130 3d 48 32 be 19 4c 31 3d 2b 4e 52 3e 6c 99 21 be
       -0.17410369 0.043285463 0.20537631 -0.15781182
000140 9f e0 b9 bc db 18 81 be a3 c7 3a 3d 7c 97 88 bd
       -0.022690115 -0.25214276 0.045600545 -0.06669518
000150 6c 3e 89 bd f8 75 b3 bd 3f 25 a6 bd 43 d5 83 3e
       -0.06701359 -0.08762735 -0.08112573 0.25748643
000160 2e ae d9 3d 77 7b b9 bd c7 3f b6 3d 92 21 9a 3d
       0.10628925 -0.09056752 0.08898883 0.07525934
000170 ad ed d4 3c cb 2f fe bd bd e2 9d 3e 2d f1 e7 3d
       0.025992239 -0.124114595 0.3083705 0.113252975
000180 4e 48 af be bb bd da bd 52 76 93 3d 0a c2 75 3d
       -0.34234852 -0.106807195 0.07200302 0.059999503
000190 e3 68 2a be e7 ea 80 3e 86 0c 3b 3e 9c 5e 3b 3d
       -0.16641574 0.25179216 0.18266496 0.045744523
0001a0 f3 15 23 3e 1e 2b e3 bd 22 75 2c 3e db c5 13 be
       0.15926342 -0.11092208 0.16841558 -0.14430945
0001b0 e9 1b 42 be 27 e6 00 be 5c 33 c3 3d ce b6 b6 bd
       -0.1895596 -0.12587796 0.095312804 -0.08921586
0001c0 bc c5 ca be 0f 0d 98 3d de f1 5e 3d b8 60 c8 bb
       -0.39603984 0.07424366 0.05442988 -0.0061150454
0001d0 b0 0c a7 bd a6 57 30 3e 5e f1 7f 3d a7 ce cb bd
       -0.08156717 0.17220935 0.062486045 -0.09951525
0001e0 94 c5 ef 3c 04 8c 58 3e 4b f9 d7 3c 4d cd 51 be
       0.029269017 0.21147162 0.02636399 -0.20488472
0001f0 72 ea f0 bc 49 db 09 bd 5d 27 bb be 46 10 5b bd
       -0.029408667 -0.033656392 -0.3655347 -0.053482316
000200 7c 02 de bb b0 9b 1a be fb a7 09 3e 88 1e be bd
       -0.0067751985 -0.15098453 0.13442986 -0.09283167
000210 08 74 d6 3c 76 6a e5 bd 62 18 aa 3d a6 12 93 3d
       0.026178375 -0.112019464 0.08305432 0.07181291
000220 ef f0 3b bd 23 06 50 3d 33 5d 76 3e 29 5d 31 3e
       -0.04588407 0.050787102 0.2405899 0.17320694
000230 9c a9 97 bd 7d 0f 4d 3d 22 1c ea bc 0c 35 2d 3d
       -0.07405397 0.0500636 -0.028577868 0.042286918
000240 7e b4 af bd b5 73 43 bb 92 75 8c 3e 41 b5 2d be
       -0.08579348 -0.0029823605 0.2743345 -0.16963674
000250 64 38 47 3d 19 1b fa 3d 35 a5 82 3d 60 d4 44 3e
       0.048637763 0.122122 0.06379167 0.1922164
000260 16 0f 4e bc b4 d7 38 3d dd 1b 80 be 94 17 4e 3e
       -0.012576839 0.045127586 -0.25021258 0.20126182
000270 e7 a5 bf bd bd c1 1c 3e 77 d8 10 be 06 ed dc bd
       -0.09357815 0.1530828 -0.14145075 -0.10787396
000280 25 7d 41 be 6f 19 61 3b af 07 04 3e 08 66 e0 3d
       -0.18895395 0.0034347435 0.12893556 0.10956961
000290 0c 7d 19 3c a5 5f 37 bd 84 cb 57 be 3f e5 13 3d
       0.009368192 -0.044768948 -0.21073729 0.036107298
0002a0 2b db e3 bd 55 10 84 3e 8b ef 12 be 40 4b 8d bd
       -0.11125787 0.2579371 -0.14349191 -0.068991184
0002b0 3f 29 ea be 8c d5 53 3c 15 5f 10 be a9 b1 1a bd
       -0.45734593 0.0129293315 -0.14098771 -0.037767086
0002c0 6b a2 14 3e 60 a5 01 3e 3a e7 37 be 10 ce 51 3e
       0.14515083 0.12660742 -0.179593 0.20488763
0002d0 e7 80 6a 3d 70 79 41 3e 41 83 77 3c 1a 6f be 3c
       0.057251837 0.18893981 0.015106977 0.023246337
0002e0 72 e4 76 3d 2a 10 12 bc ec 76 ab bd 4e 26 6d be
       0.060276456 -0.008914987 -0.08372292 -0.23159143
0002f0 cb a6 ce 3b 77 7b 9b bc 03 1c 7e 3c 09 6c d0 3d
       0.0063065044 -0.018979771 0.015509608 0.10176856
000300 43 32 32 3c 2a 4d 2a bd a7 16 9d be e1 90 3d 3d
       0.010876241 -0.041577496 -0.30681345 0.046280745
000310 7e 68 b7 3e bc 0a b5 3d e6 18 30 3d a5 c5 3e bd
       0.3582191 0.08839938 0.042992495 -0.046575207

classifier.bias f4 [2]
000000 dc de 82 3e fa 5f bb bd
       0.25560653 -0.091491655
