old_paper/ckpt/simple_Conv_100_3.pth (torch, 6619 bytes, 4 tensors)

features.0.weight f4 [100, 1, 3, 3]
0.2102645 0.1422787 -0.06753464 0.11678239 0.113021694 0.22328454 -0.24007708 0.29508275
0.25174794 -0.10668659 -0.23682475 -0.05140218 0.03368202 -0.22128654 0.2438526 0.15012988
0.17212561 0.25043517 -0.36918652 0.09211908 -0.2923086 0.20064238 0.025517136 -0.262877
-0.2922952 -0.2923029 0.06170225 0.057715923 0.17547849 0.20205083 0.26384285 -0.27144372
-0.3098841 -0.10017049 -0.14380968 0.28694484 0.43189475 0.20914243 0.43184495 0.4605994
0.4318647 0.4180283 0.43189377 0.0059963735 0.26632464 0.18096967 0.44607577 0.44608748
0.44609204 0.17565651 0.4461403 0.2617595 0.43990675 0.21557374 -0.26168707 -0.09357414
0.13992438 0.04981886 0.32739484 0.23419745 0.19449624 0.27407092 0.21448217 0.35522598
-0.22808658 -0.031019658 0.1050283 0.2680779 -0.12527859 0.18850628 -0.0137574375 0.104979485
0.23661506 0.085878104 -0.06622529 0.23661727 0.23661426 -0.109307975 -0.17490637 0.07347891
-0.26041874 0.31698954 -0.23837893 0.09777184 0.18582676 0.018992687 0.31099373 0.12874508
0.21512403 -0.069963954 0.393133 0.098665476 0.3231828 0.40805194 0.07618001 0.3044203
0.12455199 -0.055327475 0.37887293 0.049580846 -0.1446049 -0.09517301 0.117697865 0.17610006
-0.15633424 -0.2325898 -0.14229268 -0.14061855 0.2623447 -0.047505707 -0.018198162 0.037712246
-0.27855974 0.17395352 -0.21276142 0.031995565 -0.26127586 -0.3253863 0.29045922 0.28709698
-0.19134937 -0.30269265 -0.054484945 0.24304406 0.088724345 -0.31927112 0.2386036 0.21177292
0.04596272 0.25569716 -0.34141093 0.18230742 -0.21004608 0.23882736 0.016753107 0.28473234
0.22470683 0.14297101 -0.13174799 -0.023263002 0.09793116 -0.028337358 0.13170266 0.22423539
0.1053635 -0.2359006 0.024456343 -0.30264354 0.31649902 0.06950899 0.099950984 -0.042402633
0.024808755 0.26235196 0.014695991 -0.08623843 0.052232835 -0.25108474 0.19794764 -0.05353326
-0.277479 -0.34451514 -0.15609138 0.16139963 -0.2727813 0.024325967 0.039195865 0.050361544
-0.0056802332 0.24372104 -0.14496665 -0.14063522 -0.08858943 -0.2918199 0.22347178 -0.24811359
0.0064429445 -0.2709143 0.14832775 -0.18374772 0.28607938 0.26665595 -0.16510443 0.3094416
-0.20319593 -0.22185504 0.21406619 -0.022861296 -0.19320567 -0.15960026 0.23577943 -0.18710041
-0.12309763 0.2831684 -0.11580007 0.10028592 0.23049405 0.16436732 -0.222141 -0.15761118
0.19322522 -0.16939797 0.25211215 0.2104639 -0.2082791 -0.26462153 0.06927853 0.32172838
-0.027952576 -0.13044904 -0.1342381 0.17263557 0.055599052 0.2864726 0.25116178 -0.10438193
-0.10373621 -0.17767565 0.23963705 0.17326275 -0.21592805 -0.044080168 -0.0035845935 0.07958391
-0.21236551 -0.19799556 -0.045551803 -0.11828493 0.15511477 0.0513401 -0.2333468 0.030833464
0.28521973 -0.042153116 0.2663838 -0.074731514 0.19860198 0.34479484 0.3222374 0.2371247
-0.27718642 -0.119894736 -0.269978 -0.34680328 0.23835726 0.13409267 -0.030891567 -0.3646293
0.016461223 0.13408716 0.13680889 -0.2488288 0.049162984 -0.20108859 0.004372835 0.3112761
00000000: 944f 573e 82b1 113e 9a4f 8abd 9b2b ef3d
00000010: eb77 e73d b4a4 643e c4d6 75be 1615 973e
00000020: 1be5 803e 807e dabd 3082 72be 188b 52bd
00000030: 28f6 093d f098 62be 7fb4 793e a6bb 193e
00000040: b241 303e 0a39 803e 0406 bdbe eea8 bc3d
00000050: 79a9 95be 3275 4d3e 5009 d13c d097 86be
00000060: b7a7 95be baa8 95be 80bb 7c3d 8867 6c3d
00000070: a2b0 333e 6ae6 4e3e 6916 873e acfa 8abe
00000080: 21a9 9ebe 3026 cdbd d842 13be 6fea 923e
00000090: 4f21 dd3e 6f29 563e c81a dd3e afd3 eb3e
000000a0: 5f1d dd3e ce07 d63e 2e21 dd3e 3a7d c43b
000000b0: b45b 883e 1d50 393e 0b64 e43e 9465 e43e
000000c0: 2d66 e43e 4ddf 333e 806c e43e 5705 863e
000000d0: 753b e13e 5dbf 5c3e d9fb 85be cca3 bfbd
000000e0: 5648 0f3e dc0e 4c3d 4ca0 a73e 75d1 6f3e
000000f0: 062a 473e 0653 8c3e 37a1 5b3e 2ee0 b53e
00000100: 878f 69be f01c febc 1419 d73d 8241 893e
00000110: 0849 00be ca07 413e e066 61bc 7cff d63d
00000120: 384b 723e dce0 af3d 20a1 87bd cc4b 723e
00000130: 024b 723e dcdc dfbd a81a 33be 1c7c 963d
00000140: 9b55 85be 744c a23e 9b19 74be 9a3c c83d
00000150: 5f49 3e3e 8d96 9b3c 923a 9f3e c0d5 033e
00000160: 7949 5c3e 4349 8fbd bb48 c93e 2011 ca3d
00000170: 3778 a53e 2fec d03e 4404 9c3d fadc 9b3e
00000180: 1d15 ff3d 109f 62bd a2fb c13e 4915 4b3d
00000190: 4f13 14be 11ea c2bd 940b f13d 9353 343e
000001a0: 1516 20be 052c 6ebe 2cb5 11be 4ffe 0fbe
000001b0: 0b52 863e 5895 42bd 5014 95bc 2878 1a3d
000001c0: 629f 8ebe df20 323e 21de 59be c80d 033d
000001d0: f3c5 85be 0899 a6be 12b7 943e 60fe 923e
000001e0: 17f1 43be 88fa 9abe 9b2b 5fbd 8be0 783e
000001f0: 1cb5 b53d 8177 a3be 8154 743e 00db 583e
00000200: 6843 3c3d bdea 823e 6acd aebe ccae 3a3e
00000210: 5216 57be 298f 743e d03d 893c 70c8 913e
00000220: 8c19 663e fe66 123e f2e8 06be 0d92 bebc
00000230: 2290 c83d bf23 e8bc 10dd 063e f69d 653e
00000240: d2c8 d73d ed8f 71be ab58 c83c 18f4 9abe
00000250: 290c a23e bb5a 8e3d 1ab3 cc3d 62ae 2dbd
00000260: bb3b cb3c ff52 863e 74c7 703c c69d b0bd
00000270: 19f2 553d 2e8e 80be c9b2 4a3e b145 5bbd
00000280: ba11 8ebe 4a64 b0be 6bd6 1fbe f245 253e
00000290: fea9 8bbe 4047 c73c d88b 203d e847 4e3d
000002a0: 4021 babb 0292 793e 2372 14be ae02 10be
000002b0: 606e b5bd 6b69 95be c9d5 643e 7d11 7ebe
000002c0: 561f d33b 47b5 8abe 3be3 173e 5d28 3cbe
000002d0: ff78 923e 2187 883e 2311 29be 216f 9e3e
000002e0: 9812 50be f82d 63be 2b34 5b3e 9d47 bbbc
000002f0: b5d7 45be 406e 23be 2a70 713e 4097 3fbe
00000300: 9c1a fcbd 73fb 903e 9628 edbd b462 cd3d
00000310: a206 6c3e e84f 283e ee78 63be d364 21be
00000320: d5dc 453e a976 2dbe d814 813e d983 573e
00000330: 1e47 55be 797c 87be e7e1 8d3d 95b9 a43e
00000340: cdfc e4bc 6f94 05be b675 09be 61c7 303e
00000350: d5bb 633d 89ac 923e 4798 803e 31c6 d5bd
00000360: a673 d4bd 9bf0 35be 6a63 753e ca6b 313e
00000370: 3e1c 5dbe 688d 34bd 80eb 6abb e4fc a23d
00000380: 5876 59be 59bf 4abe 8794 3abd 5f3f f2bd
00000390: 68d6 1e3e ff49 523d 77f2 6ebe 7696 fc3c
000003a0: 5208 923e bfa8 2cbd 7563 883e d60c 99bd
000003b0: 515e 4b3e f388 b03e 4dfc a43e d1d0 723e
000003c0: 61eb 8dbe 5f8b f5bd 8e3a 8abe 3390 b1be
000003d0: ed13 743e 974f 093e 5010 fdbc b1b0 babe
000003e0: b0d9 863c 254e 093e a117 0c3e facc 7ebe
000003f0: 205f 493d 2bea 4dbe 004a 8f3b 955f 9f3e

features.0.bias f4 [100]
0.15328492 -0.2297608 0.29232666 -0.2869429 0.43208787 0.44621995 0.21452226 -0.22774263
-0.23661608 0.11521416 0.37888953 0.1446037 -0.078499004 0.16531134 -0.20061895 0.24026273
0.17859979 0.2511059 -0.07040886 0.1244256 0.104145564 -0.29851827 0.15761907 0.23990811
-0.24030916 -0.027590873 0.23710427 -0.13408959 -0.09012598 0.3569308 -0.16907282 -0.12357231
0.5371183 0.29360974 0.119622216 -0.13802361 0.41400883 0.12077934 -0.12500815 -0.26389754
0.24264002 0.31506488 -0.06191118 -0.0037465605 0.18516584 0.34821737 0.32648543 -0.10974656
-0.2588482 -0.13543741 -0.13919856 -0.27524164 0.46663758 0.4200516 0.24038796 0.5279744
0.35709924 0.24549042 0.25790596 0.50968206 0.080304384 -0.02496276 0.053575166 -0.02930434
0.32153574 -0.16498911 -0.23167954 0.20327142 -0.1875701 -0.19247846 0.34248 0.23362468
-0.022240987 -0.29028556 -0.2735158 0.14830275 0.05902263 -0.26090482 0.15647686 -0.19098644
-0.243687 -0.3218349 0.12543543 0.28048584 0.09868526 0.4204738 -0.30840313 0.4160436
0.17334692 -0.015178297 -0.27583995 -0.32287735 -0.1346796 -0.16900103 0.38561487 0.38057387
-0.0805354 -0.20746855 -0.12522846 -0.25472084
00000000: b9f6 1c3e 6a46 6bbe d7ab 953e 2eea 92be
00000010: 9f3a dd3e f176 e43e b9ab 5b3e 5d35 69be
00000020: 7c4b 72be 67f5 eb3d cffd c13e fe12 143e
00000030: 16c4 a0bd 6047 293e 0e6f 4dbe 6f07 763e
00000040: dde2 363e f490 803e 8532 90bd d9d2 fe3d
00000050: 454a d53d 63d7 98be e566 213e 79aa 753e
00000060: 9b13 76be 4106 e2bc 76cb 723e c84e 09be
00000070: f893 b8bd a2bf b63e 6d21 2dbe 7b13 fdbd
00000080: 9680 093f 0454 963e 7efc f43d 1056 0dbe
00000090: f7f8 d33e 295b f73d 2302 00be 941d 87be
000000a0: a076 783e 2f50 a13e 9496 7dbd db88 75bb
000000b0: 1d9c 3d3e 8c49 b23e 1929 a73e cec2 e0bd
000000c0: c087 84be 1bb0 0abe 118a 0ebe 79ec 8cbe
000000d0: 1feb ee3e 0111 d73e 4328 763e 5529 073f
000000e0: b6d5 b63e d761 7b3e 400c 843e 867a 023f
000000f0: a076 a43d b47e ccbc a271 5b3d a80f f0bc
00000100: 55a0 a43e e8f2 28be 673d 6dbe 6226 503e
00000110: 6012 40be 1319 45be 8a59 af3e 4f3b 6f3e
00000120: bb32 b6bc 4fa0 94be 430a 8cbe addc 173e
00000130: b7c1 713d 5195 85be 783b 203e f391 43be
00000140: 1689 79be 8bc7 a4be 2572 003e d79b 8f3e
00000150: 7f1b ca3d 5848 d73e 04e7 9dbe ab03 d53e
00000160: db81 313e 64ae 78bc e53a 8dbe 2e50 a5be
00000170: 73e9 09be 9b0e 2dbe 506f c53e 94da c23e
00000180: beef a4bd a372 54be e43b 00be c56a 82be

classifier.weight f4 [2, 100]
0.22483037 0.033980712 -0.19974418 0.060322378 0.6991742 0.61678636 0.20832787 0.055480108
-0.05808417 0.25153828 0.4597994 -0.2301108 -0.12971741 -0.093203485 -0.052762054 0.17612
0.057577297 -0.21429013 -0.08202181 -0.20522173 0.08464978 -0.010277569 -0.12938924 0.17192009
-0.021024942 0.042631052 0.16124669 -0.122530386 0.16584857 -0.4409568 -0.09355424 0.106395796
-0.7749278 -0.37715462 -0.15816095 -0.12674507 0.8209566 0.073376134 0.076939 0.08008868
0.3194024 0.024132159 -0.06142648 -0.21998681 -0.23543142 -0.1911507 0.33028683 0.011565829
0.07875348 -0.021214213 0.021349138 -0.00977745 -0.63136506 0.619741 0.38975894 -0.76553065
-0.29527503 -0.09364702 -0.18073972 0.87099594 -0.1740621 0.02634756 0.02379101 0.013303179
0.19028407 -0.032797933 -0.05691272 0.16399062 -0.051462885 -0.03317055 -0.12177659 -0.2303888
0.0039150394 0.055958193 -0.043494783 0.15437232 0.047275614 -0.09826955 -0.0958457 -0.044917103
-0.07834075 0.010625979 0.08798285 0.12141119 -0.1166475 0.59343654 -0.09990517 -0.6690135
-0.11311648 0.032482855 0.072942324 0.043989502 0.118659504 0.008427115 -0.6841438 -0.31467453
-0.1238574 0.11021056 0.017168002 0.06395561 -0.258299 0.004502827 0.3601869 0.096430354
-0.7339067 -0.7745773 -0.28801194 -0.09325441 0.013465333 -0.15384416 -0.48103896 0.0819565
0.0006486171 0.043834273 0.0384493 -0.20326146 0.030308178 0.04002472 -0.027098723 0.18771437
0.02746531 -0.05580466 0.073974326 -0.08993307 0.021604232 0.012436631 -0.08560203 0.124287695
-0.08669779 0.4350147 0.026626555 -0.041873787 0.7489748 0.26131678 0.12414809 -0.011668803
-0.7189921 -0.18389082 -0.08576583 -0.042184137 -0.2801609 -0.1937111 0.19252251 0.12869133
0.17559907 0.28985062 -0.2599253 0.08452499 -0.014270343 0.05744315 -0.15457265 0.06168844
0.54740673 -0.66775966 -0.29163414 0.82256156 0.22075728 -0.042188063 0.20131622 -0.8840125
0.08790589 -0.07857556 0.06339291 -0.16542625 -0.33295742 -0.023535503 0.0842715 -0.18665272
0.023632495 0.02839641 0.11596622 0.23811637 0.013327584 -0.07477752 -0.016685117 -0.06404753
0.1280487 -0.026780153 0.22685835 0.03232745 0.05031801 -0.08029065 -0.0040037436 -0.070868425
0.10938136 -0.5541976 -0.088921025 0.71577895 0.026587686 0.107367024 -0.04118704 -0.066087045
0.00040209314 0.08513197 0.5845126 0.29934624 0.08043973 -0.0839473 -0.049898967 0.09425439
00000000: ef39 663e 5c2f 0b3d bd89 4cbe 9914 773d
00000010: 15fd 323f b6e5 1d3f e753 553e 1c3f 633d
00000020: abe9 6dbd a0c9 803e d46a eb3e 2aa2 6bbe
00000030: a4d4 04be 78e1 bebd 061d 58bd cd58 343e
00000040: 2cd6 6b3d df6e 5bbe 0dfb a7bd a525 52be
00000050: dd5c ad3d 4063 28bc 9d7e 04be d20b 303e
00000060: 803c acbc e69d 2e3d da1d 253e 36f1 fabd
00000070: 35d4 293e 17c5 e1be 5e99 bfbd 0ae6 d93d
00000080: ab61 46bf 691a c1be f2f4 21be 76c9 01be
00000090: 362a 523f 3a46 963d 3292 9d3d 8905 a43d
000000a0: b688 a33e ceb0 c53c 559a 7bbd 3944 61be
000000b0: ef14 71be 02bd 43be 5b1b a93e 9a7e 3d3c
000000c0: 8149 a13d 6ec9 adbc 63e4 ae3c 9931 20bc
000000d0: 24a1 21bf 59a7 1e3f 7c8e c73e d1f9 43bf
000000e0: 4a2e 97be 02ca bfbd d513 39be 97f9 5e3f
000000f0: 563d 32be d7d6 d73c 5de5 c23c 94f5 593c
00000100: d4d9 423e 2057 06bd 501d 69bd 28ed 273e
00000110: bfca 52bd d8dd 07bd 0166 f9bd 0beb 6bbe
00000120: bb49 803b 6b34 653d 9627 32bd c713 1e3e
00000130: 13a4 413d 8c41 c9bd c04a c4bd fffa 37bd
00000140: 1d71 a0bd 9618 2e3c 5a30 b43d 6ea6 f83d
00000150: e2e4 eebd 75eb 173f 159b ccbd 7844 2bbf
00000160: 9da9 e7bd be0c 053d c962 953d 562e 343d
00000170: c103 f33d e211 0a3c 0c24 2fbf 051d a1be
00000180: f3a8 fdbd 13b6 e13d e9a3 8c3c 29fb 823d
00000190: c43f 84be 738c 933b 6b6a b83e 477d c53d
000001a0: 4fe1 3bbf b34a 46bf 4d76 93be 2bfc bebd
000001b0: b39d 5c3c 5389 1dbe bd4a f6be cfd8 a73d
000001c0: f507 2a3a 918b 333d 037d 1d3d c623 50be
000001d0: db48 f83c f6f0 233d 24fe ddbc 3238 403e
000001e0: eefe e03c 6d93 64bd da7f 973d d42e b8bd
000001f0: 5cfb b03c 03c3 4b3c 1e50 afbd 8c8a fe3d
00000200: 9c8e b1bd 3fba de3e ef1f da3c d983 2bbd
00000210: d0bc 3f3f 50cb 853e 5b41 fe3d 822e 3fbc
00000220: de0f 38bf e04d 3cbe ffa5 afbd 46c9 2cbd
00000230: 4071 8fbe 345c 46be 9f24 453e a9c7 033e
00000240: 3ed0 333e 4d67 943e ee14 85be 701b ad3d
00000250: 28ce 69bc 8249 6b3d 4b48 1ebe 05ad 7c3d
00000260: d922 0c3f 4cf2 2abf 1251 95be 6593 523f
00000270: 320e 623e 64cd 2cbd d725 4e3e a54e 62bf
00000280: 0108 b43d 39ec a0bd 24d4 813d 8065 29be
00000290: 6579 aabe 87cd c0bc 8996 ac3d e421 3fbe
000002a0: ef98 c13c 979f e83c b37f ed3d c7d4 733e
000002b0: f05b 5a3c f524 99bd 3aaf 88bc 5a2b 83bd
000002c0: 331f 033e 0d62 dbbc 8e4d 683e ca69 043d
000002d0: 421a 4e3d 6d6f a4bd d631 83bb 7723 91bd
000002e0: 5603 e03d e5df 0dbf 3a1c b6bd 4a3d 373f
000002f0: 6bce d93c 3ee3 db3d beb3 28bd a558 87bd
00000300: 07d0 d239 ac59 ae3d 9ea2 153f e943 993e
00000310: 96bd a43d 90ec abbd dc62 4cbd 7208 c13d

classifier.bias f4 [2]
-0.0924796 0.09220065
00000000: f265 bdbd b2d3 bc3d
