old_paper/ckpt/simple_FC_100_21.pth (torch, 179413 bytes, 4 tensors)

features.1.weight f4 [100, 441]
0.02289762 -0.026325572 -0.03670999 0.040419225 -0.03779632 0.0033212155 -0.02171479 -0.0075868554
-0.0025011413 0.045021866 0.038593087 -0.019468632 -0.041914593 0.041715685 0.002065163 0.02787954
-0.011675619 0.007087402 0.0016035177 -0.0008599758 -0.01456162 -0.0040231533 0.025685024 0.024792332
0.008101907 -0.032983337 -0.0007811785 0.03407826 -0.013905674 -0.020013912 -0.03608781 -0.039454933
0.0016246736 0.022656713 -0.02970578 0.01801302 0.011106826 -0.020131355 0.007007491 0.040086348
-0.039645396 -0.009087749 0.0458597 0.04252347 -0.004815288 0.02794737 -0.021575037 -0.021939062
-0.039007816 -0.03467774 0.0056473985 -0.045331366 -0.011015937 0.011930376 -0.029244184 0.018320698
0.005730577 0.034629446 0.0061188303 -0.04681884 0.022806775 0.0015063398 -0.031271532 -0.017218795
0.0069975182 -0.037038893 -0.018786674 -0.008426819 -0.030083174 -0.00251057 -0.032676022 0.034719195
0.040838752 0.009958275 -0.009464536 0.020570073 0.04072235 0.04730281 -0.003317833 0.026415478
-0.022204213 -0.040008716 -0.032176077 0.042491015 -0.010964125 0.03296632 0.034886915 0.036069106
-0.008506626 0.0132492855 -0.015831102 0.017744552 -0.021595495 0.017101426 0.026909206 -0.004393913
-0.008313533 -0.02682532 -0.02215633 -0.0043930598 0.016665053 0.03245418 -0.047225125 0.0043590926
0.008779395 0.026985552 -0.040234607 0.0014497116 -0.040248144 0.011142675 -0.040591087 0.012667254
0.03245466 -0.021955859 0.008403018 0.04513931 0.017517533 -0.01979183 -0.01905766 0.038090516
-0.000557106 0.04742941 -0.045964412 0.020680394 0.035871845 -0.047597058 -0.0148142055 -0.013995882
-0.031306546 -0.010776252 -0.033711724 0.039630707 0.03290621 -0.01886676 0.009718485 -0.031257022
-0.020874785 0.03478701 -0.013221033 0.03932691 0.025157083 0.012391038 0.013571292 -0.027043644
0.045673136 -0.01417299 0.03766628 0.0263987 -0.036588274 -0.03273033 0.0035696253 0.022567596
-0.016276844 -0.009330481 -0.014989909 -0.023002801 -0.0016818792 -0.025037896 0.016975787 -0.040489446
-0.021066574 0.024160672 0.015741322 0.014903571 0.037914585 0.024724696 0.025475692 0.016408164
0.040341537 -0.018380484 0.00020103157 -0.006051369 0.008723445 0.020486046 -0.03898653 0.013123501
-0.039967317 -0.034366205 0.020210389 -0.03942375 0.042720657 0.0066367798 -0.020011999 0.029108588
0.04536544 -0.028550642 0.010125302 -0.0055150464 -0.0012273453 -0.014244221 0.001354225 -0.030637883
-0.04133403 0.0035007112 -0.04715433 0.035890896 -0.034000862 -0.04385121 -0.033038538 -0.027109362
-0.010743789 -0.040753983 -0.006550759 0.028808694 -0.01543422 -0.03949138 -0.04725906 0.027851406
0.03012735 -0.04063128 0.023207482 -0.04389499 0.020597894 -0.039468545 0.043545056 0.020755518
0.0007165335 -0.040013615 -0.035242535 -0.021116087 -0.00056280755 -0.04618393 -0.029960332 -0.045832135
0.032945093 -0.0024855696 -0.011149764 0.0066580027 0.007021364 -0.03129769 -0.0018415377 0.023695435
0.00014527142 -0.024775308 0.027949873 0.017122861 0.013856705 -0.023833815 0.006486576 0.032698307
0.046275478 -0.039568402 0.031140175 0.011953849 -0.029806733 0.012185216 0.0322914 -0.033757158
0.04045632 -0.015130185 -0.013228875 -0.006615214 -0.029339485 -0.0056867786 -0.038258694 -0.015170876
00000000: ca93 bb3c baa8 d7bc 375d 16bd a18e 253d
00000010: 50d0 1abd c0a8 593b 37e3 b1bc 289b f8bb
00000020: 30ea 23bb d968 383d c913 1e3d ae7c 9fbc
00000030: a3ae 2bbd 11de 2a3d b057 073b a263 e43c
00000040: 184b 3fbc 703d e83b 202d d23a 0070 61ba
00000050: dc93 6ebc a8d4 83bb 6669 d23c 4a19 cb3c
00000060: dcbd 043c 8919 07bd 00c8 4cba a595 0b3d
00000070: a0d4 63bc 37f4 a3bc d0d0 13bd 7f9b 21bd
00000080: 00f3 d43a 929a b93c 8959 f3bc 0a90 933c
00000090: 68f9 353c 83ea a4bc 189f e53b 9531 243d
000000a0: 3663 22bd c8e4 14bc 61d7 3b3d 172d 2e3d
000000b0: 90c9 9dbb e2f1 e43c 22be b0bc 8cb9 b3bc
000000c0: a9c6 1fbd 3f0a 0ebd d00d b93b 62ad 39bd
000000d0: 307c 34bc a077 433c 8091 efbc 4a15 963c
000000e0: 90c7 bb3b 9bd7 0d3d 7880 c83b 1dc5 3fbd
000000f0: 46d5 ba3c 6070 c53a 9416 00bd 6e0e 8dbc
00000100: 704b e53b 18b6 17bd 83e6 99bc a410 0abc
00000110: fd70 f6bc 6088 24bb 4bd7 05bd b735 0e3d
00000120: 8946 273d 0828 233c 2411 1bbc 9282 a83c
00000130: 7bcc 263d 97c0 413d 0070 59bb 4665 d83c
00000140: 9ce5 b5bc 2ee0 23bd 10cb 03bd 0f0b 2e3d
00000150: e0a2 33bc b107 073d 95e5 0e3d 33bd 133d
00000160: 605f 0bbc 8813 593c 3ab0 81bc 065d 913c
00000170: 09e9 b0bc 4a18 8c3c b270 dc3c d0fa 8fbb
00000180: 7c35 08bc c6c0 dbbc 3181 b5bc a8f3 8fbb
00000190: 2685 883c adee 043d 226f 41bd b8d6 8e3b
000001a0: 74d7 0f3c ce10 dd3c 0bcd 24bd 4004 be3a
000001b0: 3ddb 24bd c48f 363c d742 26bd 508a 4f3c
000001c0: 2def 043d c6dc b3bc d0ac 093c ffe3 383d
000001d0: ee80 8f3c 7a22 a2bc cf1e 9cbc cd04 1c3d
000001e0: c00a 12ba 5745 423d 2e45 3cbd ee69 a93c
000001f0: 5bee 123d 22f5 42bd 48b7 72bc fc4e 65bc
00000200: 4b3b 00bd e08e 30bc 4e15 0abd cf53 223d
00000210: a9c8 063d 778e 9abc 483a 1f3c 5d07 00bd
00000220: 9901 abbc d37c 0e3d 089d 58bc 4115 213d
00000230: 3a16 ce3c c803 4b3c 205a 5e3c a28a ddbc
00000240: c113 3b3d d435 68bc f547 1a3d 1642 d83c
00000250: 96dd 15bd 3d10 06bd 60f0 693b aedf b83c
00000260: 0457 85bc e0de 18bc 3c98 75bc 5f70 bcbc
00000270: 8072 dcba 461c cdbc ce10 8b3c 43d8 25bd
00000280: cf93 acbc 9aec c53c f2f3 803c 1c2e 743c
00000290: 534c 1b3d 728b ca3c 66b2 d03c 6a6a 863c
000002a0: 2b3d 253d ab92 96bc 00cc 5239 904a c6bb
000002b0: c8ec 0e3c 5ad2 a73c 57b0 1fbd f403 573c
000002c0: c5b4 23bd 94c3 0cbd 4290 a53c cc7a 21bd
000002d0: dbfb 2e3d 5879 d93b 34f0 a3bc 2275 ee3c
000002e0: 1dd1 393d 09e3 e9bc 98e4 253c 90b7 b4bb
000002f0: e0de a0ba 9860 69bc 4080 b13a 4cfc fabc
00000300: df4d 29bd 306c 653b e624 41bd 5502 133d
00000310: 7d44 0bbd 549d 33bd 6b53 07bd 7414 debc
00000320: b806 30bc a6ed 26bd c0a7 d6bb 3600 ec3c
00000330: d0df 7cbc b7c1 21bd b792 41bd a228 e43c
00000340: a2cd f63c fc6c 26bd 9e1d be3c 3ccb 33bd
00000350: eabc a83c c5a9 21bd 4d5c 323d 7a07 aa3c
00000360: c0d5 3b3a 51e5 23bd 7a5a 10bd a5fb acbc
00000370: 6089 13ba 5c2b 3dbd 5f6f f5bc 7aba 3bbd
00000380: 6ff1 063d f0e4 22bb 80ad 36bc 602b da3b
00000390: 7813 e63b 0232 00bd c05f f1ba ee1c c23c
000003a0: 0054 1839 96f5 cabc 22f7 e43c 3e45 8c3c
000003b0: 3c07 633c 223f c3bc 588d d43b a9ee 053d
000003c0: 5b8b 3d3d 7a12 22bd ae19 ff3c 14da 433c
000003d0: 402d f4bc 80a4 473c fd43 043d f244 0abd
000003e0: 87b5 253d 98e4 77bc ecbd 58bc 70c4 d8bb
000003f0: 5c59 f0bc 2858 babb 26b5 1cbd 448f 78bc

features.1.bias f4 [100]
-0.026660027 0.4011601 0.13444869 -0.03886219 -0.04181892 -0.04418405 0.34965518 -0.018122155
-0.037923012 0.2068606 0.028530788 0.08778527 -0.029571699 0.10422894 0.61122125 -0.016000062
0.2604294 0.32026193 0.29929227 -0.012505045 -0.043766316 -0.045291573 0.38309434 -0.02456258
-0.020904833 0.3370412 0.21279234 -0.0048453324 0.15922345 -0.0147952065 0.26605234 -0.06441036
0.28023952 -0.03379375 -0.045408413 -0.041322425 -0.025293373 0.20182627 0.17884399 0.31391594
-0.027724437 -0.044491835 -0.010741122 0.06202425 -0.042813398 0.044267513 0.22745502 0.28271672
-0.018814536 -0.0064263437 0.21538258 0.25765365 0.3833475 -0.032028325 0.4514491 0.090448536
0.24246171 -0.025700282 -0.042531118 -0.040311597 -0.0436152 0.10180162 0.41500762 -0.037803333
-0.019271594 -0.040428586 0.21577393 0.4154544 0.059099846 -0.043336414 -0.021168973 -0.02834678
-0.007404276 0.16072813 0.14185037 0.17273954 0.23696898 0.279302 -0.046554003 0.012823769
-0.029785482 0.27350757 0.6166107 0.09054405 -0.017883724 -0.013485516 0.022168592 0.0375408
-0.007077246 -0.03510036 0.38153124 -0.05875893 -0.025549281 0.23180878 -0.03020811 -0.050529204
-0.035776705 -0.03911354 -0.02387878 0.10647303
00000000: 2166 dabc db64 cd3e ebac 093e f62d 1fbd
00000010: 514a 2bbd 56fa 34bd 0106 b33e ea74 94bc
00000020: 2955 1bbd 44d3 533e 66b9 e93c c3c8 b33d
00000030: 5940 f2bc fc75 d53d ff78 1c3f 9012 83bc
00000040: 0157 853e 5ff9 a33e d63c 993e f6e1 4cbc
00000050: 4f44 33bd a883 39bd f124 c43e 7737 c9bc
00000060: 9d40 abbc aa90 ac3e 3ce6 593e 98c5 9ebb
00000070: 790b 233e 9867 72bc 0338 883e 94e9 83bd
00000080: 8e7b 8f3e 516b 0abd 2cfe 39bd b441 29bd
00000090: 0c34 cfbc 8cab 4e3e e122 373e 97b9 a03e
000000a0: 5c1e e3bc 123d 36bd 88fb 2fbc 240d 7e3d
000000b0: 1a5d 2fbd da51 353d f8e9 683e 3fc0 903e
000000c0: f120 9abc 1494 d2bb 408d 5c3e 2eeb 833e
000000d0: 2046 c43e 2230 03bd 5624 e73e 153d b93d
000000e0: e247 783e 6689 d2bc 1c35 2ebd c61d 25bd
000000f0: daa5 32bd 5e7d d03d e17b d43e abd7 1abd
00000100: 76df 9dbc 7298 25bd d7f3 5c3e 70b6 d43e
00000110: ae12 723d 8681 31bd 8e6a adbc 8237 e8bc
00000120: 929f f2bb ea95 243e 3941 113e a2e2 303e
00000130: ffa7 723e ac00 8f3e 69af 3ebd c91a 523c
00000140: af00 f4bc 2f09 8c3e 33da 1d3f 296f b93d
00000150: e380 92bc 5bf2 5cbc e89a b53c 62c4 193d
00000160: 3ee8 e7bb 65c5 0fbd 1058 c33e 34ad 70bd
00000170: ba4c d1bc 485f 6d3e 0077 f7bc b6f7 4ebd
00000180: 988a 12bd 8535 20bd 6e9d c3bc 880e da3d

classifier.weight f4 [2, 100]
0.03242062 -0.38069236 0.17150499 -0.04717718 0.0036378354 -0.0998764 0.31306654 0.03219684
-0.07154249 0.20403586 0.09922913 -0.05011951 -0.007895291 0.12734178 -0.59466636 0.029210865
-0.24623491 -0.35395813 0.2397806 -0.003770609 -0.06359729 -0.07640217 0.40925744 -0.06411132
-0.039770152 -0.40243343 0.21715799 0.03853291 0.16502671 0.05943156 0.2659902 -0.045734625
0.29260245 -0.021515809 0.067720346 -0.045763705 0.04379613 0.2311096 -0.14178386 0.30446917
0.098243184 -0.09268337 0.08680139 0.059863463 -0.049953032 -0.14167675 0.26164111 -0.26316053
-0.02185382 -0.0838558 -0.2336857 -0.25992477 0.42208853 0.074336834 0.49442422 0.14693145
0.26760927 0.0042030765 0.03237272 0.0075345263 -0.031490788 -0.11640879 0.43237278 0.0036506653
0.04882078 -0.0227447 0.21981426 0.3961802 -0.14498033 0.04989372 0.06547396 0.06464404
-0.03137225 0.13162103 0.09371249 -0.20631333 -0.2211585 0.25232813 0.063835464 -0.015327799
0.025423411 0.2825803 -0.6651024 0.07809869 0.0980607 -0.08578183 -0.109553196 -0.018456157
0.00927422 -0.06339142 -0.37180513 0.043277826 0.031994946 0.16869801 -0.08664614 0.093063995
-0.08628114 0.04834608 -0.0059935004 -0.1085745 -0.05321275 0.43016416 -0.1375234 0.02132469
0.02064582 -0.0791232 -0.40850422 0.0703098 0.09301955 -0.20965786 0.049661383 0.12413026
0.003874816 -0.08193745 0.6572874 -0.019275405 0.30927023 0.29014882 -0.36641854 -0.033321753
0.082229696 0.022827849 -0.37373635 -0.07853969 -0.017489325 0.34519985 -0.22840291 -0.077787265
-0.1603276 0.09984534 -0.29583293 0.08304924 -0.2844022 0.03751523 0.02238916 0.07591823
-0.0060873427 -0.19227795 0.25717217 -0.34615195 0.031974472 -0.049758103 -0.03491702 -0.07234625
-0.030412197 -0.02112436 -0.24009606 0.34052232 0.053546414 -0.09531733 0.22922017 0.3087797
-0.3863778 -0.012308419 -0.4409011 -0.059382807 -0.26679072 -0.0789255 0.012896217 -0.02791512
-0.071189635 0.13632953 -0.4149794 -0.010325089 0.027246444 0.08648456 -0.27999568 -0.43935654
0.0392996 -0.050975516 -0.07418775 0.09459974 0.004571931 -0.2083763 -0.22777289 0.15073739
0.27988732 -0.33146605 -0.06446324 -0.050232843 0.053269442 -0.2865502 0.6347929 -0.10847045
0.07662177 -0.074565455 -0.0719849 0.05286184 0.0019999756 -0.05523292 0.41574007 -0.09105992
0.028393902 -0.30697507 0.09562715 0.012404326 0.07434475 0.017957449 0.09979314 0.1493495
00000000: 7ccb 043d 1cea c2be 019f 2f3e dc3c 41bd
00000010: c068 6e3b ff8b ccbd 424a a03e d5e0 033d
00000020: de84 92bd c7ee 503e a438 cb3d 1e4a 4dbd
00000030: 405b 01bc e265 023e 0e3c 18bf a04b ef3c
00000040: 0125 7cbe 003a b5be 0c89 753e 521c 77bb
00000050: 4c3f 82bd be78 9cbd 318a d13e cc4c 83bd
00000060: 07e6 22bd c10b cebe aa5e 5e3e afd4 1d3d
00000070: c3fc 283e 826e 733d de2f 883e 3b54 3bbd
00000080: fdcf 953e ec41 b0bc f7b0 8a3d b972 3bbd
00000090: 9263 333d ffa7 6c3e ca2f 11be 62e3 9b3e
000000a0: b933 c93d c7d0 bdbd edc4 b13d 6433 753d
000000b0: 8d9b 4cbd b613 11be d3f5 853e fabc 86be
000000c0: c806 b3bc 97bc abbd 4e4b 6fbe dc14 85be
000000d0: fd1b d83e e93d 983d 2c25 fd3e 3375 163e
000000e0: 1504 893e f6b9 893b 4299 043d 30e4 f63b
000000f0: 7cfc 00bd bb67 eebd f75f dd3e 0040 6f3b
00000100: 4cf8 473d 1853 babc fd16 613e 22d8 ca3e
00000110: b975 14be 5b5d 4c3d 3617 863d 1864 843d
00000120: 3080 00bd aac7 063e 55ec bf3d cd43 53be
00000130: 6077 62be 2731 813e 2bbc 823d 7321 7bbc
00000140: c244 d03c 5dae 903e 2744 2abf 35f2 9f3d
00000150: 0cd4 c83d 62ae afbd 6d5d e0bd 5e31 97bc
00000160: e6f2 173c 5cd3 81bd 3e5d bebe 1744 313d
00000170: 220d 033d 2cbf 2c3e 8873 b1bd 5698 be3d
00000180: 2bb4 b0bd 8a06 463d 2065 c4bb 4f5c debd
00000190: 9df5 59bd 7a3e dc3e efd2 0cbe 1eb1 ae3c
000001a0: 6c21 a93c 580b a2bd 7727 d1be 96fe 8f3d
000001b0: 0981 be3d 8db0 56be bc69 4b3d 0138 fe3d
000001c0: a0f0 7d3b d2ce a7bd fd43 283f 74e7 9dbc
000001d0: ab58 9e3e 638e 943e 369b bbbe 647c 08bd
000001e0: 0b68 a83d 7801 bb3c 5f5a bfbe 6bd9 a0bd
000001f0: c645 8fbc 09be b03e 74e2 69be ee4e 9fbd
00000200: eb2c 24be b77b cc3d 6a77 97be b815 aa3d
00000210: 2a9d 91be 92a9 193d 7969 b73c 047b 9b3d
00000220: 5578 c7bb 83e4 44be 12ac 833e d43a b1be
00000230: aaf7 023d 27cf 4bbd 2605 0fbd 452a 94bd
00000240: 0023 f9bc fe0c adbc bedb 75be f158 ae3e
00000250: 7c53 5b3d bb35 c3bd b1b8 6a3e 5f18 9e3e
00000260: 50d3 c5be 40a9 49bc cabd e1be 633b 73bd
00000270: cb98 88be b1a3 a1bd a84a 533c 40ae e4bc
00000280: dfcb 91bd f899 0b3e 2e78 d4be 902a 29bc
00000290: ef33 df3c d11e b13d 985b 8fbe 57f3 e0be
000002a0: 9ef8 203d b4cb 50bd bfef 97bd 82bd c13d
000002b0: 23d0 953b 9960 55be 4c3d 69be e75a 1a3e
000002c0: 644d 8f3e ebb5 a9be 4e05 84bd f4c0 4dbd
000002d0: 0f31 5a3d b5b6 92be ca81 223f c125 debd
000002e0: e0eb 9c3d c6b5 98bd d26c 93bd a885 583d
000002f0: 0612 033b ea3b 62bd e2db d43e a07d babd
00000300: 549a e83c d62b 9dbe 2bd8 c33d 843b 4b3c
00000310: 0f42 983d 801b 933c 5960 cc3d 13ef 183e

classifier.bias f4 [2]
-0.17587347 0.18428889
00000000: 2d18 34be 3ab6 3c3e
