old_paper/ckpt/simple_FC_100_19.pth (torch, 147413 bytes, 4 tensors)

features.1.weight f4 [100, 361]
000000 1e 4a 32 bd b1 ac 27 bd f4 f6 84 3c 6e 21 4c 3d
       -0.043527715 -0.040936176 0.016231038 0.04983657
000010 ac 28 99 3c c0 2a 71 3c 94 79 1d bd 86 53 1f 3d
       0.018696152 0.014719665 -0.038446024 0.038898014
000020 88 a7 f9 bb 34 b2 3f 3d f8 13 8a 3c f1 3a 14 bd
       -0.0076188482 0.046800807 0.016855225 -0.036189023
000030 14 95 83 3c 8c 99 36 bc 9e ac 1f bd 90 1c 90 3c
       0.016062297 -0.011145007 -0.03898298 0.017591745
000040 60 3f 18 3b 92 07 41 3d 47 be 0d bd 30 b4 98 bc
       0.0023231134 0.04712636 -0.03460529 -0.018640608
000050 a0 60 d3 ba 70 2b 94 bc ac 2f ee bc 4c 5e 05 3d
       -0.0016126819 -0.018087119 -0.029075466 0.03256063
000060 48 10 a2 3c c8 c0 f3 3c e4 60 0e bd 0e 6e 10 bd
       0.019783154 0.029755011 -0.03476037 -0.035261206
000070 7c 08 2c 3d 3d 84 f0 bc d0 3b 52 3d 67 67 39 bd
       0.04200028 -0.029359931 0.051326573 -0.045264628
000080 a0 d3 ab 3c 98 ba ae bc ac f6 ee bc ca 86 0e bd
       0.020974934 -0.02132921 -0.029170357 -0.034796514
000090 d0 4f 4e bb 28 a1 fa 3c 1e ae 52 bd 20 7a 17 3b
       -0.0031480677 0.030594423 -0.051435582 0.0023113564
0000a0 20 58 1c 3c cc ed 3d bd c8 be 4a 3c c0 2c 06 bb
       0.009542495 -0.04636936 0.012374587 -0.002047345
0000b0 0a 12 45 bd 58 c6 15 3d cc 1b d1 3c 5c af a7 bc
       -0.048112907 0.03656611 0.02552595 -0.02046936
0000c0 58 46 88 3c 54 74 db 3c 00 56 3c 39 06 22 4f 3d
       0.016635105 0.026788868 0.00017961115 0.050569557
0000d0 f1 2e 1e bd 3a 85 56 3d d6 92 0d bd e0 d8 39 3d
       -0.038618986 0.05237315 -0.03456386 0.045372844
0000e0 7d 04 ce bc 68 58 bc 3b a2 6c 38 bd a0 7c ac bb
       -0.025148625 0.0057478435 -0.045025475 -0.00526388
0000f0 28 ce 2c 3d 7a 90 9e bc 5e 5d 23 bd 74 1d be 3c
       0.042188793 -0.019356001 -0.039883964 0.023207404
000100 c8 5f a1 bb 18 ff 46 bd 0e af 19 3d 00 dd 03 3c
       -0.004924748 -0.04858312 0.03752046 0.008048296
000110 88 2a 12 bd 47 20 00 bd 1c 3f 20 3c 98 da a2 bc
       -0.035685092 -0.031280782 0.009780671 -0.019879624
000120 94 5e 56 bd e4 21 47 3d b0 09 7d bb 60 db 72 bc
       -0.05233629 0.048616305 -0.003861051 -0.014822811
000130 18 3d 3c 3d a4 9c 19 bd dc 45 56 3d 5c 01 29 3d
       0.0459567 -0.0375029 0.052312717 0.041261062
000140 40 e1 1f 3a e9 68 b5 bc 40 2a f4 bc ba 28 4e 3d
       0.00060989335 -0.022144752 -0.029805303 0.05033181
000150 58 c8 5d bc b0 35 33 3c 8a a8 af bc c4 94 70 bc
       -0.013536535 0.010938093 -0.02144267 -0.014683906
000160 a0 ce a9 3c e8 85 9b 3b 00 9b 7d bc d8 3a 2f bc
       0.02072841 0.0047461875 -0.015478849 -0.010695182
000170 30 fc 01 3b 58 ee 46 3c 34 5f 05 bd c0 6e d3 ba
       0.0019834153 0.0121417865 -0.032561496 -0.0016131029
000180 0f 8d 54 bd 4e 99 3f bd 14 9b da bc 60 1f 63 3b
       -0.051892336 -0.046777062 -0.026685275 0.0034656152
000190 44 72 53 bc 98 87 85 bc 5e f7 22 bd b8 7b 00 bd
       -0.012905661 -0.016300008 -0.03978669 -0.031367987
0001a0 c4 1f 36 3d c0 94 25 ba ca 8d 26 3d 71 8d 0f bd
       0.044463888 -0.0006316416 0.040662564 -0.035047
0001b0 87 38 3f bd 60 a1 b5 3c b8 45 21 bd e8 53 ff 3b
       -0.046684768 0.022171676 -0.03937313 0.007791985
0001c0 b0 89 13 3d 50 bf 0c 3d 2c fa f2 3c c0 63 83 bc
       0.03601998 0.034362137 0.029660307 -0.016038775
0001d0 ac a1 90 bc 38 04 ed 3c cc af db 3c 6e 49 3f 3d
       -0.017655216 0.028932676 0.026817225 0.046700887
0001e0 28 32 a2 bb b0 ba 0d 3d 18 0c cc 3b 00 f2 2f ba
       -0.0049498267 0.034601867 0.0062270276 -0.0006711781
0001f0 c0 82 ff bb f8 d9 ff 3c 74 32 b5 3c 38 20 18 3d
       -0.007797569 0.031231865 0.022118784 0.0371401
000200 70 ac 2d 3c ac 2e 0f bd 48 68 2f bd b8 87 24 bd
       0.010600194 -0.03495662 -0.04282406 -0.040168494
000210 c0 0f 84 bb 06 1a 13 3d 20 65 a9 3c 38 51 4e 3c
       -0.004030198 0.03591349 0.020678103 0.012592606
000220 f8 79 78 3c b1 95 24 bd 04 a0 f4 3c b9 14 2c bd
       0.015165798 -0.04018182 0.029861458 -0.04201195
000230 70 e1 5d 3c 14 2f 04 3c 2c 6d 4a 3d c4 2c 28 bd
       0.013542518 0.008067865 0.04942052 -0.041058317
000240 50 c7 c9 3c b4 92 cd 3c 90 4d 9f bc 32 78 23 3d
       0.024631172 0.025094368 -0.019446164 0.03990955
000250 3b 0c 42 bd 00 9a bf b9 b0 3c a7 3b 20 03 46 3c
       -0.047374945 -0.00036545098 0.00510367 0.012085706
000260 1b 7e 02 bd 60 91 e3 3b 20 ab 3a 3c d4 7f b4 3c
       -0.031858545 0.0069448203 0.011393338 0.02203361
000270 10 73 74 3b 64 a8 ee 3c 30 f7 5f 3b 8a da 1f 3d
       0.0037300028 0.02913303 0.0034174435 0.039026774
000280 2c a0 45 bd 30 85 8d 3c 66 89 3a 3d 60 a8 33 bc
       -0.048248455 0.017275423 0.04554119 -0.010965437
000290 40 03 b8 3b 74 58 8d 3c e2 f6 a8 bc 70 a7 a3 bc
       0.005615622 0.017254092 -0.020625535 -0.019977301
0002a0 e8 88 fd 3b 4c 59 f4 3c ec 93 1f 3c e4 3d 7a bc
       0.0077372678 0.029827736 0.009739857 -0.015273545
0002b0 14 c3 14 bd 64 60 e0 3c 94 cf cd bc cc 58 69 bc
       -0.036318853 0.027389713 -0.025123395 -0.014242362
0002c0 9c 36 0f bc cc 5b ab 3c c4 4e 10 bd d8 96 98 3c
       -0.008741047 0.020917796 -0.035231367 0.018626615
0002d0 c2 f3 91 be 9e 07 3b bd d8 eb e0 bb 6e d8 42 bd
       -0.28506285 -0.04566156 -0.0068640523 -0.047569685
0002e0 a0 86 00 3b 98 bd d8 bc 62 32 95 bc 0c 5f 8d 3c
       0.0019611493 -0.026457593 -0.018212501 0.017257236
0002f0 4c 8b 29 bc 0a 82 ce bc 40 4c b2 3b 50 74 8f bc
       -0.010348152 -0.025208492 0.0054412186 -0.017511517
000300 80 3e f2 3a 40 49 dc 3b 8f cf 16 bd ce 23 89 bc
       0.0018481761 0.0067225993 -0.036819037 -0.016740706
000310 08 dd 71 bc af bf e9 bc 38 21 ad 3b bc d2 f6 3c
       -0.014762171 -0.028533785 0.005283501 0.030129783
000320 8c 90 f6 3c b9 18 d6 bc 58 90 55 bd a6 77 35 3d
       0.030098222 -0.026134836 -0.05213961 0.04430356
000330 58 87 7e bc 40 99 51 3d 0a 4b 1e 3d b8 a6 33 3d
       -0.015535198 0.05117154 0.03864578 0.043860167
000340 c0 9d 73 3c 78 f2 8b 3b ea 79 20 3d 71 ee 2b bd
       0.0148691535 0.004270848 0.039178766 -0.041975442
000350 d8 4b e4 bb 40 47 6d bb 3c e6 53 3d 30 3e 64 3b
       -0.006967049 -0.0036205798 0.05173324 0.0034827106
000360 60 66 3f bd 82 79 45 bd 10 43 b7 bb e0 b7 b6 3c
       -0.04672849 -0.048211582 -0.0055927113 0.022304475
000370 b4 87 43 3d f8 20 2f bc 32 55 4c 3d ec 7a 2f bd
       0.04773684 -0.010689013 0.049885936 -0.042841837
000380 3a fa 02 3d a9 21 bc bc 24 5e 3d bd 78 03 9e bb
       0.031976916 -0.02296527 -0.046232358 -0.004822191
000390 58 26 7c 3c 70 68 14 3d 44 13 02 bd c8 8c 64 3c
       0.015390001 0.03623241 -0.031756654 0.0139495805
0003a0 a0 cc a7 bb 9e 29 fd bc d2 c7 09 bd bc 9f 14 3d
       -0.0051208287 -0.030903634 -0.03363783 0.036285147
0003b0 6c b9 08 bd fd 3c c6 bc 7c e3 a4 3c 34 ca a0 3c
       -0.033379957 -0.024199003 0.020128004 0.019627668
0003c0 8a 53 f6 bc 10 b9 5b bb 73 9b 40 bd d2 f2 42 3d
       -0.030069131 -0.0033527054 -0.047023248 0.047594853
0003d0 b8 19 38 3d 80 d7 86 39 30 b9 37 bb f8 bd 27 3d
       0.044946402 0.00025719032 -0.0028033964 0.040952653
0003e0 f8 8e ff 3c 0a 90 00 3d 6c f1 17 3d 27 0c 2a bd
       0.031196102 0.031387366 0.037095472 -0.041515496
0003f0 e4 51 de 3c 18 a5 4f 3c 46 6d 22 3d f9 ed 2c bd
       0.027138658 0.012673639 0.039654993 -0.042219136

features.1.bias f4 [100]
000000 de 23 88 3e c0 17 38 3e 33 9c 0c 3d 7b f9 38 bd
       0.26589864 0.1797781 0.03432865 -0.045159798
000010 4b b0 8e 3e 9c fb a3 3e f0 96 f2 3e 12 b3 d0 3d
       0.27868876 0.320279 0.4738078 0.10190405
000020 a9 5b c9 bc bc 04 5b 3e e5 be 62 3e c7 50 aa 3e
       -0.02457984 0.21388525 0.22143133 0.33264753
000030 68 42 b6 ba a0 d6 11 3e 9e 2f c9 bc ce 1e 90 3e
       -0.0013905289 0.14242029 -0.024558838 0.28148502
000040 0c dc 43 bc f3 b0 48 3e da dc c5 bc bf 60 92 3b
       -0.011954319 0.19598751 -0.024153162 0.0044670994
000050 22 86 9f bc 18 b9 8d 3e 30 bb 8f bb 9a 47 2d bc
       -0.01947314 0.27680278 -0.004386328 -0.010576153
000060 c6 49 ef bc 63 92 bc 3e 47 78 df 3e 03 00 f2 3d
       -0.029209983 0.36830434 0.43646452 0.118164085
000070 73 aa 03 3d d0 58 8e bc 3d ea 34 3e bc 76 06 3e
       0.032144975 -0.017376333 0.1766748 0.13131231
000080 76 8c b1 3e 0d 09 81 bc e4 b2 d1 3d c6 1e e4 bc
       0.34677476 -0.015751386 0.10239199 -0.027846705
000090 b9 a6 e3 bc 51 26 00 bd fa 37 3b 3d 7a ab 06 bd
       -0.02778946 -0.03128654 0.04570768 -0.032878377
0000a0 48 25 94 3d f6 4c c9 3e 07 f9 3e bd e9 64 b7 3e
       0.07233673 0.3931653 -0.04662421 0.35819176
0000b0 56 01 1c 3d 65 40 2c 3e f6 5a a3 bc 81 ef ea 3d
       0.03808721 0.1682144 -0.019940834 0.11471463
0000c0 b4 98 3e 3e 8a da b0 3e e4 43 38 3d 06 5f 44 3e
       0.18612939 0.34541732 0.04498662 0.19176874
0000d0 c4 d5 1b bd af 72 7d 3e a1 6b 0e 3e b4 4a b7 3e
       -0.03804566 0.2475078 0.13908245 0.3579918
0000e0 cc 37 6c 3d 76 b8 a4 3e 6a b2 12 bd bb c4 ad 3e
       0.0576704 0.32171983 -0.03581468 0.33939156
0000f0 c0 4b a2 bb 2a 65 28 3d 5b fb fb 3d f8 c4 2e bd
       -0.0049528778 0.041112103 0.123038016 -0.042668313
000100 bb 98 92 3e 41 f2 51 3e 56 ec 1b bd 6a e7 7f bc
       0.2863215 0.20502569 -0.038067184 -0.015619138
000110 76 09 4e 3d 08 12 44 bc 25 7a a6 3d 99 ed ba 3e
       0.05030199 -0.01196719 0.08128766 0.36509398
000120 b1 52 3b bd ff 5e 13 bd f0 f4 ad bc b6 b4 bf bc
       -0.045733158 -0.035979267 -0.02123496 -0.0234016
000130 68 4f 8d 3e 44 f8 a4 3d 6a 3a 9d 3e 30 f2 32 3e
       0.27599645 0.080551654 0.3070863 0.174752
000140 36 54 37 3e 85 a6 45 bd a7 51 a4 3d d6 4a 96 3d
       0.17903218 -0.04825451 0.080233864 0.073384926
000150 38 44 1e bd 25 c4 8e 3e 0c 94 87 3e 12 b5 a2 3e
       -0.038639277 0.2788402 0.26480138 0.3177877
000160 95 32 3e 3e 03 a2 23 3e 1c f5 4b 3e b1 9d bc 3d
       0.18573983 0.15979771 0.1991772 0.09209765
000170 41 d2 d0 3d c8 57 4a bd b4 30 25 3e 30 c4 98 bc
       0.10196353 -0.04940012 0.1613186 -0.018648237
000180 d8 1a e8 3e 3a 20 6f 3d bd 7d 5e bd d9 8d 18 bd
       0.4533298 0.058380343 -0.054319132 -0.03724465

classifier.weight f4 [2, 100]
000000 37 3e a0 be 93 83 7b 3e 57 05 d2 3d 43 19 44 bd
       -0.31297466 0.2456191 0.10254925 -0.047875654
000010 aa e7 81 3e 77 77 a7 be ac b7 e9 3e ed ad e5 bd
       0.25372058 -0.32708332 0.45647943 -0.11214814
000020 c6 57 0a 3d 15 1b 2b be 35 2f 8a 3e c1 23 c3 be
       0.033775114 -0.1670955 0.2698914 -0.38113216
000030 2a 9b ad 3d 51 20 39 be 00 d7 4e 3b fc 10 9f be
       0.08476861 -0.18078734 0.0031561255 -0.31067646
000040 00 1a c8 bc 92 7f 82 be 6e f6 8a bd f8 3f ca bd
       -0.02442646 -0.25487953 -0.06785284 -0.09875482
000050 8e 91 9c bc 34 74 89 be 56 f5 8a 3d 01 5b 3f bd
       -0.019112375 -0.26846468 0.06785075 -0.046717647
000060 26 ad 9d 3c 82 ca ce 3e f7 51 e5 be 3c 86 2e be
       0.019247603 0.40388876 -0.44789097 -0.17043394
000070 37 e4 fb bb c7 a3 ba bd 2e 79 d6 bd a6 4f 4a 3e
       -0.0076871174 -0.09113269 -0.10472332 0.19756946
000080 01 09 bc be 7c 7a 72 bd 4e c6 be 3d 3e e8 82 3d
       -0.3672562 -0.05919884 0.09315167 0.06391953
000090 b8 c0 c2 bd 08 1f 86 bd d2 2f 41 bd a0 f9 b7 bc
       -0.095094144 -0.065488875 -0.047164746 -0.022457898
0000a0 cf 71 50 bc 93 b9 cb be 75 76 a6 3d 9e 35 c4 be
       -0.012722447 -0.3979002 0.08128063 -0.38322157
0000b0 c6 5a 6b 3d 52 4d e0 bd 3b bd cb bb e3 81 36 be
       0.057459615 -0.10952248 -0.0062176264 -0.17822985
0000c0 96 f1 fa bd 0b 9f c7 3e 3b 01 b8 bd 9c 1a 19 3e
       -0.1225311 0.38988528 -0.0898461 0.14951557
0000d0 16 8c 87 bd 21 ef 79 3e ca be ee bd bc 8d cb 3e
       -0.06618516 0.24407627 -0.11657484 0.39756572
0000e0 96 86 0d be 6c 2b ce 3e ce 6b b4 bd e0 d1 a8 be
       -0.13820872 0.40267503 -0.088096246 -0.32972622
0000f0 d0 08 47 bc 1a 64 81 bb 4c f8 ee bd ac 62 c8 3c
       -0.012148097 -0.0039487006 -0.116684526 0.024461113
000100 eb b5 bc 3e f2 fd 54 be a2 37 5e 3d 86 1e 2c 3d
       0.36857542 -0.20799997 0.054252274 0.042021297
000110 e9 ee ec bc f6 1f 58 bd 73 57 f6 bc e2 31 ab 3e
       -0.028922515 -0.052764855 -0.030070996 0.33436495
000120 dd d4 9a 3d 58 15 9c bc 1f 1b a9 3d 90 94 05 3c
       0.07560132 -0.019053146 0.08257126 0.008153096
000130 fc 7f 93 3e e7 04 19 be d9 54 b2 be 31 2a 38 3e
       0.28808582 -0.14943276 -0.3483036 0.17984845
000140 1c 4b 1e be 94 2b 10 bd 25 31 0f be 34 07 e5 3d
       -0.1545834 -0.03519781 -0.13983591 0.111830145
000150 74 4e f2 bc 88 10 76 3e 4a f8 8b 3e ad bb ba be
       -0.029578425 0.24029744 0.27337867 -0.3647131
000160 de f6 6c be be da 13 be 8b 22 58 be 01 bd 9e 3d
       -0.23141047 -0.14438912 -0.21106927 0.077508934
000170 b1 94 30 3e eb 20 b7 bd 44 cd 6f 3e 78 89 b5 3c
       0.17244221 -0.089418255 0.23418146 0.022160277
000180 35 3a 01 3f 62 cd 18 bd 5e 34 08 3d 12 98 14 bd
       0.5047944 -0.037305243 0.033253066 -0.036277838
000190 5e a7 71 3e 0a 0c ed bd 72 91 3c 3c 40 d6 54 bb
       0.23599002 -0.11574562 0.011509286 -0.0032476336
0001a0 cf 1b 9a be 67 5e c1 3e f3 78 05 bf 9a 1d d2 3d
       -0.3009934 0.37767336 -0.5213768 0.10259552
0001b0 d2 3d 21 3d 10 10 87 3e e7 1c 56 be 56 46 ad 3e
       0.039365597 0.26379442 -0.20909463 0.33842725
0001c0 b8 49 49 3d ae c4 33 3e 69 2f ba 3d 40 63 98 3e
       0.04914257 0.17555496 0.09091074 0.29763222
0001d0 c9 94 c7 3d 91 70 0a 3e e0 26 68 3c fe 6a 92 bd
       0.097451754 0.13519503 0.014169425 -0.071493134
0001e0 fd 4b 9f 3d 88 c0 a2 3e f8 66 32 bd 20 28 ab 3c
       0.077781655 0.31787515 -0.04355523 0.020893157
0001f0 41 0f 2b bd f3 68 ba be 10 4a e6 3e f3 0f 13 3e
       -0.041762594 -0.36408195 0.4497838 0.14361553
000200 2d d5 ac 3d 03 e3 4f bd 89 73 80 3e da 09 85 bd
       0.084390976 -0.050753605 0.25088146 -0.0649602
000210 36 61 b8 3e 22 aa 81 3c f1 9e da bd 5c 9d bd 3c
       0.36011666 0.015828196 -0.10674847 0.023146324
000220 da 94 53 3d d9 75 c9 3d c5 4f a5 bd 77 32 a3 3d
       0.051655628 0.09836931 -0.080718555 0.0796861
000230 eb f2 f7 3d b4 08 e1 3e 2e ba 19 3d ad b7 be 3e
       0.1210688 0.43951952 0.03753107 0.37249509
000240 ca e0 e6 3c f3 14 7c 3e 67 1f 2a 3d 0d 59 53 3d
       0.02818336 0.24617366 0.041533854 0.051598597
000250 be 6a 85 3e cd a1 a0 be 5b f3 1a 3b 8d 27 73 be
       0.26058 -0.31373444 0.0023643586 -0.23745556
000260 cd ef 91 3d 70 db 96 be c6 f1 5d 3e c8 10 a6 be
       0.071258165 -0.29464293 0.2167426 -0.32434678
000270 f6 fc d1 bc 8a 1e 8c be d9 92 78 3d 7c d3 cc 3e
       -0.025633316 -0.2736705 0.06068692 0.400051
000280 25 21 9a bd 84 55 a4 3d 8b 9e 25 3e 45 fa aa bd
       -0.07525853 0.08024123 0.1617376 -0.083485164
000290 57 a4 50 be 5f 72 51 3e 48 eb c5 bc dd a1 b3 3d
       -0.2037519 0.20453785 -0.024160042 0.08771107
0002a0 e6 fa 9d 3d 65 f1 3f 3c 65 e0 07 3e 02 d8 d0 be
       0.07713871 0.011715268 0.13269193 -0.407898
0002b0 72 1e c8 bd bb ca 27 bd 8a db 23 3d c4 2e d3 3c
       -0.09771432 -0.040964823 0.04000429 0.025779136
0002c0 fb 17 91 be cb 09 9f 3d 8a 86 9b 3e 7e 19 6f be
       -0.28338608 0.0776554 0.30376083 -0.23349568
0002d0 6f 18 62 3e 34 52 3e 3d f7 25 12 3d 8a 11 2c bd
       0.22079633 0.046465114 0.035680737 -0.042008914
0002e0 c0 56 02 3c bb 1a af be 3f bc 93 be 4b f3 b2 3e
       0.007955253 -0.3420008 -0.28854558 0.34951243
0002f0 7a 48 27 3e 6d c7 4c 3e 26 96 89 3e a5 bf bd bd
       0.16336241 0.1999795 0.26872367 -0.09265069
000300 8a 51 9d bd 5a da 77 bd 72 53 d1 bd 06 68 c4 3a
       -0.07681568 -0.06051097 -0.10220994 0.0014984615
000310 64 b5 e9 be 2a 67 82 3d 26 f8 8b bd 46 3a fb 3b
       -0.45646203 0.06367333 -0.0683444 0.007666859

classifier.bias f4 [2]
000000 c0 74 61 3e 51 73 2c be
       0.22017193 -0.16840865
