old_paper/ckpt/simple_FC_100_27.pth (torch, 294613 bytes, 4 tensors)

features.1.weight f4 [100, 729]
0	0xbbeb7c70	-0.007186465
1	0xbccb389f	-0.024807272
2	0xbd045244	-0.032305017
3	0xbcce79ad	-0.025204504
4	0x3be57c68	0.007003356
5	0x3bc82da0	0.0061089545
6	0xbc34f9e8	-0.01104591
7	0x3c665228	0.0140576735
8	0x3d005b08	0.031336814
9	0x3b179c70	0.0023134016
10	0x3b453590	0.003009174
11	0x3d014d6e	0.031567983
12	0x3d1541b0	0.036439598
13	0xbceca1bc	-0.028885715
14	0x3c9051b0	0.017617077
15	0x3d036080	0.03207445
16	0xbcd2c3e8	-0.025728181
17	0xbc8beff4	-0.017082192
18	0x3c96c282	0.018403295
19	0xbc8d488a	-0.017246503
20	0x3ca07050	0.019584805
21	0xbc292cbe	-0.010325609
22	0x3aecbca0	0.0018061586
23	0xbca54a74	-0.020177104
24	0x3bc3f5d0	0.005980231
25	0xbc36558a	-0.011128793
26	0xbcd5c934	-0.026096918
27	0xbd0e83c5	-0.034793634
28	0x3c615e7c	0.013755437
29	0x3cd67b6c	0.026181899
30	0x3d063d5e	0.032773368
31	0xbc88d6ab	-0.016703924
32	0xbcd7307e	-0.02626824
33	0xbd155742	-0.03646017
34	0xbc95cd34	-0.018286325
35	0xbc715df2	-0.014731871
36	0xbb5bc8d0	-0.0033536442
37	0xbd177deb	-0.03698532
38	0x3c36ed54	0.011164982
39	0xbd15167d	-0.0363984
40	0x3d0cc4d4	0.034367397
41	0xbc9c31d8	-0.019066736
42	0xbd0333da	-0.03203187
43	0xbc872382	-0.016496424
44	0x3cac93b6	0.021066528
45	0xba2d3dc0	-0.0006608628
46	0x3cf20594	0.029543675
47	0xbd04a1c5	-0.032380838
48	0xbc9d0c53	-0.019170916
49	0x3ce8b45c	0.028406315
50	0xbb84c6e0	-0.004052028
51	0x3b6b01c0	0.0035859197
52	0xbc52ee7c	-0.012874242
53	0x3c211060	0.009830564
54	0x3c228044	0.009918276
55	0x3c63459c	0.013871577
56	0x3b35fd80	0.0027769506
57	0x3c4a8534	0.01236086
58	0xbbe3767c	-0.0069416147
59	0xbbc4a4dc	-0.006001098
60	0xbb9c2860	-0.0047655553
61	0xbbb3a598	-0.005482387
62	0x3d129490	0.03578621
63	0xbce12570	-0.027483672
64	0xbc00ce00	-0.007861614
65	0x3cc140e8	0.02359052
66	0xbbe241a0	-0.0069047958
67	0xbc70880e	-0.014680875
68	0x3c820266	0.015870284
69	0xbc4d9b8e	-0.012549294
70	0x3cbe5624	0.023234434
71	0x3cfc6008	0.03080751
72	0xbd150b1a	-0.03638754
73	0x3ac3a7e0	0.001492735
74	0xbc8f1207	-0.01746465
75	0x3c00fd78	0.007872932
76	0x3d0cafca	0.034347333
77	0xbbf7ea7c	-0.0075657945
78	0xba493780	-0.00076758116
79	0x3c137c44	0.009001795
80	0xbc0b79c8	-0.008512922
81	0x3c532b08	0.012888677
82	0xbd033a85	-0.03203823
83	0x3b61dda0	0.0034464374
84	0xbd1336f1	-0.035941068
85	0xbc9ef57e	-0.01940417
86	0xbbf62790	-0.0075120404
87	0xbd16d2af	-0.036822017
88	0xbccc9847	-0.024974955
89	0xbcade9be	-0.021229621
90	0xbd1372a8	-0.035998017
91	0xbb5665b0	-0.003271442
92	0xbd053a1a	-0.032526113
93	0xbc575abe	-0.013144193
94	0xbc2d162a	-0.010564366
95	0x3c00d9f0	0.00786446
96	0xbb9fc060	-0.004875228
97	0x3c90eb6a	0.01769038
98	0x3d013eae	0.031553917
99	0x3c317edc	0.010833468
100	0x3cb9c10a	0.022675056
101	0x3d0a9ad0	0.033839047
102	0xbc9bbfa6	-0.019012284
103	0x3c8151f6	0.015786152
104	0xbd022be2	-0.03178013
105	0x3bd0f100	0.0063763857
106	0xbc2b0014	-0.01043703
107	0x3bb91430	0.0056481585
108	0x3c9d6998	0.01921539
109	0xbccf8f47	-0.025336875
110	0x3b9350c8	0.004495714
111	0x3a277a40	0.0006388761
112	0x3cebfa20	0.028805792
113	0xbd17864d	-0.036993314
114	0x3cf27f34	0.02960167
115	0xbcc93830	-0.024562925
116	0x3c94cc54	0.018163837
117	0xbccaf790	-0.02477625
118	0x3aa84d00	0.0012840331
119	0x3cd084c2	0.025453929
120	0xbce36ab6	-0.027760845
121	0xbadbd760	-0.0016772561
122	0xbcd247b6	-0.02566896
123	0xbc701c64	-0.014655206
124	0x3b801338	0.003908541
125	0xba64fa00	-0.00087347627
126	0x3cf1ddd0	0.029524714
127	0x3c342fdc	0.010997739
128	0xbaeb67c0	-0.0017959997
129	0x3c37da34	0.011221457
130	0x3bccf858	0.006255191
131	0xbc2cf5da	-0.010556662
132	0x3c159314	0.009129304
133	0xbb10de70	-0.002210524
134	0xbd15baa0	-0.036554933
135	0xbcbcc6f2	-0.023044083
136	0xb9dc8c00	-0.00042065978
137	0xbb4a1f80	-0.003084153
138	0x3cf47044	0.029838689
139	0x3cf8d7dc	0.030376367
140	0x3d0bea2a	0.034158863
141	0x3c601d98	0.013678931
142	0xbcb561bc	-0.02214133
143	0x3c522cf0	0.012828097
144	0x3c385cd4	0.011252601
145	0x3be39e08	0.006946329
146	0x3d123b1a	0.035700895
147	0xbb686950	-0.0035463162
148	0x3cc66696	0.024218839
149	0xbd1542c5	-0.03644063
150	0x3bb385b8	0.005478587
151	0x3c550410	0.013001457
152	0x3ccfe1d8	0.025376245
153	0xbcdbb4e8	-0.026819661
154	0xbcf81b7e	-0.030286547
155	0x3d130296	0.035891138
156	0xbc2232cc	-0.009899806
157	0x3b553d70	0.003253784
158	0x3d01ac90	0.03165871
159	0x3c7096b8	0.014684372
160	0x3ca8f554	0.020624794
161	0xbc9740b2	-0.018463466
162	0x3cd3abc8	0.025838748
163	0xbcdb493c	-0.02676832
164	0x3d0f271c	0.034949407
165	0x3cf4cffc	0.02988433
166	0xbcad0305	-0.021119604
167	0xbc20e5fc	-0.009820458
168	0x3c880a50	0.01660648
169	0xbc9edd26	-0.019392561
170	0x3c0f40e0	0.008743495
171	0xbca704ef	-0.020388095
172	0xbc84e4d5	-0.016222397
173	0x3caf40f8	0.021393284
174	0xbd01b478	-0.03166625
175	0xbc0c8efc	-0.008579012
176	0x3bfef378	0.0077804886
177	0x3ca3e4cc	0.02000656
178	0xbd040e44	-0.032240167
179	0x3ac390e0	0.0014920495
180	0x3cb0d166	0.021584224
181	0x3bbc9de0	0.005756125
182	0x3c8ee95a	0.017445255
183	0x3b8e5438	0.0043435358
184	0xbc810f2d	-0.015754307
185	0x3cd52f2c	0.02602347
186	0xbd097652	-0.033560105
187	0x39305900	0.00016817823
188	0x3d12a650	0.03580314
189	0x3d10376c	0.035209104
190	0x3cea3cac	0.028593384
191	0x3d075930	0.03304404
192	0xbc880bf7	-0.016607268
193	0x3c5816c4	0.0131890215
194	0x3c9aefc8	0.018913165
195	0x3cee26f4	0.029071309
196	0x3c6eec18	0.014582656
197	0xbcc7990c	-0.02436497
198	0xbbe4bc1c	-0.006980432
199	0x3ce06bb4	0.027395107
200	0x3afa1780	0.001908049
201	0xbd1019c6	-0.03518083
202	0xbb4a0260	-0.003082417
203	0x3ce991a0	0.028511822
204	0x3c0029a4	0.007822428
205	0x3cce2ccc	0.025167845
206	0xbc336d48	-0.010951348
207	0xbcb7f20e	-0.022454288
208	0x3c8ab3aa	0.016931374
209	0x3bd130d0	0.0063839927
210	0xbc96f6cc	-0.018428229
211	0xbd10ba2b	-0.035333794
212	0xbc8f4c9a	-0.017492581
213	0x3c105648	0.008809634
214	0x3c840fa6	0.016120743
215	0x3ba69d10	0.0050846413
216	0x3cc135da	0.023585249
217	0x3cc5626a	0.024094779
218	0xbceb9f98	-0.028762624
219	0xbc8da5c5	-0.01729096
220	0x3d12968e	0.03578811
221	0xbd01f90b	-0.031731647
222	0x3d0a170e	0.033713393
223	0x3c5176cc	0.012784671
224	0xba9f1240	-0.0012136176
225	0xbc32aab8	-0.01090496
226	0xbccb8fb4	-0.024848796
227	0x3ca8cac8	0.020604506
228	0xbc97bf05	-0.018523702
229	0xbc9b067e	-0.018923994
230	0xbce7bda4	-0.02828867
231	0xbca43ac7	-0.020047558
232	0xbd0fd447	-0.035114553
233	0x3d08e0d4	0.033417538
234	0x3ca94d08	0.020666614
235	0x3c99f0f0	0.018791646
236	0xbc881e39	-0.016615974
237	0x3bcf6dc8	0.0063302256
238	0xbcae8d2f	-0.021307556
239	0x3c626294	0.013817448
240	0x3d070228	0.03296104
241	0x3c964ec4	0.018348105
242	0xbd1398eb	-0.036034506
243	0xbc5f2d34	-0.013621617
244	0x3cbe55a2	0.023234192
245	0xbcd6e9e6	-0.026234578
246	0x3c8a9e82	0.016921286
247	0x3c43a46c	0.011941057
248	0x3cdbe16c	0.026840888
249	0xbd125720	-0.03572762
250	0x3b8d7ea8	0.004318077
251	0xbbe05d98	-0.0068470947
252	0x3c8452b2	0.016152713
253	0x3d08d630	0.03340739
254	0x3ca3c698	0.019992158
255	0xbbfd2600	-0.007725477

features.1.bias f4 [100]
0	0xbd122d21	-0.03568757
1	0xbcfc2cd8	-0.030783102
2	0x3d211251	0.03932411
3	0x3eb4696a	0.35236675
4	0x3ea15b62	0.31515032
5	0x3e8833a3	0.26601896
6	0x3e29a8a5	0.16568239
7	0xbcfdb0f4	-0.030968167
8	0x3d703696	0.058645807
9	0xbce9937e	-0.028512713
10	0xbba7554b	-0.0051066033
11	0x3dfc32dd	0.12314389
12	0xbd1590d1	-0.03651506
13	0xbd047f09	-0.032347713
14	0xbd127add	-0.035761703
15	0xbcd99971	-0.026562424
16	0x3d8b5725	0.06803731
17	0x3ec7d782	0.39031607
18	0xbbfb2fe4	-0.007665621
19	0xbd06b164	-0.032884017
20	0xbcaf366a	-0.021388251
21	0xbc815f68	-0.015792564
22	0x3ebb97bd	0.36639205
23	0x3efe326d	0.49647847
24	0xbb6a50b4	-0.003575367
25	0x3da01df7	0.07818215
26	0xbd160ef9	-0.036635373
27	0x3e7e3145	0.24823482
28	0x3ef90b08	0.4864123
29	0x3eb64b24	0.35604203
30	0x3d09eff5	0.033676106
31	0xbd826d6a	-0.06368525
32	0xbd10ba9c	-0.035334215
33	0xbcd226fc	-0.025653355
34	0x3ed50297	0.41603538
35	0x3e63d12f	0.22247766
36	0x3ea5b0eb	0.3236154
37	0xbcdd8cad	-0.027044619
38	0xbcf02e16	-0.02931885
39	0x3cdfe28b	0.027329704
40	0xbce40996	-0.027836602
41	0xbc2760c8	-0.010215946
42	0xbd2772c4	-0.040880933
43	0x3e89b5a1	0.26896384
44	0xbbe98750	-0.007126726
45	0x3e034354	0.12818652
46	0x3d12812b	0.035767715
47	0xbcff8fd8	-0.03119652
48	0x3ecd7414	0.40127623
49	0xbca7a6c7	-0.020465268
50	0x3e62880c	0.2212221
51	0xbd0af90e	-0.033928923
52	0x3e7edd1b	0.24889033
53	0x3e853d8b	0.26023516
54	0x3cd4b4dd	0.025965149
55	0x3e39dcde	0.1815066
56	0xbced52b2	-0.028970096
57	0x3ea2b326	0.31777304
58	0xbd3ee3d2	-0.046603985
59	0x3e2bf452	0.1679242
60	0xbd2cd92a	-0.04219929
61	0x3e8e016c	0.2773546
62	0x3ed26024	0.41088974
63	0x3def45bd	0.116832234
64	0x3dd1c574	0.10242739
65	0xbc390af2	-0.0112941135
66	0x3da6add2	0.08138622
67	0x3edb0798	0.4277923
68	0x3e35cab4	0.17753106
69	0x3eadf602	0.33976752
70	0xbd096fae	-0.03355377
71	0xbc69a7f8	-0.014261238
72	0x3eb33f42	0.350092
73	0x3e454f41	0.19268514
74	0xbcec0934	-0.028812982
75	0xbd16f100	-0.03685093
76	0xbd2d71ee	-0.04234498
77	0xbca7e808	-0.020496383
78	0xbd0f2c91	-0.03495461
79	0x3e599879	0.2124957
80	0x3df5d00f	0.12002575
81	0x3d961283	0.073277496
82	0xbc7429aa	-0.014902512
83	0x3dc79d83	0.0974684
84	0xbd163c34	-0.036678508
85	0x3e412c04	0.18864447
86	0x3dc28699	0.09498329
87	0xbd153acd	-0.03643303
88	0xbd52f5de	-0.05150401
89	0xbcd0eac2	-0.025502566
90	0x3d109449	0.035297666
91	0x3d72a331	0.059237663
92	0x3e9d0950	0.30671167
93	0xbc6937df	-0.014234512
94	0x3e64421f	0.22290848
95	0x3ebdf87e	0.37103647
96	0x3ec367db	0.38165173
97	0xbd0fa8f0	-0.03507322
98	0x3e33e959	0.17569484
99	0xbd678f8a	-0.056533374

classifier.weight f4 [2, 100]
0	0xbc602690	-0.013681069
1	0x3be7dfe0	0.0070762485
2	0x3d2eb262	0.042650588
3	0x3ebc9c62	0.3683806
4	0xbeb76679	-0.35820368
5	0x3e9f8c51	0.3116174
6	0xbe5387b9	-0.20657243
7	0xbd84b530	-0.06479871
8	0xba702837	-0.0009161266
9	0xbd24d3bd	-0.04024099
10	0xbd446dcd	-0.047956277
11	0x3d2fc0bb	0.04290841
12	0xbd15edea	-0.036603846
13	0x3db03c74	0.086052805
14	0x3c012e40	0.007884562
15	0xbc81448f	-0.015779762
16	0x3e23cdc5	0.15996464
17	0xbed21778	-0.4103353
18	0x3d872451	0.06598724
19	0x3d81dab5	0.06340543
20	0xbd96141a	-0.07328053
21	0xbd38d9fa	-0.045129754
22	0x3ed5c2d2	0.417502
23	0xbf0803bf	-0.53130716
24	0x3d6b79d6	0.05748924
25	0x3e236b08	0.15958798
26	0x3cf64b64	0.030065246
27	0xbe755c53	-0.23961
28	0xbf014624	-0.5049765
29	0x3ec19fdb	0.37817273
30	0x3d372adf	0.04471862
31	0x3da3ddb2	0.080012694
32	0xbbb9b980	-0.0056678653
33	0x3d7b0276	0.061281644
34	0x3ee7b76b	0.45257124
35	0x3e769645	0.24080761
36	0xbeb648bc	-0.35602367
37	0x3cf675c4	0.030085452
38	0xbd499d2f	-0.049222168
39	0xbccf9ba5	-0.025342772
40	0x3d1cabf6	0.038249932
41	0x3ca331d4	0.01992122
42	0xbd46bfbe	-0.048522703
43	0xbeabdbe1	-0.33566192
44	0xbd8f7b6d	-0.070059635
45	0x3d739d67	0.059476282
46	0x3dfda69b	0.12385293
47	0x3dcba9cd	0.09944496
48	0xbec9c887	-0.39410803
49	0xbd06f7dc	-0.03295122
50	0xbe838994	-0.256909
51	0xbb839620	-0.004015699
52	0x3e61aa94	0.22037727
53	0x3e9b5872	0.30340916
54	0xbd66f7cc	-0.05638866
55	0x3e079298	0.13239515
56	0x3d16f3bc	0.036853537
57	0xbeaa7da6	-0.33298987
58	0x3dad72e9	0.08469183
59	0x3e03c6c2	0.12868789
60	0xbd6a1ae3	-0.057154547
61	0x3e965e0e	0.29368633
62	0x3edc37c5	0.430113
63	0x3df6e8de	0.12056135
64	0xbdd50534	-0.10401383
65	0x3b8e9f00	0.0043524504
66	0x3d0b0777	0.033942666
67	0x3ed74b02	0.42049414
68	0xbe579334	-0.21052247
69	0xbeaace65	-0.33360592
70	0xbd2515c7	-0.04030397
71	0xbda12f65	-0.07870368
72	0x3ecd804c	0.40136945
73	0xbe832078	-0.2561071
74	0x3d706379	0.058688615
75	0xbd8df0d0	-0.06930697
76	0xbdb35034	-0.08755532
77	0x3d581293	0.05275209
78	0x3dab67ad	0.08369384
79	0x3e896524	0.26834977
80	0x3dc49f09	0.09600646
81	0x3ce03b41	0.027372004
82	0x3d873de3	0.06603601
83	0x3d63747c	0.05553101
84	0xbdad83ef	-0.0847243
85	0x3e7b0ba1	0.24516155
86	0xbe189e53	-0.14904146
87	0x3cbf1f41	0.023330333
88	0x3cd07b7a	0.025449503
89	0xbab0e94c	-0.0013497262
90	0x3e02f3e1	0.12788345
91	0x3d631343	0.05543829
92	0xbe9deafa	-0.30843335
93	0xbc7ed100	-0.015552759
94	0x3e49011e	0.19629332
95	0x3ebccc46	0.36874598
96	0xbeb92bbc	-0.3616618
97	0x3cf491ac	0.029854618
98	0x3dfccb88	0.12343508
99	0xbd7d3e75	-0.06182714
100	0xbcc14280	-0.02359128
101	0xbd73d697	-0.05953082
102	0xbd8e25e7	-0.06940823
103	0xbec0d9cb	-0.37666163
104	0x3e99af2c	0.30016458
105	0xbe7850e8	-0.24249613
106	0x3e122a0c	0.14273852
107	0x3cb8b198	0.02254562
108	0xbe00cb1c	-0.1257748
109	0x3c4a7158	0.012356125
110	0xbd047dab	-0.03234641
111	0xbe5c55b8	-0.21517074
112	0xbdba30f2	-0.09091367
113	0xbd0c39f7	-0.034234967
114	0xbd501f3d	-0.05081104
115	0xbd3dc266	-0.04632797
116	0x3b99d429	0.004694481
117	0x3edb94b3	0.42886886
118	0x3c0a0840	0.0084248185
119	0x3d948a57	0.07252949
120	0x3c8b2880	0.016987085
121	0xbcc9e9c0	-0.024647593
122	0xbeb449ba	-0.352125
123	0x3f03c59b	0.51473397
124	0x3d3b1782	0.045676716
125	0x3b1c7fa3	0.0023879788
126	0xbdc3bae8	-0.09557134
127	0x3e970d7f	0.29502484
128	0x3efc49a4	0.49274933
129	0xbebb75b4	-0.36613238
130	0xbccb8413	-0.024843251
131	0xbd839101	-0.06424142
132	0xbcbf0ce0	-0.023321569
133	0x3d114252	0.03546364
134	0xbed58dca	-0.4170974
135	0xbe56994d	-0.20956917
136	0x3ea53463	0.3226653
137	0x3da3c709	0.07996947
138	0x3da0982c	0.078415245
139	0xbc8c648f	-0.017137794
140	0xbd78a0fa	-0.060700394
141	0xbc3531d0	-0.0110592395
142	0x3cd545b6	0.026034217
143	0x3e6dc80f	0.23220848
144	0xbd2599d5	-0.04042991
145	0xbe53a64c	-0.20668906
146	0x3d56378d	0.05229907
147	0x3d964609	0.07337577
148	0x3ee643b7	0.44973537
149	0xbcbc1654	-0.022959866
150	0x3e742bd2	0.23844841
151	0x3da4d083	0.08047583
152	0xbea24874	-0.31695902
153	0xbe8673f4	-0.2626034
154	0xbd47def6	-0.048796616
155	0xbe852f4c	-0.26012647
156	0x3db80373	0.08985033
157	0x3eb00fd2	0.3438707
158	0xbd863f11	-0.06554998
159	0xbe6c545b	-0.23079054
160	0x3d85dcfc	0.0653629
161	0xbe945f1d	-0.28978816
162	0xbed587bb	-0.41705117
163	0xbdf2b884	-0.118516
164	0x3dde49c5	0.10853914
165	0x3d0d2cb2	0.034466453
166	0xbe13c0c8	-0.14429009
167	0xbee4b975	-0.44672742
168	0x3e2051b7	0.15656172
169	0x3ec307c9	0.38091877
170	0x3d93c9a9	0.07216198
171	0xbd115ebc	-0.035490736
172	0xbeb7e7bf	-0.35918996
173	0x3e049214	0.1294635
174	0xbd5eec3a	-0.054424502
175	0xbc5f8a40	-0.013643801
176	0x3d5bf54e	0.053700738
177	0x3c5b76a8	0.013394989
178	0xbd976de3	-0.07394006
179	0xbe3b57a7	-0.18295155
180	0xbe390dc4	-0.18071657
181	0xbe157e70	-0.14599013
182	0x3db21051	0.08694518
183	0xbe168d3f	-0.14702319
184	0xbdc3b158	-0.0955531
185	0xbe10d818	-0.14144933
186	0x3daceba8	0.08443385
187	0xbc31a243	-0.010841909
188	0xbda0b6be	-0.07847355
189	0xbd1e14af	-0.038593944
190	0x3cef223e	0.029191133
191	0xbdc65e33	-0.09685936
192	0x3eb0d488	0.34537148
193	0xbd08db74	-0.03341241
194	0xbe806bde	-0.25082296
195	0xbec59cb5	-0.3859612
196	0x3ede7bce	0.4345383
197	0xbdc3d898	-0.09562796
198	0xbe7f8b6b	-0.24955527
199	0x3db36835	0.0876011

classifier.bias f4 [2]
0	0xbd22f0f8	-0.039780587
1	0x3d624eb2	0.05525083
