old_paper/ckpt/simple_FC_100_15.pth (torch, 93013 bytes, 4 tensors)

features.1.weight f4 [100, 225]
00000000: acce 16bc 88ea 6e3c e374 46bd 888a 7a3c
00000010: eca3 403d 1a0d 2fbd 98b0 373c cce5 353d
00000020: 4441 c0bc 6031 4f3d 60a2 c53b 20ef b63b
00000030: 2416 b63c 0e8b 7c3d 9442 5abd 7072 79bc
00000040: 1434 9d3c 0a27 f4bc 1e3f 40bd 55a7 803d
00000050: f4ae 66bd 65a3 40bd 74d9 c23c b490 f13c
00000060: 6f51 80bd 2c11 113d a412 eb3c 60b5 14bb
00000070: 387b b1bc 2813 bdbc f012 71bc 3c52 bdbc
00000080: 0e9c 323d 082a 61bc 161b 85bd d2af 383d
00000090: 3e1e 3f3d c4d2 0c3d 0007 ce3c 6096 393b
000000a0: 8ac1 573d 67e6 53bd e8f8 e43c 98a8 603c
000000b0: 661d 7f3d 00f2 9cbc f0f0 6dbc 9a1e afbc
000000c0: 60f8 06bb 3add 263d c70d 4abd 30df 5a3c
000000d0: 1a0c acbc a85e 9e3c b8d3 1d3d 5ee1 6d3d
000000e0: 0063 a53b c5d1 45bd d03e eb3c 4934 76bd
000000f0: fedc 12bd 78f9 fe3c 68ed 39bc 8c5c 5a3d
00000100: 589d 6cbc a886 f63c f0ba 7a3c 3ef0 783d
00000110: def1 2dbd f0b3 283d 49ec 6ebd 7acb 32bd
00000120: b840 c2bc 88e2 7f3c 9eda debc 8c9f c73c
00000130: ebde 05bd 0019 b33c 70f1 2abc 6487 9c3c
00000140: 2091 0ebb 0a49 95bc 1454 b83c 90b8 583c
00000150: 52ea 60bd c90b 00bd 78af be3c 1055 363c
00000160: 7c92 063d d044 e33c 4f60 873d ea18 0c3d
00000170: 589c d3bb a8dd 6c3d 1c6d 053d 8498 213d
00000180: 983e 5a3d 1bfa 853d 90d5 28bd 4c7a 7cbc
00000190: cc70 0f3d db7c 813d 6c29 d23c d47e 2fbd
000001a0: be10 1e3d 06c7 85bd 2453 f53c c05e d5bc
000001b0: 06c9 f0bc 781b 5ebd f0fd 953c 0077 a73a
000001c0: f7b2 84bd 324b 373d 523f 703d 4206 13bd
000001d0: 549e 1fbc 46e1 033d 3058 4e3c 18ae 08bd
000001e0: a4d7 093d 985f 473c 80f7 283a 3ccf 383d
000001f0: bcac 403d c02c ccba 6797 41bd a13c 65bd
00000200: 3469 983c 346a b03c 580a bfbb fceb 38bd
00000210: 9826 ca3c 9a25 0ebd 9b78 853d fd88 803d
00000220: 7078 3a3d f84a 41bc 16ab 72bd a8db b33c
00000230: fecd 1f3d 80dd 7dba a819 ec3c 7a48 1cbd
00000240: 88af 84bc 8842 653c f8bc 123c 1c95 143d
00000250: f82a f03c 7a03 77bd e020 c8bb ec29 c63c
00000260: 3e4e 22bd 9a05 96bc b6eb 09bd 60db ab3b
00000270: 858d 853d f88e 923c 10ef 8b3c d817 113d
00000280: a376 50bd b6c5 31bd b04c 4c3c 8027 443b
00000290: 1804 5abd de0c 7a3d 528e a8bc c0e8 393b
000002a0: 92f5 c3bc 4e1a 92bc 7a47 483d e8a9 eabc
000002b0: 9244 603d d8d8 4c3d c544 803d a03f 08bb
000002c0: 085d 563c 1ade e0bc 4365 7abd f00d 953b
000002d0: 7c9c 65bd 40cd f33a 0971 7cbd e33a 59bd
000002e0: e51f 20bd 1e76 153d 694c 0cbd d6b0 10bd
000002f0: defa c7bc b671 1bbd 9fb4 82bd 58ef 393c
00000300: e2d0 4b3d 100c 97bb c030 34bd 14a7 593d
00000310: 788b ffbb 6e79 31bd 56ec 06bd f252 4d3d
00000320: 04a6 883c 08c7 603c 83e1 46bd 00c8 553a
00000330: 1017 303d 478b 30bd 1063 cc3b ece4 a33c
00000340: 165a 78bd 7249 70bd e341 853d fcaa dabc
00000350: 00b0 09bd a9f0 7abd dba2 82bd 68bc 80bd
00000360: c062 fbbb 0e5b 71bd a5a9 11bd 685a 74bc
00000370: fc5a c1bc c8ab 963c b8ef 86bd 56ea 7d3d
00000380: 9ab1 b6bc 58ef 65bc 60ee 0fbd f6b5 183d
00000390: f315 83bd 4611 723d 5497 7bbd 3891 5fbd
000003a0: d0e2 1f3c 5aba 29bd fae8 1dbd f0c8 123c
000003b0: b0c6 1a3d d0db ac3b 5a6e 79bd d8ed ca3c
000003c0: 181e 55bd bc46 f53c 00e8 64b9 a015 e63c
000003d0: 1cec c43c 4066 6f3b be0c 453d 9a7d dbbc
000003e0: f87f 21bd 2df1 0bbd 0c94 4cbd 3878 5ebd
000003f0: 2404 203d 3425 d03c 440b c3bc d6d6 4bbd
-0.009204548 0.014582284 -0.048451316 0.0152918175 0.047031328 -0.042737104 0.011211537 0.044408605
-0.023468621 0.050584197 0.0060313195 0.005582705 0.022227354 0.06165605 -0.05328615 -0.015225038
0.019189872 -0.029803772 -0.046935193 0.06281916 -0.056319192 -0.047030825 0.02378533 0.029487945
-0.06265532 0.035416767 0.028695412 -0.0022691116 -0.0216652 -0.023080423 -0.014713988 -0.023110501
0.043605857 -0.013742931 -0.06499307 0.04508955 0.0466597 0.03438069 0.025149822 0.002831839
0.052674808 -0.0517334 0.027950719 0.013712071 0.062283896 -0.019158363 -0.014522776 -0.021376897
-0.002059482 0.04073832 -0.049329545 0.013358876 -0.021001864 0.019332245 0.03853199 0.058076255
0.005047202 -0.048295755 0.028716475 -0.060108457 -0.035855286 0.031124815 -0.011348106 0.053310916
-0.014441811 0.030093506 0.015303358 0.060775988 -0.04246699 0.041187227 -0.058330808 -0.04365108
-0.0237125 0.015617974 -0.027203854 0.02436807 -0.032683294 0.021862507 -0.01043354 0.019107528
-0.0021753982 -0.018223304 0.02250103 0.013227597 -0.054910965 -0.03126124 0.02327703 0.011128679
0.032854542 0.027742773 0.06610166 0.034203447 -0.0064578466 0.057828575 0.032574758 0.03945209
0.05328235 0.065418445 -0.041219294 -0.015410017 0.03501968 0.063226424 0.025654517 -0.042845562
0.038590185 -0.06532101 0.029946871 -0.026046157 -0.02939273 -0.054225415 0.018309563 0.0012776554
-0.06479447 0.044749446 0.058654137 -0.03589464 -0.009742338 0.03219726 0.012594268 -0.033369154
0.033652917 0.012168787 0.0006445572 0.04511951 0.047039732 -0.0015577301 -0.04726353 -0.055966023
0.018604852 0.021535017 -0.0058300905 -0.045146927 0.024676606 -0.03470383 0.06517144 0.062761284
0.045525014 -0.011797659 -0.05924519 0.021955326 0.03901481 -0.000968419 0.028820828 -0.038155057
-0.016196981 0.013992913 0.0089561865 0.036275014 0.029317364 -0.06030605 -0.0061074346 0.024189912
-0.0396254 -0.018313218 -0.033672057 0.0052446574 0.06521133 0.017890438 0.017081767 0.03542313
-0.05089439 -0.043401442 0.012469456 0.002993077 -0.05322656 0.061047427 -0.020575676 0.002836749
-0.023920808 -0.017834809 0.04889629 -0.02864547 0.054752894 0.050011486 0.06263117 -0.0020789877
0.013083704 -0.027449656 -0.061131727 0.0045487806 -0.05605744 0.0018600598 -0.061631236 -0.053034674
-0.039092917 0.0364896 -0.034252558 -0.035324894 -0.024411615 -0.03795024 -0.06382107 0.011348568
0.049759753 -0.0046095923 -0.043991804 0.053137854 -0.0077986084 -0.043328695 -0.03294023 0.05012793
0.016680725 0.013719328 -0.04855491 0.00081551075 0.042990744 -0.043101575 0.006237395 0.02000662
-0.060632788 -0.058663793 0.065067075 -0.02669286 -0.033615112 -0.061264668 -0.063787185 -0.06285936
-0.007671684 -0.058924727 -0.035562176 -0.014914133 -0.023602955 0.018392459 -0.065886915 0.06199106
-0.022301484 -0.014034115 -0.03513944 0.037282906 -0.06400671 0.059098504 -0.061423615 -0.05458185
0.009758666 -0.041437484 -0.038552262 0.00895904 0.03778714 0.005275227 -0.060896255 0.024771616
-0.052030653 0.029940955 -0.00021830201 0.028086483 0.024038367 0.0036529452 0.048107855 -0.02679329
-0.03942868 -0.03416555 -0.049945876 -0.05431387 0.03906645 0.025408365 -0.023809083 -0.04976543

features.1.bias f4 [100]
00000000: 0164 f9bc a4a0 e83e 89f0 023e d8f3 343e
00000010: e99d 31bd 375c e43e b056 423e 1a21 65bd
00000020: 0ad0 d03c 20d2 5d3e e752 053e 1686 f13c
00000030: ba55 5dbc fcda 09bd 5acc 47bd 9a84 5fbd
00000040: 7d27 c43d c5ac 9abc 8ca1 2bbd 21d0 cc3e
00000050: bd0d 75bd a53e 8b3e ae7f 86bd 0c31 d63d
00000060: 9af8 51bd d01b f23e 1962 e23e 2a47 f03d
00000070: f7a5 023f f2a3 c73d d200 07bd ab9d b13e
00000080: a6c4 86bd 8217 6c3e 92f7 1dbd 9811 293e
00000090: 2af6 f23d 9cf1 6c3e 1fe5 c4bc 7a66 f83b
000000a0: fc39 1abd 8c12 7dbd 702e 56bd e12b 8fbd
000000b0: 4942 ad3d bdc4 d43d 0007 8eba 4b2b 983e
000000c0: cc81 0f3e bfed 583e b3ff 3abb b8d6 8a3d
000000d0: c0b4 0ebd 889a 3e3d affd c43e 43cf 61bd
000000e0: 0b88 d23e 964e f2bc 98ff 193d eae6 923d
000000f0: e6f0 033e 9076 18bd e195 ad3e 3461 95bc
00000100: 6caf 55bd 38ec c4bc 5dd7 b7bd 1ab4 4cbd
00000110: ba07 d43e b37d 3cbd aafd 69bd ba44 ab3e
00000120: ca11 a23e 4e9e 8d3d 86fd 4e3e 20c6 35bd
00000130: 050d 343e 99b2 993d 4695 a93e 70a5 abbc
00000140: 9004 4bbd a30f 38bd 082b 983e 3c42 853e
00000150: 3c85 733e fe97 0a3e 4732 55bd 16a4 78bd
00000160: d8d6 9f3e 5453 4ebc 4c13 c3bc 35a2 40bd
00000170: f221 ddbc 03b9 09bd 4768 10bd 77a2 e2bc
00000180: 83d8 aa3e 0909 8b3e f4ed 73bd 3a0f 943e
-0.030443193 0.4543506 0.1278707 0.17671144 -0.043363485 0.44601604 0.18978381 -0.05593977
0.025489826 0.21662188 0.13019906 0.029482882 -0.013509208 -0.033656105 -0.04877887 -0.054569818
0.09577844 -0.018881211 -0.04190211 0.4000254 -0.059827555 0.2719623 -0.06567322 0.10458574
-0.051262476 0.47286844 0.44215468 0.117323235 0.5103449 0.09748067 -0.032959767 0.34690604
-0.065804765 0.23055843 -0.03856618 0.16510618 0.11863358 0.23139042 -0.024035035 0.0075805755
-0.037652954 -0.061785266 -0.05229038 -0.06990791 0.084599085 0.10389087 -0.0010835826 0.2972053
0.14014357 0.21184443 -0.0028533756 0.067792356 -0.034840345 0.04653409 0.38474795 -0.0551293
0.41119418 -0.029578488 0.03759727 0.071729496 0.12884864 -0.037222445 0.3390341 -0.018234827
-0.05216925 -0.02403842 -0.08976624 -0.049976446 0.41412145 -0.046018314 -0.05712668 0.33450872
0.31654197 0.0691496 0.20213899 -0.0443784 0.17583092 0.07504768 0.331217 -0.02095291
-0.049564898 -0.044936787 0.2972033 0.26027095 0.23781294 0.13534543 -0.0520499 -0.06070336
0.312186 -0.012593109 -0.023812912 -0.047029693 -0.026993725 -0.033623707 -0.035255697 -0.02766536
0.3336831 0.2715533 -0.0595531 0.28917867

classifier.weight f4 [2, 100]
00000000: 1a7b b5bd d3c3 e4be 3dff 3c3e efde 85be
00000010: 1438 94bc 7244 01bf 620f 22be f3d8 943d
00000020: 9d43 97bc b04f 9b3e 540b 933d 75b2 cb3d
00000030: 8085 70bd 50dd 17bc 9e60 063d eace 6d3d
00000040: 7e82 ffbd 51f2 9abc 1c65 e63c 0713 c43e
00000050: 8aae 1bbd 8fb8 b33e e846 703c b5a4 fd3d
00000060: 4fc3 a13d 29e2 f93e ebcd e13e f937 513e
00000070: 1444 0bbf a9f8 b03d b0cb 2b3c 68b3 bdbe
00000080: 1421 1e3d 13b9 4b3e 50a7 963b 7234 47be
00000090: 1c55 2d3d fa07 8a3e 10dc 363a 2f54 9b3c
000000a0: 3d87 2ebd a19c a73d c678 013d 03ca 213d
000000b0: 4dbd a4bd dae7 0f3e 2873 bcbd 8a6a 803e
000000c0: 7c62 5bbe a3f0 16be b2ce d4ba 9a0b f8bc
000000d0: 1188 ad3d 19dc bb3d 3fdb da3e f99b c33d
000000e0: 4a85 cfbe c9f6 99bc 6bad b13d 8105 b33d
000000f0: b5ca f4bd 68af a33c 388f d4be 15de 553d
00000100: 3e6d 88bd 08df 8a3c 91d1 af3d cce9 f1bc
00000110: 6bec d73e 6559 7a3d 9de8 303d 0d0e c7be
00000120: 881f b9be b199 e8bd 4fcd 39be 0a03 7a3d
00000130: 220f 363e 05a9 1b3e 161c a93e 0af8 7fbd
00000140: ffdf 843d 32ba 2d3d f86b a73e 8cda 7abe
00000150: 4acb 863e 3996 0d3e d6c8 773d 3c43 fb3c
00000160: ef71 a8be 4c6f 0a3d f6b2 84bb 2266 723d
00000170: 6fac 733d 0b59 bd3d 2c60 9abd b7d8 74bd
00000180: 91ed bc3e 1120 8d3e a065 22bb b9da 95be
00000190: afd0 65bd 340f f83e 791e c7bd 8688 f03d
000001a0: a8b3 4c3c 6ddb ec3e 2b2d 673e f617 93bd
000001b0: f226 593d 2067 17be 7198 4dbe 1994 293d
000001c0: a271 acbd 41a6 c23d 7c91 16bd 000c ccbd
000001d0: 2255 523d dcf3 1dbb 4211 7e3d f19b dbbe
000001e0: 6a2d 1dbd 2acf 8bbe 34b8 883c 68b5 f9bd
000001f0: 6544 c1bd 1091 01bf f196 e9be 2f5d 5abd
00000200: 1c6f 013f 74b9 b6bd f2b9 84bd 64ae d13e
00000210: 28cb b1bd 8654 90be 98e4 96bc cd10 163e
00000220: 5aec 4cbe 6dcb 46be d0b0 273d 347c ec3d
00000230: 103f 39bd cfa2 b23d e8c1 7fbc f751 0abd
00000240: 40c8 cd3d 67e0 cebd afb3 b5bd f268 afbe
00000250: 2ead 8c3d caef 943e 3154 38bc 8bcd a33d
00000260: 34a7 97bc 5c70 35bd 73be d6be 8b47 b0bd
00000270: 1c03 e33e 9ea6 0abd 0581 17bd dac0 32be
00000280: b061 053e c324 a73d d946 8f3e c182 5cbd
00000290: 5adb 70bd 30fe d03b 20de 6fbd 5cd8 d73c
000002a0: 269a d6be aa1a 3abd 68e3 0ebd 35be a73e
000002b0: c82e a73e 3cfe de3a 93f5 823e 36d8 82bd
000002c0: e2dc 4cbe 7278 89bd aacd b2be aba8 b43d
000002d0: 20e8 ae3b 490c 953d 2da3 88be 3fda a63e
000002e0: 52d4 79be 8498 3bbe 90ac 29bd ec59 85bd
000002f0: 18a2 9b3e 2eef eabc 8b7b 27bd 5209 8dbd
00000300: 7fb2 0ebd ad93 a9bd 271b f03c 098c 3f3d
00000310: 9d63 9fbe e2df 90be 02da 0f3d d47e 913e
-0.088613704 -0.44680652 0.1845674 -0.26146647 -0.018093146 -0.50495064 -0.1582618 0.07267942
-0.018464858 0.30334234 0.07179895 0.09946147 -0.058721066 -0.009269074 0.032806985 0.058058657
-0.12476061 -0.018914374 0.028124385 0.38295767 -0.03800825 0.35101745 0.014665343 0.12384931
0.0789858 0.4880536 0.44102415 0.20431508 -0.54400754 0.08641178 0.010485575 -0.3705094
0.038605765 0.19894819 0.004597582 -0.194536 0.042317495 0.2695921 0.0006975541 0.01896104
-0.042609442 0.081841715 0.03160932 0.039499294 -0.08043919 0.14053288 -0.09201652 0.25081283
-0.21424288 -0.14740233 -0.0016235916 -0.03027897 0.08473218 0.0917284 0.42745396 0.09551234
-0.4053138 -0.018794434 0.08675655 0.08741284 -0.11952726 0.019981101 -0.41515517 0.052213747
-0.06661461 0.016952053 0.085848935 -0.029530428 0.4217256 0.06112041 0.043190587 -0.38877907
-0.3615687 -0.11357439 -0.18144725 0.061038055 0.1777921 0.15201195 0.3302924 -0.062492408
0.06488036 0.042413898 0.3269956 -0.24497432 0.26326972 0.13826837 0.060494266 0.030671708
-0.32899424 0.033797547 -0.004049654 0.059179433 0.059490617 0.09245499 -0.075378746 -0.059776988
0.369 0.27563527 -0.0024779812 -0.29268435 -0.05610722 0.484491 -0.09722609 0.1174479
0.012494005 0.4626116 0.22575824 -0.071823046 0.053015657 -0.14785433 -0.20077683 0.041401003
-0.08420111 0.09504367 -0.03675984 -0.09963226 0.05135072 -0.002410165 0.062028177 -0.4289241
-0.03837339 -0.2730649 0.016689397 -0.121928036 -0.09436873 -0.5061197 -0.45622972 -0.053311523
0.50560164 -0.08922091 -0.06480779 0.40953362 -0.08681327 -0.28189486 -0.018419549 0.14654846
-0.20012036 -0.19413538 0.040940106 0.11547127 -0.045226157 0.087224595 -0.015610196 -0.033769574
0.1004796 -0.10101395 -0.088721626 -0.34259754 0.06868969 0.29089195 -0.011250542 0.079981886
-0.018512346 -0.044296607 -0.41942176 -0.08607396 0.4433831 -0.033850305 -0.036988277 -0.1745638
0.13025546 0.081613086 0.2798374 -0.053835634 -0.05880294 0.0063779578 -0.058561444 0.026348285
-0.4191448 -0.045435585 -0.03488484 0.32762304 0.3265288 0.0017013024 0.25577983 -0.06388895
-0.20006135 -0.06712426 -0.34922534 0.08821233 0.00533773 0.07277734 -0.26686993 0.32588384
-0.243974 -0.18319899 -0.041424334 -0.06511292 0.30397105 -0.028678503 -0.040889304 -0.06886543
-0.034838196 -0.0828012 0.029309822 0.046764407 -0.31130686 -0.2829581 0.035120018 0.28417075

classifier.bias f4 [2]
00000000: 52db 7dbc 7c8e 433d
-0.015494185 0.047743306
