old_paper/ckpt/simple_FC_100_29.pth (torch, 339413 bytes, 4 tensors)

features.1.weight f4 [100, 841]
00000000: 7a0b b6bc 8a47 05bd 72ad 0dbc 7c86 0abc
00000010: 2028 d93b 6428 953c a863 d23c 9262 8abc
00000020: 0609 d6bc 8267 823c 9816 0b3c 5aba d93c
00000030: bc6b 1c3c 1c2a debb 80ae c639 e530 8fbc
00000040: 234a 03bd d203 f03c 30c6 573b 3e66 30bc
00000050: c0ee 29bb 14ee 88bc 8322 0cbd 2c2a 043c
00000060: aa79 f7bc 1a6c debc 10d8 083c a8c7 c1bb
00000070: 2e39 a2bc 3a46 8e3c f485 423c 9083 c9bc
00000080: b4ed 4f3c 301b 443c a836 d6bc f2b8 45bc
00000090: 50dc 52bc 5e23 cf3c d45f a2bb 9007 cf3b
000000a0: e78d 02bd f0b2 aebc da91 f63c f4ea 4a3c
000000b0: 80f3 12ba 66cd ec3c 9fa7 b6bc f3ea 8ebc
000000c0: e37c e5bc 3c21 ccbb 6acf ddbc 35ea f4bc
000000d0: 7eff a3bc 6082 d23b a6aa f63c c449 493c
000000e0: 7e51 d1bc 84be 69bc 6c28 b33c bea7 f53c
000000f0: dfd7 a6bc 5844 3cbc cc21 0cbc c006 823c
00000100: 8081 12bb f097 cb3c ee8f 7ebc b72a b3bc
00000110: b9ca 053d cd52 f3bc 72ac f23c f045 adbb
00000120: 808a 79bc ac6c b83c 108c 39bb 167a 0bbd
00000130: 7c94 66bc 3015 003c 004e e8b9 10d6 4a3b
00000140: 7c83 d3bb a803 5dbc 6e98 95bc 0295 b83c
00000150: 0429 ffbc a2ce c03c 939a 013d 4037 953c
00000160: 983a 533c 61a8 0a3d fcb8 0e3c 58db 1abc
00000170: a00f ee3b 94b0 803c d0c3 1d3b d643 e2bc
00000180: a8e3 5ebb d49f 3f3c 787c 733c ea8a 13bc
00000190: ac90 1fbc 0437 cf3c 494f bcbc b8e4 623c
000001a0: 626f 2cbc d85e d2bc 56c2 e9bc 8e55 ee3c
000001b0: 4602 a33c f2a3 01bd 0040 8bb7 86b3 acbc
000001c0: 026d 94bc 82f0 9b3c 585a 9ebc 80f1 703b
000001d0: e0e5 3c3c bf19 01bd b251 853c c656 60bc
000001e0: 02ae eebc 18c6 d73b e292 69bc 7faf 05bd
000001f0: 48f2 493c 70f7 f73b c4e7 a4bc b0fd d3bb
00000200: 346b 283c 2e4f ee3c 0497 6f3c 2c27 1d3c
00000210: dfc1 053d ba2c 843c 823c 01bd a0b2 12bb
00000220: 5083 0cbb d41b 8abc 3475 343c c024 27bb
00000230: 6adf 9cbc f03b 8e3b 58f0 d43c 908a 61bb
00000240: ea8c 47bc 9893 ff3b dc0b 08bd 5e60 c83c
00000250: 62bf 30bc 2026 c53a 2c65 a33c 14c7 8cbc
00000260: f223 1abc 5c95 0abc d719 0a3d 3337 dfbc
00000270: 527f b43c b05b 8b3b d4e6 e5bc 6804 dfbb
00000280: 9831 9cbb a65e 813c 5457 4cbc bca6 253c
00000290: b4f9 803c 2085 30bb 7c2d a3bc 92d2 56bc
000002a0: 61fa 063d 84e2 edbc a653 f73c 043b d4bc
000002b0: 4872 04bd 087c 87bb 1245 913c dcf8 4c3c
000002c0: ba64 a1bc 302d 483b 9ef2 08bc 705f 4cbb
000002d0: 3a67 c7bc de70 f73c e21a 16bc 0051 ad3b
000002e0: 8e7a 1cbc 37b0 0bbd a1e8 bebc c2a5 44bc
000002f0: 442a a2bc 7876 ca3b 803d 3f3c 1555 08bd
00000300: 3023 1cbc 8a8d ab3c 80e8 df3a b263 c6bc
00000310: 488d c33c 4021 ab3c 6818 c1bb e8b4 b33b
00000320: ba28 dabc 5a84 893c 066e b3bc a07d 9cba
00000330: 8721 8cbc c360 0cbd 0090 4938 90a7 463b
00000340: d4ed 483c 166d d03c d092 2a3c 4a94 41bc
00000350: dc94 ccbb 20b5 f73b 58cb 683c 3e90 9ebc
00000360: 2aaf 9f3c 3425 a23c c75c 00bd a135 92bc
00000370: 68e7 ffbb 68ee a63c ea7b e4bc 00c0 eab9
00000380: f3d2 dcbc c062 f1bc c02b 5c3a a8e1 6cbb
00000390: 0040 5cba e3ea ddbc ba24 b33c 483a 8fbb
000003a0: f877 cdbb 9d11 053d 02ea a5bc e042 abba
000003b0: a623 febc e8e5 0f3c f0bc 173b 229b b33c
000003c0: 2491 b2bb cd61 bebc 63cf 0bbd defd f03c
000003d0: 002b 713c cbec f6bc c6a5 bb3c 8ce2 683c
000003e0: deb0 a03c 6eea 89bc f0d4 89bb a421 0ebc
000003f0: 9e94 823c 481a 813c 1002 9a3b 4c9c 853c
-0.02222227 -0.032538928 -0.00864731 -0.008454915 0.0066270977 0.018207736 0.025682285 -0.016892705
-0.02612735 0.015918497 0.0084892735 0.026578117 0.00954717 -0.006779922 0.00037895516 -0.01747937
-0.032053124 0.029298697 0.0032924525 -0.010766564 -0.002592966 -0.016715087 -0.0342126 0.008066695
-0.030209381 -0.027151156 0.008352295 -0.0059136935 -0.019802656 0.017367471 0.011872757 -0.024598867
0.01269095 0.011969373 -0.026149109 -0.01206802 -0.012869909 0.02528542 -0.0049552713 0.00631804
-0.03187361 -0.021325558 0.030098844 0.012385119 -0.00056057423 0.028906535 -0.022296725 -0.017446017
-0.028013652 -0.006229548 -0.027076442 -0.029896835 -0.02001929 0.0064242333 0.030110668 0.0122856535
-0.025551554 -0.014266614 0.02186986 0.029987212 -0.020366607 -0.011490904 -0.00855298 0.01587236
-0.002235502 0.024852723 -0.015537245 -0.021870954 0.032664035 -0.029702568 0.029623244 -0.005287878
-0.015230775 0.022512756 -0.0028312244 -0.034051977 -0.014073487 0.0078175515 -0.00044308603 0.0030950345
-0.006454883 -0.013489641 -0.01826116 0.02253199 -0.031147487 0.02353603 0.031641554 0.018214822
0.012892388 0.033851985 0.008711096 -0.00945171 0.0072650462 0.015709199 0.0024073012 -0.027620237
-0.0034010205 0.011695821 0.014861219 -0.009005288 -0.009739082 0.025294788 -0.022987025 0.013848476
-0.010524603 -0.02567999 -0.02853505 0.02909353 0.019898545 -0.03165049 -1.6599894e-05 -0.021081697
-0.018118385 0.019035581 -0.019330189 0.003676504 0.011529416 -0.031518694 0.016274307 -0.013692563
-0.029135708 0.006584894 -0.014256211 -0.03263807 0.012325831 0.0075673386 -0.020130046 -0.006469451
0.0102794655 0.02909049 0.014623407 0.009591859 0.032655593 0.016134609 -0.031551845 -0.00223843
-0.0021440573 -0.016858973 0.0110142715 -0.0025504082 -0.0191495 0.004340641 0.025993511 -0.0034414865
-0.012179593 0.007799577 -0.033214435 0.024460014 -0.010787817 0.0015041269 0.019945703 -0.017184772
-0.009407984 -0.008458462 0.03371605 -0.027248 0.022033367 0.0042528734 -0.028064169 -0.006805945
-0.004766654 0.015792202 -0.0124719925 0.010110553 0.015744068 -0.0026934817 -0.01991915 -0.013111727
0.032953624 -0.029038675 0.030191254 -0.025907047 -0.03233555 -0.0041346587 0.01773313 0.012510505
-0.01970135 0.0030544512 -0.008358626 -0.0031184815 -0.024341214 0.030205186 -0.009161683 0.005289197
-0.009550704 -0.0341036 -0.023304285 -0.01200241 -0.019795544 0.0061786734 0.011672378 -0.033284266
-0.009529874 0.020941515 0.001708284 -0.02421746 0.02387108 0.020889878 -0.005892802 0.005484212
-0.026630748 0.016786743 -0.02190305 -0.0011939295 -0.01710583 -0.034271967 4.8056245e-05 0.0030312277
0.012263734 0.025442641 0.010410979 -0.01181514 -0.0062433314 0.0075594336 0.014208637 -0.01935589
0.019492704 0.01979313 -0.03133848 -0.017847838 -0.007809568 0.020377353 -0.027891118 -0.0004477501
-0.026956057 -0.029466033 0.0008398853 -0.0036145244 -0.0008401871 -0.027089542 0.021868099 -0.0043709613
-0.006270405 0.0324875 -0.020253185 -0.0013066195 -0.031022858 0.008782841 0.0023153387 0.021924559
-0.005449431 -0.023239994 -0.034133326 0.029417928 0.014719725 -0.030142209 0.022906195 0.014214169
0.019615587 -0.016835418 -0.0042062923 -0.008675013 0.015940007 0.015759602 0.004699953 0.01630988

features.1.bias f4 [100]
00000000: 6861 513e 6a20 1abd 13cb 893d 7f93 463e
00000010: 2fcc 043e af7d 743d a845 83bc 2176 c9bc
00000020: c1f2 5d3d e843 ecbc 4397 e23e 12ee 603e
00000030: b5b8 a33d 9a6c 98bc 28c7 d2bc 66d9 eb3e
00000040: bc9a 20bc 984d 8ebc 6457 4dbd 9eef 56bd
00000050: b802 4bbd 2853 c2bc f7e3 903d dcf6 b53e
00000060: f7af 05bd 08ca b03e e78e ad3d a1d8 483d
00000070: 4418 063e 5deb 2d3f 1cae 943c f966 5ebc
00000080: a825 8ebb 72a3 eabc 26ca 00bc 49ee 5abd
00000090: 90b3 a9bc 29d7 ce3e 5485 fdbc d84e 983e
000000a0: 8491 aa3e c1c9 1c3e c478 fd3d 25bf 46bd
000000b0: 9c03 a03d 4437 66bd e67f 2fbc 5b42 9b3d
000000c0: eb15 f63d cb9e b23e 31ab 7f3e 2d5a cc3e
000000d0: e17c b9bc 3dfc 423e 4207 27bc 00a5 e33c
000000e0: b238 cb3e e88c 773d 96bc f3bc 6825 013d
000000f0: 6f8f 5e3e 7b13 ee3d 9aaf 8cbc 30cc ee3e
00000100: 057d 9a3c 040a 11bc 9a0d 8cbd d35a 4d3c
00000110: fc91 d3bc 6891 993e 6ff6 3dbc 0236 d0bc
00000120: 02de b33d 2421 af3e 6266 49bc 26cb a6bc
00000130: 1a13 bcbc 7130 ab3e 800c 8e3e dcfe 76bc
00000140: a01c f4bb 3a1b 8cbc a913 483c 329a d0bc
00000150: 9b48 f13c 637c 7cbc d692 c13e 4d4e 8e3e
00000160: e633 043f dd99 ddbc fa8d 05bd 9821 8bbc
00000170: faa1 923e 314a e33d 685e b6bb bcac 8f3e
00000180: a2c6 bbbc 662d eebc 077e 98bc 86b9 753e
0.20447314 -0.03762857 0.067281865 0.19392203 0.12968515 0.059690174 -0.016024426 -0.024592461
0.054186586 -0.028840974 0.4425603 0.21965817 0.079942144 -0.018606473 -0.02572973 0.460643
-0.009802517 -0.017370984 -0.05013217 -0.05247461 -0.04956314 -0.023721293 0.07074731 0.355399
-0.032638516 0.34529138 0.08474522 0.04903472 0.13095194 0.6793726 0.018149428 -0.013574355
-0.004337985 -0.02864239 -0.007860696 -0.053449903 -0.020715505 0.4039853 -0.030947365 0.29747653
0.33314145 0.15311338 0.1237655 -0.048522133 0.078131884 -0.05620505 -0.010711646 0.07581016
0.12015899 0.34886774 0.24967648 0.3991255 -0.022642555 0.19041534 -0.0101946015 0.027788639
0.39691693 0.060437113 -0.02975301 0.031529814 0.21734403 0.11624809 -0.017173577 0.46640158
0.018858442 -0.008852486 -0.06838532 0.012533861 -0.025826447 0.2999375 -0.011594399 -0.025416378
0.08782579 0.34204972 -0.012292476 -0.02036054 -0.022958327 0.33435395 0.27743912 -0.015075412
-0.0074497014 -0.017102826 0.012211719 -0.025464151 0.029453566 -0.0154105155 0.3780734 0.27794114
0.5164169 -0.027050907 -0.032606103 -0.016983792 0.28639203 0.11098135 -0.0055654533 0.28061473
-0.022921864 -0.029074382 -0.018614782 0.23996553

classifier.weight f4 [2, 100]
00000000: 7ab6 333e fc35 04bd 7379 01be b7a9 683e
00000010: 2538 1abe 4e2d 7bbd fa4c abbd f3d9 0cbd
00000020: bcef fe3c e0bd e33b caf3 e7be b53c 71be
00000030: ef1f 8f3d 5997 883d a034 bdbd 07c3 f13e
00000040: f0d4 c63d 13ec 25bd 1ddd 373d a3a8 a8bd
00000050: 20b7 0e3d 0ef9 82bd 99ba e03d 6a53 c73e
00000060: 8082 f7ba e09f ccbe 4aad 143c 50dc e13d
00000070: 787a f53d 7f51 32bf cb5b d63d 6c0b d6bb
00000080: aa4d acbd e014 4dbc e505 95bd 8505 bbbd
00000090: da96 19bd b82f c7be 1bf4 2abd babc a83e
000000a0: 9b6f ac3e 177e 0a3e f6cd 61bd ed9c ac3d
000000b0: 4070 ad3c a6ea b13d 9d8f aabd 6254 d63b
000000c0: 3515 223e 6591 bd3e dbd4 7f3e b868 bfbe
000000d0: 4daa 483d 4e63 1f3e 98f8 7e3c 1a6d 3bbd
000000e0: e000 e3be 11d9 213e 4a67 3abd ae4b 6b3d
000000f0: 597a 5ebe 98c3 8f3d 58b8 9b3d 9f3b e5be
00000100: 3522 1dbc 682d 9bbd 035a 933d 7117 4dbd
00000110: 8067 8cba 551e c1be 7d3c 853d 3873 80bd
00000120: c4a4 8e3d 1dae c63e 2f3b c3bd 4f67 1a3d
00000130: 50c7 63bd 2c02 8dbe acce ae3e d81b 53bc
00000140: c0b0 003c 9863 83ba 3d9b f9bc bafb 693d
00000150: 3a26 8cbd 9b6a 0bbc 59de d63e b69a aa3e
00000160: 323c 053f 3045 793c 8563 bdbd 428b 183d
00000170: 473e ae3e 2e56 843d 9306 803d fea9 843e
00000180: 202d eaba 3013 94bd 7aff 6fbd ef84 6d3e
00000190: 97d3 81be 72b2 483d 3089 be3c 2b32 3bbe
000001a0: d0fa f63d 0908 9d3d 83e0 75bd d215 e43c
000001b0: 75f4 c6bd a878 9ebc c10f e53e f027 603e
000001c0: 12cb c7bd 88ac a93a 1ee8 5e3d 74b9 e9be
000001d0: e736 593d a3a3 94bd 71cd aebd 2330 b23d
000001e0: 7573 34bd 6d07 843d b3a5 febc 27e5 b1be
000001f0: 2d8a 29bd a01f a63e 5bc3 47be cfb9 7f3c
00000200: 07bd 12be 8fd1 313f 0158 913d 70d4 36bd
00000210: 9884 29bc 95d2 acbd 1ac4 9fbd f06d 013d
00000220: 4ed9 683d a850 da3e 49a6 5ebd c038 a2be
00000230: 9105 c3be c5a1 38be f5ab 4d3e 57b8 c8bc
00000240: bac8 0fbe cd55 a5bd 6ddf 2dbd 158f 1e3e
00000250: cb77 b1bd e981 aabe 517f 82be 7d4a de3e
00000260: 53fa 033d e2c8 7cbe 1da9 833d 51cd c7bd
00000270: 1969 c73e f994 a1bb 5e77 87bd 9e7e 843d
00000280: 5544 6d3e c367 58be 350c e63c 6c97 033f
00000290: b59d 62bd a5a9 b2bc c92f 78bd fd97 bebd
000002a0: b072 35bc 9c5e 663e 25e4 fa3c 22e1 7f3d
000002b0: 421e 19be 2564 b5be a001 a3bd 96e2 c23d
000002c0: a7b3 a33d 6ca6 cd3e eec8 7ebe 9e3b 033d
000002d0: 40f1 643c eac1 99bd 146a 923b 405b 6abd
000002e0: 9622 e7bd 693c c93c b4e7 cfbe d7a4 7dbe
000002f0: 625b 05bf 53b7 b13d a8db c7bd 738a f93c
00000300: b867 87be 5544 24be c0a4 ebba b9ab a7be
00000310: e20a dbbc 2a93 a3bd 45ae a4bd 33c5 90be
0.17550078 -0.032278046 -0.12643985 0.22720991 -0.1506048 -0.061322503 -0.083642915 -0.03438754
0.031120174 0.006950125 -0.45303184 -0.23558314 0.06988513 0.06669492 -0.09238553 0.47219107
0.09708583 -0.04050834 0.044888604 -0.0823529 0.03484261 -0.0639516 0.10973091 0.38930827
-0.0018883497 -0.39965725 0.009074518 0.110283494 0.1198625 -0.69655603 0.10466727 -0.0065321233
-0.08413251 -0.012517184 -0.07276515 -0.09131912 -0.03749738 -0.38903594 -0.041736703 0.32956487
0.33678898 0.13524662 -0.05512806 0.08428369 0.021171689 0.08687334 -0.08328173 0.006540821
0.15828402 0.3702499 0.24983542 -0.37384582 0.048990536 0.15565225 0.015562199 -0.045758344
-0.44336605 0.1580546 -0.04550866 0.05744522 -0.2172636 0.070197284 0.0760352 -0.4477205
-0.009590675 -0.0757702 0.07194903 -0.050071184 -0.0010711998 -0.37718454 0.06505678 -0.06271976
0.0696502 0.38804713 -0.09532773 0.03769618 -0.05561 -0.2754072 0.34142053 -0.012885056
0.0078546405 -0.0010024188 -0.030469531 0.05712483 -0.06843229 -0.008509303 0.41966513 0.3332116
0.52044976 0.0152142495 -0.092474975 0.03724218 0.3403189 0.0646175 0.06251254 0.25910944
-0.0017866232 -0.07230222 -0.05859325 0.23195241 -0.25356743 0.048998304 0.023258775 -0.18280856
0.120595574 0.07667548 -0.060028564 0.027842436 -0.09714595 -0.019344643 0.44738582 0.21890235
-0.097555295 0.0012945095 0.054420583 -0.45649302 0.053030875 -0.07257774 -0.085352786 0.087005876
-0.04405542 0.06446729 -0.03108487 -0.34745142 -0.04139154 0.32446003 -0.19508116 0.015608265
-0.1432992 0.69460386 0.070968635 -0.04463619 -0.010346554 -0.08438603 -0.07801075 0.031598985
0.056847863 0.4263966 -0.0543578 -0.31683922 -0.38090184 -0.1803046 0.20085128 -0.024501963
-0.14041415 -0.08073006 -0.042449404 0.15484269 -0.08665427 -0.3330224 -0.2548776 0.43416205
0.03222115 -0.24686006 0.0642874 -0.09755958 0.3894737 -0.004931089 -0.06614564 0.06469463
0.23170598 -0.21133332 0.028081993 0.51402926 -0.055326182 -0.021809408 -0.060592446 -0.09306333
-0.011074707 0.22497028 0.030626366 0.062470563 -0.14952949 -0.35427967 -0.07959294 0.09515874
0.0799325 0.40166032 -0.24881336 0.032039277 0.013973534 -0.07507689 0.004468212 -0.05721593
-0.112858936 0.024564939 -0.40606463 -0.24769913 -0.52092564 0.086775444 -0.09758693 0.030461526
-0.2644632 -0.16041692 -0.0017978176 -0.327482 -0.026738588 -0.07987054 -0.08041052 -0.2827545

classifier.bias f4 [2]
00000000: 0372 cabd 49c7 f93d
-0.09885027 0.12196214
