old_paper/ckpt/simple_Conv_100_1.pth (torch, 3419 bytes, 4 tensors)

features.0.weight f4 [100, 1, 1, 1]
0	0xbd898f80	-0.067168236
1	0x3d984a85	0.074360885
2	0x3ead4cb5	0.33847585
3	0x3f370a6d	0.71500283
4	0xbf31e2de	-0.69486797
5	0x3e7fc5a0	0.24977732
6	0x3ed34227	0.41261408
7	0xbf0e3582	-0.55550396
8	0x3f0fec77	0.5622019
9	0x3f308335	0.68950206
10	0xbf4d6434	-0.8023102
11	0xbf21b76b	-0.631705
12	0xbe94b181	-0.29041675
13	0xbec38276	-0.3818547
14	0xbeba130c	-0.36342657
15	0x3f397acc	0.72453
16	0xbf0b8b02	-0.54508984
17	0xbf4ca409	-0.799378
18	0x3f693177	0.910911
19	0xbe04d968	-0.12973559
20	0xbf54b863	-0.8309385
21	0x3dce9180	0.10086346
22	0xbe7ba5de	-0.24574992
23	0xbe8b4c64	-0.2720672
24	0xbe324af2	-0.17411402
25	0xbf3474f9	-0.70490986
26	0xbf5d122f	-0.8635587
27	0xbf20801c	-0.6269548
28	0x3f6a2dd6	0.9147619
29	0xbeb32826	-0.34991568
30	0x3f5e7616	0.86898935
31	0xbe536308	-0.20643246
32	0xbf4ef2e3	-0.80839366
33	0x3f286113	0.65773124
34	0xbf63301c	-0.88745284
35	0xbf37b516	-0.7176069
36	0xbf7a3584	-0.9773791
37	0x3f797842	0.97449124
38	0x3e0116b0	0.12606311
39	0x3f16ed34	0.58955693
40	0xbe3f6168	-0.18689501
41	0xbef32100	-0.47486115
42	0xbf40abae	-0.7526196
43	0xbe8d1e8c	-0.27562368
44	0xbf192c76	-0.59833467
45	0x3dd557b0	0.10417116
46	0x3e034b00	0.12821579
47	0x3dbe8ccb	0.09304198
48	0xbee2af59	-0.44274405
49	0x3eaa7f67	0.33300325
50	0x3f2784a4	0.6543677
51	0xbd488ca0	-0.048962235
52	0x3e4e67e1	0.20156814
53	0xbeb71bec	-0.3576349
54	0x3ecfd926	0.4059536
55	0x3f3d965c	0.74057555
56	0x3f63c482	0.8897172
57	0x3f7c0d44	0.9845774
58	0x3f3d0fa2	0.7385198
59	0x3e65c2d1	0.22437598
60	0x3f25bd5d	0.6474207
61	0xbf51f9a8	-0.8202157
62	0xbf7296a5	-0.94761115
63	0x3efde8f0	0.4959178
64	0xbf52f4de	-0.8240489
65	0x3f3283a3	0.6973211
66	0xbf088050	-0.5332079
67	0xbf012771	-0.5045081
68	0x3f7580a0	0.9589939
69	0x3eaf8211	0.3427892
70	0xbf0a9a58	-0.5414176
71	0x3ee91df3	0.45530662
72	0x3e6e7032	0.23284987
73	0xbf19bc8e	-0.60053337
74	0xbdea39a0	-0.11436772
75	0xbeeaf03a	-0.45886403
76	0xbf576aa1	-0.8414708
77	0xbf1ca501	-0.61189276
78	0x3f3c025a	0.7344109
79	0x3f6d3693	0.926614
80	0x3f692b6b	0.91081876
81	0x3e75d2a0	0.24006128
82	0xbf2ead71	-0.682334
83	0x3f0b16fe	0.5433196
84	0x3f4cff12	0.80076706
85	0xbf0a8448	-0.54108095
86	0xbf416cdc	-0.7555673
87	0xbe910336	-0.28322762
88	0x3f75233d	0.95756894
89	0xbf71d23c	-0.9446142
90	0xbf75b0a8	-0.9597268
91	0xbefbeff5	-0.4920651
92	0xbeaabc6c	-0.3334688
93	0xbf46f44e	-0.7771653
94	0x3e48f24f	0.19623683
95	0xbf5da06e	-0.8657292
96	0xbe74c2e4	-0.2390247
97	0x3e60f776	0.21969399
98	0x3df777f8	0.12083429
99	0x3f4e2307	0.805222

features.0.bias f4 [100]
0	0xbe9907cc	-0.2988876
1	0x3f61458c	0.87996745
2	0x3e34d4e9	0.17659344
3	0x3ec6cbe9	0.38827446
4	0xbf584e2c	-0.8449428
5	0x3e45cbe0	0.19316053
6	0x3f744abd	0.9542654
7	0xbf7a72b0	-0.9783125
8	0xbda411dc	-0.08011219
9	0x3f1ecab3	0.62028044
10	0xbe5b16cd	-0.21395417
11	0xbf16d407	-0.5891728
12	0x3d48e5f7	0.049047437
13	0xbe111026	-0.14166316
14	0xbf2df0ea	-0.6794573
15	0xbf3efd1e	-0.74604976
16	0x3f761c10	0.9613657
17	0x3e810d12	0.25205284
18	0x3ef8bf79	0.48583582
19	0xbf377b56	-0.7167257
20	0xbe2e16f0	-0.17000937
21	0xbebc675c	-0.36797607
22	0x3e10bb0e	0.14133856
23	0xbf136794	-0.5757992
24	0x3ec18747	0.3779852
25	0x3e23ebfc	0.1600799
26	0xbda60ae0	-0.08107543
27	0x3f49c8e7	0.7882218
28	0xbf072f78	-0.52806807
29	0x3ebb8ef8	0.36632514
30	0x3c3ddccc	0.011588287
31	0xbde7d30b	-0.1131955
32	0xbef3c89a	-0.47613984
33	0x3e8ab019	0.27087477
34	0x3f6ff01a	0.9372574
35	0xbf62060e	-0.8829049
36	0xbf7a6fd6	-0.978269
37	0xbf7f4ffc	-0.9973142
38	0xbec38670	-0.38188505
39	0x3f1969d5	0.5992711
40	0x3e3030a3	0.17206053
41	0xbe0265fb	-0.12734215
42	0x3f101010	0.5627451
43	0xbf0fba6a	-0.5614382
44	0x3ec7ed0f	0.3904805
45	0xbf674034	-0.9033234
46	0xbf69f692	-0.9139186
47	0x3f7804a6	0.9688209
48	0x3f2a041c	0.6641252
49	0xbe4f8998	-0.20267332
50	0xbf2b05d4	-0.6680577
51	0xbe75e0b8	-0.24011505
52	0x3e34e2bf	0.17664622
53	0x3f407180	0.7517319
54	0xbe9daada	-0.30794412
55	0xbf7e3f06	-0.99314916
56	0xbf30dad2	-0.69083893
57	0xbf7e4d34	-0.9933655
58	0x3e121311	0.14265086
59	0x3f6ecfa6	0.93285596
60	0xbb6403fd	-0.0034792416
61	0xbe9bd626	-0.3043682
62	0xbe03b3ef	-0.12861608
63	0x3f1e630a	0.6186987
64	0xbf7e3740	-0.99303055
65	0x3e941f6f	0.28930232
66	0x3f22f12b	0.63649243
67	0x3ebdefbf	0.37096974
68	0x3e03a8e8	0.12857401
69	0x3eb4c6de	0.35307974
70	0x3e9851f0	0.29750013
71	0x3f5986d2	0.84971344
72	0x3f577753	0.8416645
73	0x3ea3fa0a	0.32026702
74	0xbf275e70	-0.65378475
75	0x3e1b0c83	0.15141492
76	0x3f554af4	0.83317494
77	0xbedae0c3	-0.42749605
78	0x3f36c253	0.71390265
79	0xbdbd9acb	-0.0925804
80	0xbe4e2f74	-0.2013529
81	0xbf3cb23e	-0.73709476
82	0x3ed6c3d1	0.4194627
83	0xbf145558	-0.57942724
84	0xbec4b525	-0.38419452
85	0xbf114116	-0.5673994
86	0xbf55aebe	-0.8346976
87	0x3f445319	0.76689297
88	0xbf4658dd	-0.77479345
89	0xbeb03311	-0.3441396
90	0xbf0eb892	-0.5575038
91	0x3e3d59da	0.18491307
92	0xbf65028c	-0.8945701
93	0xbf6fe0b2	-0.9370223
94	0x3ea9e0c5	0.33179298
95	0xbec177eb	-0.37786803
96	0x3ed64ec1	0.4185696
97	0x3c921c91	0.017835887
98	0x3e37d7e1	0.17953445
99	0xbdff6d55	-0.12472025

classifier.weight f4 [2, 100]
0	0xbdc6c7bb	-0.09706064
1	0x3df59a14	0.11992279
2	0x3df43675	0.11924449
3	0x3eaa476f	0.33257625
4	0xbcd90e0c	-0.026495956
5	0x3dce6f30	0.10079801
6	0x3e34a02e	0.17639229
7	0xbca131c0	-0.019677043
8	0x3e2fb32f	0.17158197
9	0x3e8d1de2	0.2756186
10	0xbe7b7a56	-0.24558386
11	0xbccd743d	-0.02507984
12	0xbdce3b28	-0.10069877
13	0xbd6709c0	-0.056405783
14	0xbd3267d0	-0.043556035
15	0xbdbfcf38	-0.09365696
16	0xbeaaa513	-0.33329067
17	0xbeaf8ba9	-0.3428624
18	0x3ed56005	0.4167482
19	0x3a6efd00	0.00091166794
20	0xbe3e6cba	-0.18596163
21	0xbb2a61a0	-0.002599813
22	0xbe384bc7	-0.17997657
23	0x3dc287bb	0.09498545
24	0xbddbfb88	-0.10741335
25	0xbe195b0f	-0.14976142
26	0xbe6fed54	-0.23430377
27	0xbead63b8	-0.33865142
28	0x3d54f1e0	0.051988482
29	0xbe2c5587	-0.16829501
30	0x3e3bfbdf	0.183578
31	0xbd184864	-0.037178412
32	0xbd7c572a	-0.061606564
33	0x3e49e358	0.19715631
34	0xbedcd946	-0.43134516
35	0xbcaa5888	-0.020794168
36	0xbbaefb30	-0.0053400025
37	0x3d3a7796	0.045524202
38	0x3d9141b1	0.07092608
39	0x3eb544b2	0.35403973
40	0xbe17f8f2	-0.14841059
41	0xbe15a7fa	-0.14614859
42	0xbead73c4	-0.33877385
43	0xbd67672d	-0.05649488
44	0xbe9b324a	-0.30311805
45	0xbc360490	-0.011109486
46	0xbca881a0	-0.020569623
47	0x3c0a39c0	0.00843662
48	0xbe84cf11	-0.2593923
49	0x3dd878df	0.10569929
50	0xbdb32dfb	-0.087490045
51	0x3d9bf1df	0.076144926
52	0x3e272ea3	0.16326384
53	0xbe7abf7e	-0.24487111
54	0x3d96b24d	0.07358227
55	0xbd0a8256	-0.033815704
56	0x3dfe3761	0.124129064
57	0xbd88357e	-0.06650828
58	0x3e19010a	0.14941803
59	0x3e06eaa5	0.13175447
60	0x3e370833	0.17874222
61	0xbdc9f9f9	-0.098621316
62	0xbe10db15	-0.14146073
63	0x3ea8bb1f	0.32955262
64	0xbc9f99e8	-0.019482568
65	0x3e993819	0.29925612
66	0xbeacc98d	-0.3374752
67	0xbe86984e	-0.26288074
68	0x3e841bea	0.25802547
69	0x3e2bcb79	0.16776837
70	0xbe7c56b8	-0.24642456
71	0x3e9f98c4	0.31171238
72	0x3cf5627a	0.029954184
73	0xbe3f91b2	-0.18707922
74	0xbcaacf54	-0.020850815
75	0xbe3eb8d0	-0.18625188
76	0xbefe4844	-0.4966451
77	0xbd7a2cd3	-0.061077904
78	0x3ec9d824	0.39422715
79	0x3e5a73de	0.21333262
80	0x3e3f4644	0.18679148
81	0x3d96b959	0.07359571
82	0xbe9f2eda	-0.31090432
83	0xbdab47b2	-0.08363284
84	0x3d694624	0.056951657
85	0x3d847024	0.064667016
86	0x3c4e5fd8	0.012596093
87	0xbde83bdf	-0.113395445
88	0x3d9ace8c	0.07558927
89	0xbe1f87f8	-0.15579212
90	0xbdb7a53f	-0.08967065
91	0xbdfa8ee4	-0.122342855
92	0x3dc9b903	0.09849741
93	0x3d81d58b	0.06339558
94	0x3dd431db	0.10361072
95	0xbe427b4f	-0.18992351
96	0xbd93c73c	-0.07215735
97	0x3d5a5579	0.05330417
98	0x3e03c2b2	0.12867239
99	0x3e37a2bb	0.1793317
100	0xbcf1da4c	-0.029523037
101	0x3d39fd40	0.045407534
102	0xbdd8b0e1	-0.10580612
103	0xbe6fc0e0	-0.2341342
104	0x3d575c1a	0.05257807
105	0xbde37029	-0.11105377
106	0xbe8c1ae0	-0.27364254
107	0xbcee9f88	-0.029128805
108	0xbdcf381f	-0.10118126
109	0xbeb96758	-0.36211658
110	0x3dc89de0	0.09795737
111	0xbcc16540	-0.02360785
112	0x3e2474b2	0.1606014
113	0x3e0b81ae	0.13623688
114	0x3ce9dd2c	0.028547846
115	0x3c84e254	0.016221203
116	0x3e9c2739	0.30498675
117	0x3e887edd	0.2665929
118	0xbeaf8b6f	-0.34286067
119	0xbd58e77d	-0.05295514
120	0x3e517502	0.20454791
121	0x3db9a317	0.0906431
122	0x3d8e0056	0.06933658
123	0x3d20845a	0.03918872
124	0x3e0274d2	0.12739876
125	0x3e8b70a1	0.27234367
126	0x3e408fe3	0.18804888
127	0x3ebe16dd	0.37126818
128	0xbd49c3cf	-0.049259003
129	0x3e5ab34f	0.21357463
130	0xbe364302	-0.17798999
131	0xbd6225e8	-0.05521193
132	0x3e1f9d14	0.15587264
133	0xbeab13b5	-0.33413473
134	0x3eff7914	0.49897063
135	0xbda2364e	-0.07920514
136	0xbdbb1882	-0.09135534
137	0xbdc7f2a5	-0.09763078
138	0xbd96fbeb	-0.07372268
139	0xbea07805	-0.31341568
140	0x3dba9896	0.09111135
141	0x3d5c51ae	0.053788833
142	0x3e9c9cb1	0.30588296
143	0x3d065fb2	0.032806106
144	0x3e600f15	0.21880753
145	0xbd8ef788	-0.069808066
146	0xbdc1eb3a	-0.09468694
147	0xbdb028bf	-0.08601522
148	0x3e3d05b9	0.18459214
149	0xbdc6fc3b	-0.09716078
150	0x3d1924f2	0.03738875
151	0xbcb25348	-0.021768227
152	0xbde988ae	-0.11403023
153	0x3e022d3f	0.12712573
154	0xbd219afc	-0.039454445
155	0x3cf68aac	0.03009542
156	0xb9b03c02	-0.00033614045
157	0xbcb3ecd4	-0.021963514
158	0xbe922e78	-0.28551078
159	0xbe29eb56	-0.1659368
160	0xbe71f4ce	-0.23628542
161	0x3dd1c8ce	0.102433786
162	0x3e74e83a	0.23916712
163	0xbe6d64b8	-0.23182952
164	0x3d640ee2	0.055678256
165	0xbe6780fb	-0.22607796
166	0x3e6dd45b	0.23225538
167	0x3e73d066	0.23809966
168	0xbea00937	-0.3125703
169	0xbe52982c	-0.20565861
170	0x3e2dc92e	0.16971275
171	0xbe558d94	-0.20854789
172	0xbe67b17b	-0.22626297
173	0x3e88e700	0.2673874
174	0x3ca33cb4	0.019926406
175	0x3e04e11d	0.12976499
176	0x3ee96df3	0.45591697
177	0x3db658e9	0.08903677
178	0xbee9f1d0	-0.456923
179	0xbe603f2d	-0.218991
180	0xbe1c20d0	-0.15246892
181	0xbd9de78d	-0.077101804
182	0x3e7d80eb	0.2475621
183	0xbab13b80	-0.0013521761
184	0xbd9713dc	-0.07376835
185	0xbd608ce5	-0.054821867
186	0xbce1788c	-0.027523302
187	0x3e09b6b5	0.13448603
188	0xbd01f664	-0.031729117
189	0x3de3c0df	0.111207716
190	0x3dac0989	0.08400256
191	0x3e38daf6	0.18052277
192	0x3d62471e	0.055243604
193	0xbd898980	-0.06715679
194	0xbd7d08d1	-0.061775986
195	0x3dc0dce4	0.094171315
196	0x3e0e60e1	0.13904144
197	0xbad609e9	-0.0016329858
198	0xbcf68fc1	-0.030097844
199	0xbe0f5201	-0.13996126

classifier.bias f4 [2]
0	0x3c2d720e	0.010586275
1	0xbd42cf40	-0.04756093
