old_paper/ckpt/simple_Conv_100_7.pth (torch, 22619 bytes, 4 tensors)

features.0.weight f4 [100, 1, 7, 7]
000000 7a 19 09 3e 98 fb 84 bc 4a 8d d5 bd b2 3b a6 3d
       0.13388625 -0.01623325 -0.104273394 0.08116855
000010 d8 4d ac 3c 8f e9 e5 3d 28 78 0a 3d 84 4a 34 3d
       0.021033213 0.112261884 0.033805996 0.044016376
000020 44 9d e9 3d 4b 61 e6 3d 4f b2 fe 3d 10 ab 02 be
       0.11406949 0.11249026 0.124363534 -0.12760568
000030 38 d3 08 3e f8 e9 05 3e 88 86 be bd d5 63 e5 bd
       0.13361824 0.13077533 -0.093030035 -0.11200682
000040 06 3d 67 bd c0 92 fa bb 71 1b 01 be 20 77 08 3e
       -0.05645468 -0.0076468885 -0.12608124 0.13326693
000050 f0 80 64 3c ae 02 f1 3d b0 24 0c be 00 dd f9 3b
       0.013946757 0.11768089 -0.1368587 0.007625222
000060 d4 06 e9 bc e0 a4 76 3d d0 73 0a 3e ea d1 6a bd
       -0.028445639 0.06021583 0.13520741 -0.057329096
000070 a0 4b dc 3d 30 5b c7 bd 94 8d 75 bd f8 cf 55 3d
       0.10756612 -0.097341895 -0.059949473 0.052200288
000080 ba 31 0c 3e 48 40 86 3c e8 3c d2 3d a8 02 dd 3d
       0.13690844 0.016388074 0.10265523 0.10791522
000090 7a 4a a7 3d e8 56 28 3d 86 64 61 bd cd 85 df 3d
       0.08168502 0.041098505 -0.055027507 0.10914192
0000a0 a0 ad 0f 3c a0 5f 4f 3d d1 d4 06 be fd d6 0b be
       0.008769423 0.050628304 -0.1316712 -0.1365623
0000b0 0e bd 86 3d 20 5b 85 bd 40 b7 5f bd 9a f2 80 3d
       0.06579028 -0.06511521 -0.05461812 0.062962726
0000c0 3c 2d 8b 3d ad 67 02 be 35 c0 d1 3d 93 c9 89 3d
       0.06795737 -0.12734862 0.10241739 0.067279
0000d0 82 3c 48 bd f0 21 10 3c 2b e6 da 3d c9 dd ab bd
       -0.04888583 0.008797154 0.10688432 -0.083919115
0000e0 69 7f c1 bd 80 3a 6e 3c 45 86 5e 3d 2b e7 d7 bd
       -0.0944813 0.014540315 0.05432727 -0.10542139
0000f0 60 e1 ef bd ca 28 66 3d 5b e8 0b be b1 bb 9e 3d
       -0.11712909 0.056191243 -0.13662855 0.07750643
000100 40 0d 8f 3c 9e d6 fe bd e9 13 aa 3d f5 57 45 3d
       0.017462373 -0.12443279 0.08304579 0.048179585
000110 95 64 f4 3d cc 8d 72 3d 9a 2f 4f 3d 93 9b ce 3d
       0.11933247 0.05921726 0.050582506 0.10088267
000120 12 bf 69 3d e0 2e 37 bd c0 a9 fe bb 08 6b af bc
       0.057066984 -0.044722438 -0.0077717006 -0.021413341
000130 00 3a a2 3c 61 34 ff 3d c5 7f 02 3e 30 b1 b3 bc
       0.019803047 0.12461162 0.12744053 -0.021935076
000140 27 f3 9c bd c3 ae 0e be 5f 84 4c 3d 25 49 ac 3d
       -0.07663565 -0.13933854 0.049930926 0.08412389
000150 f0 d7 c6 3c 13 72 dd bd 70 65 e7 3c 59 3b ec 3d
       0.024272889 -0.108127736 0.028246611 0.11534757
000160 d1 e5 89 3d 13 11 c9 3d 4f a9 01 3e d5 38 01 3e
       0.06733287 0.0981771 0.12662242 0.12619336
000170 4b f4 9f bd af 47 5d 3d 77 28 3d bd 6d 31 bd 3d
       -0.07810267 0.05402344 -0.04618117 0.09237943
000180 8f 51 11 3e 45 73 ca 3d cd 1a be bd 6e 8f b5 3d
       0.14191268 0.09885267 -0.092824556 0.08865248
000190 93 b0 36 bd 54 e2 c8 bd c1 8d 13 3d 61 90 55 bd
       -0.044601988 -0.09808794 0.03602386 -0.052139644
0001a0 e5 b8 09 3d b5 71 0d 3e f8 b1 a6 3c 1c b0 c1 bc
       0.033623595 0.13812907 0.020348534 -0.023643546
0001b0 64 e7 ca bd 80 33 cc bc 38 38 82 3c ff a4 c7 bd
       -0.099074155 -0.0249269 0.015895948 -0.097482674
0001c0 0d 7b 94 bd 16 56 9e 3d fc 12 43 3d fb d3 f7 bd
       -0.072500326 0.07731263 0.047625527 -0.12100979
0001d0 d8 e0 6d 3d bb da 02 3d 4d d1 0c 3e 9d 94 0c 3d
       0.058075756 0.03194688 0.13751717 0.034321416
0001e0 b0 a7 81 bc de 87 10 be 29 c9 45 bd 08 37 cd bd
       -0.01582703 -0.14114329 -0.048287544 -0.10020262
0001f0 d0 2a 8b bc 00 d2 c1 39 e6 6c fc 3d 7a 53 c0 bd
       -0.016988188 0.0003696829 0.12325458 -0.09390922
000200 c1 42 8d bd 8a 98 88 3d 2c 0c 32 3d 1c 1e e5 bc
       -0.06897498 0.066697195 0.04346864 -0.027968459
000210 df d1 0a 3e 0c ed 80 3d 98 0a 85 3d 28 bc 85 3c
       0.13556622 0.06295213 0.06496161 0.016325071
000220 74 3f 01 bd 00 b8 2c 3b f4 97 e9 bd fd 34 0e 3e
       -0.031554654 0.002635479 -0.11405936 0.13887401
000230 dd 7f 00 3d ea c2 80 3d ba bd 92 bd 00 05 f4 3a
       0.03137194 0.06287177 -0.07165094 0.0018617213
000240 8c 09 53 3d 16 6f 8e 3d 6d 72 b4 bd 7e bb ac 3d
       0.051522776 0.06954782 -0.088108875 0.08434199
000250 fc e9 d8 3d f0 45 68 3c 7c 26 bf 3d 5a 75 1e be
       0.10591504 0.014176831 0.09333512 -0.15474454
000260 e0 c6 c3 3d a9 8c 02 3e 45 b2 f2 bd ce 1a f7 bd
       0.09559417 0.1274897 -0.118504085 -0.120656595
000270 80 4b 03 bc 8f de 18 be 35 f3 12 be c0 05 a0 bb
       -0.008013606 -0.1492865 -0.14350589 -0.004883498
000280 df 2a f9 bd 55 2f 0f be b0 c8 ac bc 92 f0 36 bd
       -0.1216638 -0.139829 -0.021091789 -0.04466302
000290 27 dc 9a bd 22 43 b0 3d 5d d9 00 3e 7c 3f 05 bd
       -0.07561522 0.086065546 0.12582918 -0.032531247
0002a0 a0 e0 5e bd b0 72 a9 3d d0 bf bc 3c 13 81 cd 3d
       -0.054413438 0.08273828 0.023040682 0.100343846
0002b0 06 9c d1 3d 7e 33 da 3d c8 ad ad 3d 08 87 cf bc
       0.10234837 0.106543526 0.08480412 -0.025332943
0002c0 80 ac ac bd 3d 94 e2 3d ef 96 12 be f2 45 9f 3d
       -0.08431339 0.110634305 -0.14315389 0.07777013
0002d0 f4 c4 75 3d 2a ef 62 bd 6a b3 c7 bd 1c 83 01 bd
       0.060002282 -0.055403866 -0.097510174 -0.031619176
0002e0 09 b1 d7 3d 6c b9 a1 3d 68 8e d5 3c d0 57 64 3d
       0.10531814 0.078966945 0.026068881 0.055747807
0002f0 31 f7 cc bd 9d 42 d0 bd 60 37 33 3d 58 84 1f bd
       -0.100080855 -0.101689555 0.04375398 -0.038944572
000300 17 14 04 be 38 1b 3b 3d b8 23 51 bd e0 57 40 bd
       -0.12898289 0.045680255 -0.051059455 -0.046958804
000310 6a 2b 67 bc 40 a8 40 3d 2e 55 3b 3d 8d 91 6a 3d
       -0.014109472 0.047035456 0.04573553 0.057267714
000320 0e 52 1a 3d 83 97 a8 3d 15 ae 32 3e 46 5c 44 3d
       0.03767591 0.082320236 0.1744922 0.04793956
000330 64 a1 08 bd 31 69 60 3c 1d 40 1f 3e 63 6b f2 bc
       -0.03335704 0.013696955 0.15551801 -0.029592222
000340 be 27 13 bd 29 d6 db 3d 13 78 19 3e 84 ca 20 3e
       -0.035926573 0.10734207 0.14987211 0.15702254
000350 0c 0e 60 bc 5f 0f 06 3e c2 70 f9 3d 61 da 21 3d
       -0.013675224 0.13091801 0.1217971 0.039514903
000360 88 d1 1a 3e 5e 9b 57 bd 4d fa f3 3d 3b 14 08 3e
       0.15118992 -0.052638404 0.119129755 0.13288967
000370 55 2c cf 3c f6 fd b7 3d 77 ad 13 bc da 5e b7 3d
       0.025289694 0.08983986 -0.009013525 0.089536384
000380 49 d4 60 3c d8 a2 41 3d 60 a8 34 3d 58 a2 d2 bc
       0.013722488 0.04727444 0.044105887 -0.025712177
000390 32 a0 05 3e a3 78 25 3e 82 7d 3c bd 48 12 2d 3e
       0.13049391 0.161593 -0.04601813 0.16901505
0003a0 0d 9e 8b 3d 20 a6 b4 bd ed de 15 bd 2f 28 02 bc
       0.06817255 -0.08820748 -0.03658955 -0.007944151
0003b0 07 6a 21 3e fb bb 2f 3d f3 83 f0 3d 4f 98 d5 3d
       0.15763102 0.04290388 0.11743917 0.10429441
0003c0 01 fd 71 3d 90 60 7b bd 78 01 ad 3d 3c d3 13 3e
       0.059079174 -0.061371386 0.08447546 0.14436048
0003d0 8e 78 19 3e 62 73 e9 3d 7e 5f c3 bd 51 cd ac 3b
       0.14987394 0.11398961 -0.09539698 0.005273499
0003e0 be 78 e7 bd 15 63 05 be e5 17 4f bc 92 08 e5 3d
       -0.113023266 -0.13026078 -0.012639974 0.11183275
0003f0 86 12 00 bd 33 bd 85 3c 88 b0 8b 3c 46 f6 dd 3d
       -0.031267665 0.016325569 0.01705195 0.108379886

features.0.bias f4 [100]
000000 1e f7 f1 bd 0f 0a 4f bd c7 80 1d bd 75 51 c8 bd
       -0.11814712 -0.050546702 -0.03845289 -0.09781162
000010 88 6c 21 3e 32 b2 a9 3c 1a 12 8b 3c 6e f7 42 3e
       0.15764058 0.020714853 0.016976405 0.190397
000020 5d 35 be 3d 9c ca 47 3e 29 2a 98 bc 83 d1 0e bd
       0.09287522 0.19510883 -0.018574791 -0.034867775
000030 7a 36 bb 3c 90 6e e7 bd ed 98 fe 3b 3a d7 09 be
       0.022853125 -0.11300385 0.007769695 -0.13461009
000040 0b 3f 32 3e 36 f3 5d 3e d5 ae 2d bd 0f ca c6 bc
       0.17406861 0.21674809 -0.04240306 -0.02426627
000050 5a c6 f2 bd c9 31 5e bc 2d 2c be 3e fa 94 7a 3e
       -0.11854239 -0.013561674 0.37143078 0.24470893
000060 86 05 91 3d a6 d4 84 3e c2 50 68 bd 94 9c 96 3e
       0.07081132 0.25943488 -0.05671764 0.29416335
000070 f7 7a e2 bd 6c 4a 6f 3b 46 82 cd 3d 49 b1 84 3e
       -0.1105861 0.0036512865 0.10034613 0.25916508
000080 55 7b 30 3e 7b d4 c1 bd 2d d7 51 bd 04 0c 84 bd
       0.17234547 -0.094643556 -0.0512306 -0.06447604
000090 56 23 23 3e d8 76 f7 3d d5 e2 ed 3d a4 b6 3e 3e
       0.15931448 0.120832145 0.116155304 0.1862436
0000a0 52 ec f1 3d 43 47 3b 3e 5e d5 bb bd 8e ef 92 3d
       0.11812653 0.18288903 -0.09171556 0.07174598
0000b0 e1 c9 d7 bd 05 19 f0 3d e7 a0 31 3e b6 88 8e 3c
       -0.10536552 0.11723522 0.17346536 0.017399173
0000c0 fa ab 70 3e 05 33 62 3e f8 30 9d bc cd 31 ca bd
       0.23503104 0.22089775 -0.01918839 -0.0987278
0000d0 26 e3 75 bd d9 6d 36 3e 3f 8d 26 3e b1 b0 66 bd
       -0.06003108 0.17815341 0.16264819 -0.05632085
0000e0 29 e0 cf bc 8b 58 0f 3d fc 80 ba bc 6d 68 c9 3d
       -0.025375443 0.03499655 -0.022766583 0.09834371
0000f0 63 6e c7 bd 3b 70 c1 bb 74 05 0f 3d ac a5 6b bd
       -0.097378515 -0.0059032715 0.03491731 -0.057531044
000100 fc 36 73 3e 0a 33 2a 3e 1f e7 05 3e 60 a4 b9 bd
       0.23751444 0.16621032 0.13076447 -0.09064555
000110 f6 4c a5 3c c3 d9 dd 3d 1a 66 7f 3e 23 1c 27 bd
       0.0201783 0.108325504 0.24941292 -0.040798318
000120 ad cf 08 3e 9d 04 55 3e 37 b5 1d 3e 2a f8 a9 3e
       0.13360472 0.20802541 0.15401159 0.33197147
000130 d7 dd 2a 3e 1a f5 3c 3e 75 bd 5f 3c c9 8c 14 bd
       0.16686188 0.18452874 0.01365601 -0.036267076
000140 02 aa b1 bd 2b a9 16 3e 5e 22 71 bc c8 4a 47 3e
       -0.086750045 0.1471297 -0.014717666 0.1946212
000150 c8 80 d5 3d c2 65 75 3e 8e 70 72 3e 6f 23 01 3e
       0.10424954 0.23964599 0.23675749 0.12611173
000160 dc 2c 20 3e 1f de 23 3e 93 c6 3e 3e b2 6e f4 3c
       0.15642112 0.16002701 0.18630438 0.02983794
000170 86 df 86 bd 34 b3 69 3e 14 f9 a4 bd 72 a3 8a 3d
       -0.065856025 0.22822267 -0.080553204 0.06769456
000180 32 b0 50 3e e5 7d 8e 3e aa c3 80 3e 77 0b 6e 3e
       0.20379713 0.27830425 0.2514928 0.23246561

classifier.weight f4 [2, 100]
000000 f9 c6 ee bc fe 04 2a bd d2 6e 42 3d 1a d9 38 bd
       -0.029147612 -0.041508667 0.047468968 -0.04512892
000010 49 47 8a 3e e4 43 37 bd a9 4b 3a bd ab 0f c5 be
       0.2700751 -0.04474248 -0.04548231 -0.38488516
000020 d2 43 f2 bd 74 f6 b1 be 9a 8e 2a bc 58 a8 0c be
       -0.11829342 -0.3475834 -0.010409975 -0.13736093
000030 11 5a e3 3b 07 41 6e bd 97 63 71 bd 2b 39 ea bc
       0.006938227 -0.058167484 -0.058932867 -0.028591713
000040 2a 1c 8e be 89 61 21 3f 16 94 0e bd 5c 5f c0 bd
       -0.27755862 0.6303945 -0.034809195 -0.09393188
000050 bb 8b 0f 3a 32 4d 3f 3c fd bc a0 bf a5 d9 29 3f
       0.00054758386 0.01167612 -1.2557675 0.66347724
000060 6b cf 56 3c 64 4d 26 bf 63 d0 14 3e 74 e6 55 bf
       0.013110976 -0.6496184 0.14532618 -0.8355477
000070 11 54 27 3d 9a c4 90 3d b4 59 08 be ac a5 28 bf
       0.040851656 0.07068749 -0.13315469 -0.65877795
000080 85 b1 bf 3e 18 54 a4 3d da 50 f9 bd 47 f4 93 3c
       0.37440124 0.08023852 -0.12173624 0.018060816
000090 d7 c9 6e 3e d7 0b 09 3e fd 90 47 3e 70 57 99 3e
       0.23319183 0.13383423 0.19488902 0.29949522
0000a0 11 01 3f 3e 6c 38 e6 3e 4c c3 89 bc c8 98 ff 3d
       0.1865275 0.4496492 -0.016816758 0.124803126
0000b0 61 e0 ac bd 98 ec 01 be c7 99 e5 3e 97 6e ce 3d
       -0.084412344 -0.1268791 0.44843885 0.10079687
0000c0 d4 4b 1f bf 55 a0 08 bf 57 66 76 bc 6a ca 5b 3d
       -0.6222508 -0.5336965 -0.015039048 0.053659834
0000d0 ad 3e 79 bd ff 00 c0 be a5 bb 72 be 40 4d 01 3e
       -0.060850788 -0.3750076 -0.23704393 0.12627125
0000e0 a0 c6 28 3d 01 e6 ad 3c ab f3 b7 bc 8c f0 01 be
       0.04120505 0.021227838 -0.022455057 -0.12689418
0000f0 13 f4 85 3c dc f5 01 3e d8 69 48 bd 7c f4 1c bd
       0.016351735 0.12691444 -0.048929065 -0.038319096
000100 08 d1 22 bf 8d b3 b1 3e 8e 71 21 3e 13 fc 62 3c
       -0.63600206 0.347073 0.15765974 0.0138540445
000110 1d 0a 25 bd b1 7f 2a be 9c 4b 1c 3f 44 d2 84 bd
       -0.040292848 -0.16650273 0.6105287 -0.064854175
000120 83 00 56 3e 10 9f 2b 3f 46 20 68 be 4f 9c 8d 3f
       0.20898633 0.67039585 -0.22668561 1.1063327
000130 36 b4 8d be 2f b2 b7 3e 70 92 9b 3d cc e5 01 be
       -0.27676553 0.3587813 0.0759629 -0.12685317
000140 72 0b ba bd a6 64 29 3e 27 24 9e bd 97 d5 e9 be
       -0.09084214 0.165423 -0.07721739 -0.4567077
000150 e4 94 60 bd f2 73 1b bf 75 8c 10 bf bc 34 80 be
       -0.054829493 -0.60723794 -0.5646432 -0.25040233
000160 4c 5c 74 3e eb f3 8c be e6 b9 99 3e 2e 08 9c bc
       0.23863333 -0.27529845 0.30024642 -0.01904687
000170 67 5b 14 bc 54 3e 07 3f 2a 18 d2 bd cc 47 3b bd
       -0.009054995 0.5282948 -0.10258515 -0.045722768
000180 88 aa ce 3e 69 d8 4e 3f 0b ef 48 3f 9e 6f 3c 3f
       0.4036448 0.80798966 0.7848975 0.73607814
000190 79 45 aa bc 26 6e a3 bd 86 f4 8f 3d 66 3a 48 3d
       -0.02078508 -0.079799935 0.07029061 0.048883818
0001a0 16 19 8e be 99 05 09 3d 7e d6 4b 3b be 20 bc 3e
       -0.27753514 0.033452604 0.003110319 0.3674373
0001b0 f7 95 0e 3e 7b ff d4 3e 62 5f 35 bc 75 08 0f 3e
       0.13924395 0.41601166 -0.011070104 0.1396807
0001c0 0b 44 03 be 9c e5 1c 3d 2b 80 63 3d ec 2b 84 3d
       -0.12818925 0.03830491 0.055542152 0.0645369
0001d0 d5 a9 8f 3e d8 d4 0f bf 7d e3 b6 3c 06 a6 25 bb
       0.2805926 -0.5618415 0.022325272 -0.002527596
0001e0 36 01 8a bd c2 09 fa 3d 51 0a a6 3f 6f 41 40 bf
       -0.06738512 0.122088924 1.2971898 -0.75099844
0001f0 fd 24 b4 3d c8 73 1a 3f 15 64 19 be 9f e3 7d 3f
       0.087961175 0.6033292 -0.14979585 0.9917545
000200 ec c6 1e bd 54 a9 e3 3c 83 e0 43 3d 9c 79 2e 3f
       -0.038763925 0.027790703 0.047821533 0.6815431
000210 30 a6 a5 be eb 36 b6 bd 12 cd fa bc ee 12 80 3d
       -0.32353354 -0.088971935 -0.030615363 0.062536106
000220 34 85 88 be 26 90 49 be f3 0a f0 bd 4a 42 c7 be
       -0.26664126 -0.19683895 -0.117208384 -0.38917762
000230 51 1a 90 bd b3 bb af be 2f 0a 93 bd 56 32 ca bd
       -0.070362695 -0.3432289 -0.07179677 -0.09872882
000240 fa 55 b6 bd 46 dd 27 3e f7 e6 c8 be b8 92 84 bd
       -0.089031175 0.16393003 -0.39238712 -0.06473297
000250 59 45 08 3f 7e 50 2b 3f 6f ac f6 bd e8 79 45 3d
       0.53230816 0.66919696 -0.12044608 0.048211962
000260 76 29 95 3d 4a 6c cb 3e 70 4c 87 3e 74 de ce bd
       0.07283299 0.39731055 0.26425505 -0.10101023
000270 85 b9 39 bd 24 50 20 be 76 81 a9 bd 14 7b bd 3d
       -0.04534294 -0.15655571 -0.08276646 0.09251991
000280 0c fb b5 bd f7 13 6f bd 77 62 27 3d 3d b9 8c bc
       -0.08885774 -0.05836865 0.040865388 -0.017178172
000290 5f c8 24 3f b9 ec a3 be ba 7d 4f be 75 51 ed bd
       0.6436824 -0.32016543 -0.20262805 -0.11587802
0002a0 21 96 4b 3c 1e a4 5a 3d 22 5d 44 bf 31 e2 68 3d
       0.01242593 0.05337917 -0.7670461 0.056856338
0002b0 95 49 4f be 25 69 07 bf 9d 15 0c 3e 31 32 9c bf
       -0.20242913 -0.5289481 0.1368012 -1.2202817
0002c0 c4 3e a1 3e d9 a3 dc be 88 71 08 3d 76 76 67 3b
       0.314932 -0.43093756 0.033311397 0.003531841
0002d0 73 45 a6 3d 89 61 91 be b2 fe 92 3c d9 d1 d2 3e
       0.08118715 -0.28394726 0.017943714 0.41175726
0002e0 98 9d 80 3e df 06 24 3f 37 35 10 3f 6a 69 19 3e
       0.25120234 0.64072984 0.563312 0.14981619
0002f0 c8 e2 b1 be ba 80 99 3e 39 f0 eb be ff aa 0c 3d
       -0.34743333 0.29981023 -0.46081713 0.034342762
000300 38 27 b3 3d ce 8f 23 bf a7 bc 20 bd 37 11 b7 3c
       0.08747715 -0.63891304 -0.039242413 0.022347076
000310 ab 98 0f bf 61 a7 4e bf 53 3a 34 bf 35 30 2f bf
       -0.5609233 -0.8072415 -0.70401496 -0.68432933

classifier.bias f4 [2]
000000 b6 cc 28 be 4d 12 c0 3d
       -0.16484341 0.093784906
