old_paper/ckpt/simple_FC_100_3.pth (torch, 6607 bytes, 4 tensors)

features.1.weight f4 [100, 9]
-0.010979921 -0.3157636 0.18277046 0.17603913 0.39702582 -0.27936015 -0.1692795 -0.19544244
0.14355561 -0.03838858 0.25831994 -0.32210216 -0.22519414 -0.23219495 0.1930404 0.10521889
0.049261212 -0.024210721 0.02879107 -0.26237604 0.120848686 0.112439245 -0.45675966 0.13359961
-0.037932724 -0.13856837 -0.26433837 0.016397238 -0.19850354 0.20696256 -0.25137562 -0.14632508
-0.21610336 -0.11352226 -0.21808931 0.005354613 0.015996367 0.19263539 -0.13343656 0.2859935
-0.21672691 0.26930252 0.21634093 -0.016793132 0.1545206 -0.24794245 0.08087984 -0.1765953
0.14077553 0.4642378 0.27389982 0.21691194 -0.14837289 0.13877586 -0.13215563 -0.14638314
-0.10175133 -0.044075817 -0.12452815 0.05490884 0.2669535 -0.17677025 -0.15486138 0.299153
-0.28514206 0.050156474 0.17970744 -0.2894971 0.16819397 -0.2173839 0.0020479858 -0.16511115
0.0831466 0.048427314 -0.10693979 0.0023126304 -0.45647234 -0.10678479 -0.22979347 0.32831898
-0.039864928 -0.095372915 -0.007238984 0.028556615 -0.031044513 -0.02538839 -0.05126658 -0.00027355552
0.31385902 -0.23274748 -0.31017524 -0.19182953 -0.24046652 -0.3308668 0.17234673 0.02669987
0.29240194 -0.22667038 0.0040397644 0.023899108 0.08499384 -0.076408416 0.33042237 -0.26784933
-0.17467296 -0.25525665 0.26302555 -0.12354879 -0.14978918 -0.2304264 -0.14701311 0.11521435
-0.3385942 0.03535381 0.22769287 -0.049061447 0.30984852 0.13656917 -0.010702699 -0.015879989
-0.3261679 -0.21640238 -0.2885306 -0.22158603 -0.020290643 -0.15969443 -0.2664853 0.30548838
0.1292853 -0.007708341 -0.12483367 0.16361013 -0.0877994 -0.008703798 -0.04061711 0.2084988
-0.13344376 0.31295303 0.080875754 -0.0023709238 0.117066026 0.29267094 -0.28125954 -0.15638475
0.24549094 -0.10189593 0.32192156 0.13776591 -0.22438228 0.07271114 -0.20967159 -0.2352322
0.32813993 -0.1430533 0.17402378 -0.20998506 -0.29183182 0.19358744 -0.06632659 -0.2547952
0.11606082 0.121275276 0.111825705 -0.07968685 -0.2653651 -0.0709863 0.13815817 0.14057752
0.2599803 0.32886818 -0.102068305 0.25120404 -0.15341207 0.14562735 -0.020318985 0.106532164
-0.008567184 0.11330226 0.21928611 0.14507937 -0.08947134 -0.1241132 0.09488964 -0.18685445
0.028789163 -0.12669985 0.13086411 0.1966156 0.26693633 0.096182466 -0.035622567 0.29356256
-0.04505095 -0.20848814 0.29009035 0.3289024 -0.016647786 -0.08806555 0.043703645 -0.22410008
0.02841553 -0.0719215 -0.40801376 -0.20838885 0.26891908 -0.078045726 -0.18677685 0.10482931
-0.31193733 -0.096067354 0.19823757 -0.03142231 -0.12793839 0.059796542 -0.26809716 0.1649302
0.30624482 0.061653852 0.20110634 -0.27719566 0.43585297 0.09375915 -0.3092749 -0.19821016
-0.12085287 -0.061186522 -0.115413114 0.18479308 0.29993567 -0.32199487 0.13162792 0.24758306
-0.3282854 -0.30814427 -0.30619872 -0.14557251 0.011036843 -0.052365214 0.081644446 -0.32841703
-0.20332527 -0.001169771 -0.052780032 0.24693134 -0.020778418 0.21671173 0.12958264 0.024277566
-0.14338462 -0.045215398 0.114061445 -0.092404574 0.026841551 0.23719826 -0.10815787 0.27747908
00000000: 20e5 33bc c4ab a1be 2e28 3b3e 9a43 343e
00000010: f846 cb3e 4b08 8fbe 9b57 2dbe 1022 48be
00000020: 3e00 133e 583d 1dbd 8342 843e 93ea a4be
00000030: 4b99 66be 83c4 6dbe 62ac 453e 007d d73d
00000040: 20c6 493d 9055 c6bc 40db eb3c 2756 86be
00000050: 847f f73d 8c46 e63d 67dc e9be 56ce 083e
00000060: 585f 1bbd dee4 0dbe 5c57 87be 8053 863c
00000070: 8344 4bbe feed 533e 4eb4 80be 3ed6 15be
00000080: 334a 5dbe 5c7e e8bd ce52 5fbe c075 af3b
00000090: d00a 833c 3642 453e 98a3 08be bd6d 923e
000000a0: a9ed 5dbe 05e2 893e 7a88 5d3e c091 89bc
000000b0: a63a 1e3e a0e4 7dbe 54a4 a53d 66d5 34be
000000c0: 7627 103e 94b0 ed3e 993c 8c3e 2a1e 5e3e
000000d0: 10ef 17be 421b 0e3e ce53 07be 76e5 15be
000000e0: 0063 d0bd d888 34bd 9d08 ffbd 18e8 603d
000000f0: 21ae 883e 4303 35be fb93 1ebe 952a 993e
00000100: 24fe 91be e070 4d3d 3a05 383e f738 94be
00000110: 0a3b 2c3e e399 5ebe 8037 063b e612 29be
00000120: c448 aa3d b85b 463d 4003 dbbd 808f 173b
00000130: beb6 e9be fcb1 dabd fb4e 6bbe 6d19 a83e
00000140: 6849 23bd e052 c3bd 0035 edbb 90ef e93c
00000150: 1051 febc 50fb cfbc e8fc 51bd 006c 8fb9
00000160: 21b2 a03e 5b55 6ebe 4acf 9ebe f66e 44be
00000170: db3c 76be 6067 a9be a97b 303e b0b9 da3c
00000180: b5b5 953e 481c 68be 0060 843b 10c8 c33c
00000190: 4011 ae3d 047c 9cbd 1f2d a93e 8c23 89be
000001a0: 78dd 32be 00b1 82be 49ab 863e 2607 fdbd
000001b0: 5662 19be e6f4 6bbe 9b8a 16be 80f5 eb3d
000001c0: 385c adbe 28cf 103d 5228 693e a8f4 48bd
000001d0: 77a4 9e3e cad8 0b3e 605a 2fbc c016 82bc
000001e0: 7bff a6be 9698 5dbe 48ba 93be 73e7 62be
000001f0: 9038 a6bc f086 23be c370 88be f968 9c3e
00000200: 5e63 043e 4096 fcbb cca8 ffbd 6a89 273e
00000210: 2cd0 b3bd 609a 0ebc 205e 26bd b680 553e
00000220: 7ba5 08be 613b a03e 30a2 a53d 8061 1bbb
00000230: 50c0 ef3d f7d8 953e 4001 90be 5323 20be
00000240: fa61 7b3e d0ae d0bd e7d2 a43e 8212 0d3e
00000250: 78c4 65be 94e9 943d 26b4 56be b6e0 70be
00000260: f501 a83e 907c 12be 4a33 323e 5306 57be
00000270: fb6a 95be c93b 463e 3cd6 87bd 8474 82be
00000280: 4cb1 ed3d 2c5f f83d e004 e53d dc32 a3bd
00000290: efdd 87be 4461 91bd 5679 0d3e 8ef3 0f3e
000002a0: 231c 853e 6961 a83e 3009 d1bd d19d 803e
000002b0: 0e18 1dbe 561f 153e 0074 a6bc 892d da3d
000002c0: 605d 0cbc 040b e83d 8a8c 603e b08f 143e
000002d0: c03c b7bd 102f febd 8055 c23d c656 3fbe
000002e0: 40d7 eb3c 9bbd 01be 3e01 063e 9a55 493e
000002f0: e1ab 883e 50fb c43d f8e8 11bd d54d 963e
00000300: 5887 38bd ea7d 55be b986 943e e565 a83e
00000310: f060 88bc b65b b4bd 9802 333d 7e7a 65be
00000320: b0c7 e83c 944b 93bd 2ee7 d0be e363 55be
00000330: c3af 893e 70d6 9fbd 6e42 3fbe c0b0 d63d
00000340: 40b6 9fbe f6be c4bd cafe 4a3e aeb4 00bd
00000350: 4802 03be 38ed 743d 0844 89be 76e3 283e
00000360: 1fcc 9c3e c088 7c3d d2ee 4d3e 97ec 8dbe
00000370: 1f28 df3e cc04 c03d 4859 9ebe 9bf7 4abe
00000380: b681 f7bd b89e 7abd b65d ecbd 663a 3d3e
00000390: 2b91 993e 83dc a4be 78c9 063e 6a86 7d3e
000003a0: 0615 a8be 16c5 9dbe 14c6 9cbe f610 15be
000003b0: e0d3 343c e87c 56bd 3435 a73d 4726 a8be
000003c0: 8034 50be 0053 99ba e02f 58bd 92db 7c3e
000003d0: 8037 aabc aee9 5d3e 50b1 043e bfe1 c63c
000003e0: 6bd3 12be c833 39bd 0c99 e93d 9c3e bdbd
000003f0: d0e2 db3c 1ae4 723e e081 ddbd bd11 8e3e

features.1.bias f4 [100]
-0.02893137 0.06005375 0.27254644 -0.20091006 0.27925554 0.15738901 0.12329126 0.123145774
0.4268545 -0.18501024 0.06292694 0.20880882 0.06061894 -0.22282085 -0.13976574 -0.3215996
0.20675579 -0.10590913 -0.15261297 0.062264916 -0.07895741 0.1359505 0.14764208 -0.03330979
0.3593478 0.3218036 0.02238355 0.29032248 -0.11785099 0.12901288 -0.08801029 0.31958815
0.010996006 0.26696834 0.20525204 0.2059743 0.34592122 -0.18188241 -0.25695658 -0.022976877
-0.03171961 0.16335641 0.21208297 0.17090337 0.040880565 0.4356284 -0.017260078 0.54532164
0.2374505 0.3362889 0.13517033 0.2909502 0.12983607 -0.32800138 0.16645932 0.14822018
0.37469247 -0.299542 -0.15609285 0.12393785 0.098868296 -0.19570847 0.051176433 0.1360191
-0.27421042 -0.016245164 0.32599175 0.18898644 -0.049729258 -0.21005297 0.19898096 0.15767053
0.18700007 0.100380845 0.057318356 0.1601831 0.14725028 0.043960158 0.38683987 0.21994933
0.33964422 0.42600003 0.3272235 -0.027115852 -0.0844677 -0.016956454 -0.05221249 0.02016288
-0.32662246 0.24844031 0.3044322 -0.12775515 0.29896396 0.2873723 0.24296649 -0.07259834
0.11328612 -0.33192527 0.33870423 -0.21994111
00000000: 7b01 edbc ecfa 753d 358b 8b3e 5ebb 4dbe
00000010: 95fa 8e3e 962a 213e 2180 fc3d da33 fc3d
00000020: ac8c da3e 5373 3dbe d7df 803d fbd1 553e
00000030: 914b 783d 262b 64be c01e 0fbe b4a8 a4be
00000040: cab7 533e e3e6 d8bd 9346 1cbe 7f09 7f3d
00000050: 6cb4 a1bd 9c36 0b3e 7c2f 173e d96f 08bd
00000060: 6ffc b73e 71c3 a43e b55d b73c 26a5 943e
00000070: dc5b f1bd f41b 043e bd3e b4bd 0fa1 a33e
00000080: 9828 343c 13b0 883e 972d 523e edea 523e
00000090: 961c b13e 623f 3abe d08f 83be 013a bcbc
000000a0: 6cec 01bd e746 273e 472c 593e 4b01 2f3e
000000b0: 6172 273d b00a df3e 0265 8dbc 339a 0b3f
000000c0: 3926 733e 0f2e ac3e 176a 0a3e 6df7 943e
000000d0: bff3 043e ccef a7be 5074 2a3e 08c7 173e
000000e0: b1d7 bf3e 925d 99be ced6 1fbe 21d3 fd3d
000000f0: 767b ca3d cd67 48be 619e 513d 9748 0b3e
00000100: 4f65 8cbe 9414 85bc 64e8 a63e a985 413e
00000110: e8b0 4bbd 2018 57be aac1 4b3e 6274 213e
00000120: f27c 3f3e 7994 cd3d a7c6 6a3d 0a07 243e
00000130: c7c8 163e 910f 343d e00f c63e 663a 613e
00000140: d9e5 ad3e ad1c da3e d789 a73e 1022 debc
00000150: 67fd acbd 43e8 8abc c4dc 55bd a02c a53c
00000160: 0f3b a7be 2367 7e3e 8ade 9b3e 3fd2 02be
00000170: ce11 993e 7622 933e 35cc 783e 70ae 94bd
00000180: 8e02 e83d 1cf2 a9be a46a ad3e 3e38 61be

classifier.weight f4 [2, 100]
0.20307718 -0.16437156 -0.28236306 0.049254335 -0.16750146 0.24458863 -0.13487768 -0.23692206
-0.3639841 -0.032212213 0.11575819 -0.24020052 -0.19126222 0.04900012 -0.090277545 0.026683174
-0.2258314 0.060918547 0.09229804 0.08433899 -0.016533874 -0.23559982 -0.22003259 0.056920394
0.34624857 -0.23224267 -0.009975998 -0.013305965 0.033068396 -0.15485413 0.13064644 0.34415826
0.098301925 0.18813458 0.012027781 -0.32668087 0.2754077 0.029641096 0.012047626 -0.16287026
0.029575571 -0.24433208 -0.28545117 0.12638797 0.12732059 0.38358042 0.037377328 -0.51961887
0.1709137 -0.41713685 -0.3082296 -0.23479493 0.08093113 -0.088049464 0.11863462 -0.022205068
0.31724256 -0.09122261 0.09838132 0.19345403 0.03131335 0.117541745 0.13930492 0.0969315
-0.06148136 -0.07329466 0.17025551 -0.18642701 -0.09719812 -0.057929575 0.2015212 -0.099675156
-0.15188617 0.03443314 -0.15183023 0.06818242 0.132864 -0.012053528 0.38971716 0.14655852
0.24009521 0.39800745 0.21913387 -0.06825565 -0.04678809 0.033053886 0.041119635 -0.040072676
-0.015753135 -0.21367258 -0.3614958 -0.03387633 -0.051045906 0.062605634 0.06781723 -0.012907183
-0.20016855 -0.08688191 0.35061896 0.07473167 -0.1917408 0.09919883 0.37951997 -0.056928705
0.123433985 -0.31987983 0.075719535 0.17971772 0.36163116 -0.030664705 -0.05309961 0.16567084
0.13588598 0.016766742 -0.06099887 -0.013949409 0.16188021 0.020202015 0.08485692 -0.111865886
-0.097673714 0.077043936 0.2385756 -0.022378424 -0.2824231 0.21613409 -0.11239882 -0.047396887
-0.0024093837 0.118059784 -0.043305468 -0.34463948 -0.10323051 -0.30585504 0.093400866 0.30667502
-0.388957 -0.03329287 -0.02065377 0.036090393 0.14338316 0.121152006 0.104802765 -0.115452714
-0.188383 -0.37863705 0.0056028813 0.5414208 -0.09535278 0.38377285 0.20288226 0.3102028
-0.108188055 0.051835157 -0.2700161 -0.06245019 -0.34477046 -0.08241378 0.08844391 -0.2439617
-0.13757704 -0.08865828 -0.0026232237 -0.15261331 -0.09631622 0.030411756 -0.29777732 0.12642635
0.06464232 0.08912168 -0.31646258 0.16179574 0.1224724 -0.13198566 0.19685803 0.010780873
-0.14865112 -0.099592425 -0.32884425 -0.26107958 -0.41652933 -0.327328 -0.36621714 -0.07238315
0.13150579 -0.120350145 0.013062761 0.02860565 -0.024308167 0.35107538 0.25929627 0.034903575
-0.048218314 0.09531893 -0.009671048 -0.052261993 0.26242065 0.06582766 -0.21248025 0.09668959
00000000: 77f3 4f3e 0551 28be e491 90be eabe 493d
00000010: 8185 2bbe 7175 7a3e 601d 0abe b29b 72be
00000020: 205c babe f4f0 03bd a112 ed3d 20f7 75be
00000030: 3eda 43be 5ab4 483d 6fe3 b8bd ac96 da3c
00000040: 5940 67be ba85 793d c106 bd3d ecb9 ac3d
00000050: 0c72 87bc 1441 71be 3950 61be 5c25 693d
00000060: 7e47 b13e 06d1 6dbe 5e72 23bc 4301 5abc
00000070: ba72 073d 1592 1ebe 2ec8 053e 8335 b03e
00000080: 8552 c93d 5aa6 403e 2c10 453c b742 a7be
00000090: 3d02 8d3e e2d1 f23c 6863 453c 76c7 26be
000000a0: 7848 f23c 3032 7abe a826 92be d96b 013e
000000b0: 5460 023e a764 c43e f818 193d be05 05bf
000000c0: 0004 2f3e f692 d5be 45d0 9dbe 156e 70be
000000d0: 38bf a53d 4753 b4bd b5f6 f23d 67e7 b5bc
000000e0: 9e6d a23e ebd2 babd 257c c93d d018 463e
000000f0: 6d42 003d bab9 f03d f3a5 0e3e 0684 c63d
00000100: e1d3 7bbd 831b 96bd 7657 2e3e b9e6 3ebe
00000110: cf0f c7bd 9047 6dbd 935b 4e3e 7d22 ccbd
00000120: 0c88 1bbe c409 0d3d 6279 1bbe 3aa3 8b3d
00000130: 800d 083e 297c 45bc 0289 c73e 7013 163e
00000140: 85db 753e a2c7 cb3e a164 603e 9ec9 8bbd
00000150: dea4 3fbd 8363 073d 106d 283d 3f23 24bd
00000160: b80c 81bc fccc 5abe fa15 b9be e8c1 0abd
00000170: 8315 51bd 6237 803d c3e3 8a3d a678 53bc
00000180: fcf8 4cbe 25ef b1bd 5484 b33e eb0c 993d
00000190: b357 44be c228 cb3d 7150 c23e 132e 69bd
000001a0: f5ca fc3d 4ac7 a3be d812 9b3d ec07 383e
000001b0: b827 b93e 8c34 fbbc fa7e 59bd 9ea5 293e
000001c0: b225 0b3e 685a 893c f3d9 79bd 108c 64bc
000001d0: edc3 253e b27e a53c 77c9 ad3d f119 e5bd
000001e0: 2809 c8bd 36c9 9d3d 294d 743e f552 b7bc
000001f0: c399 90be 4152 5d3e 5a31 e6bd 3d23 42bd
00000200: c0e6 1dbb 54c9 f13d 1361 31bd 9674 b0be
00000210: 856a d3bd 0899 9cbe f448 bf3d 8204 9d3e
00000220: 5f25 c7be 1b5e 08bd 1832 a9bc 85d3 133d
00000230: 09d3 123e 8b1e f83d d5a2 d63d 7972 ecbd
00000240: 79e7 40be b7dc c1be 6098 b73b 8e9a 0a3f
00000250: 5148 c3bd e07d c43e 5ec0 4f3e e7d2 9e3e
00000260: b391 ddbd 1a51 543d 8d3f 8abe c5cb 7fbd
00000270: c185 b0be 8ec8 a8bd 1522 b53d 19d1 79be
00000280: ffe0 0cbe 7992 b5bd 64ea 2bbb aa46 1cbe
00000290: 7041 c5bd 1322 f93c 4576 98be e975 013e
000002a0: 3163 843d 6d85 b63d 6207 a2be c8ad 253e
000002b0: cfd2 fa3d 4027 07be 2795 493e 42a2 303c
000002c0: 0038 18be 1df7 cbbd 465e a8be 39ac 85be
000002d0: 5543 d5be 8997 a7be d080 bbbe 9e3d 94bd
000002e0: 74a9 063e 237a f6bd 3105 563c 6556 ea3c
000002f0: ec21 c7bc 27c0 b33e 7bc2 843e 0df7 0e3d
00000300: 9180 45bd 9236 c33d 5173 1ebc ac10 56bd
00000310: 005c 863e a7d0 863d 6c94 59be 3105 c63d

classifier.bias f4 [2]
-0.15200134 0.03216489
00000000: 3da6 1bbe 55bf 033d
