old_paper/ckpt/simple_FC_100_1.pth (torch, 3407 bytes, 4 tensors)

features.1.weight f4 [100, 1]
0	0xbebdc1aa	-0.37061816
1	0x3f429799	0.7601257
2	0x3ec24cec	0.37949312
3	0x3f45e4b2	0.77302086
4	0xbf462ea4	-0.7741492
5	0xbe1133a9	-0.14179863
6	0x3e88c09e	0.26709455
7	0x3ece1d19	0.40256575
8	0xbdaa2160	-0.08307147
9	0x3eb409d4	0.35163748
10	0xbe89d7f5	-0.26922575
11	0x3f79e7eb	0.97619504
12	0xbf30eb6d	-0.6910923
13	0xbedfdb27	-0.43721887
14	0xbf537b17	-0.82609695
15	0x3dd82f3e	0.10555886
16	0x3f30fc42	0.69134915
17	0xbf4e0b80	-0.804863
18	0x3ecc7270	0.3993106
19	0x3f18edc8	0.59737825
20	0xbebb8cfc	-0.36631
21	0x3f669d80	0.90084076
22	0x3f1a8d9c	0.6037233
23	0xbf1ddd86	-0.6166614
24	0x3f217aaa	0.63077796
25	0x3f479b8d	0.77971727
26	0x3f321c69	0.695746
27	0x3e3362eb	0.17518203
28	0x3e04314d	0.12909432
29	0x3f49aa8d	0.78775865
30	0xbf4c6466	-0.79840696
31	0xbf019d20	-0.5063038
32	0x3eb7d1bf	0.3590221
33	0xbe018751	-0.12649275
34	0xbeae1318	-0.33998942
35	0x3f36c7d0	0.7139864
36	0xbf084a44	-0.5323832
37	0x3e242978	0.16031444
38	0xbec7caf0	-0.39022017
39	0x3b9a9900	0.004717946
40	0x3e19f808	0.15036023
41	0xbf496180	-0.786644
42	0x3f2d1e9e	0.67624843
43	0x3f11a9be	0.5689963
44	0xbe17d498	-0.14827192
45	0xbf61db73	-0.8822548
46	0x3f60dc12	0.878358
47	0xbf336cf0	-0.700881
48	0x3f312b4f	0.6920671
49	0xbec4c44b	-0.3843101
50	0x3f73ec64	0.9528258
51	0x3e34e9d5	0.17667325
52	0x3f6e53f2	0.9309684
53	0x3eeb25bc	0.45927227
54	0xbd63d280	-0.05562067
55	0xbcab5fc0	-0.02091968
56	0x3f1e0f64	0.61742234
57	0xbdfe09c0	-0.124042034
58	0x3f672d8d	0.9030388
59	0xbe9f0446	-0.31057948
60	0xbef2c654	-0.47416937
61	0x3d38cb07	0.045115497
62	0x3e35b630	0.1774528
63	0x3f62889c	0.884897
64	0xbf754f06	-0.95823705
65	0x3eec4cdc	0.4615239
66	0x3d977640	0.07395601
67	0x3f6a2210	0.91458225
68	0xbf4db13a	-0.8034855
69	0xbf019ccb	-0.5062987
70	0xbeaa86e4	-0.33306038
71	0x3db0f1c0	0.0863986
72	0x3f0feb3c	0.56218314
73	0xbf40e3dd	-0.7534769
74	0x3e7805e3	0.24220996
75	0x3e16da20	0.14731646
76	0x3f660a5c	0.8985956
77	0xbf6538e4	-0.89539933
78	0x3f6702a0	0.9023838
79	0xbf673bb9	-0.90325505
80	0x3e470e2b	0.19438998
81	0x3e29fb07	0.16599666
82	0x3f11839f	0.5684146
83	0x3e5ea9c7	0.21744452
84	0x3ec6b843	0.38812456
85	0xbebe3769	-0.3715165
86	0xbe42b277	-0.19013391
87	0xbf4f524e	-0.8098496
88	0x3f3a9570	0.72884274
89	0x3eb69c94	0.35666335
90	0x3f81d33e	1.0142591
91	0x3f63da5e	0.89005077
92	0xbeddf672	-0.43352085
93	0xbf5e8f3b	-0.869373
94	0x3e9bf7a4	0.30462372
95	0x3e88c0bc	0.26709545
96	0xbf2df66c	-0.67954135
97	0x3f297959	0.66200787
98	0xbe9e3f74	-0.30907786
99	0xbf2c8e04	-0.674042

features.1.bias f4 [100]
0	0x3e539023	0.20660453
1	0x3e81d76f	0.25359675
2	0xbeb5d80c	-0.35516393
3	0x3ed1a02b	0.4094251
4	0xbf5d6d2e	-0.8649472
5	0x3f205b18	0.62639
6	0xbe6c0bc6	-0.23051366
7	0x3f164901	0.58705145
8	0x3f0b3ddd	0.5439127
9	0x3ecd35f0	0.40080214
10	0xbd2fb425	-0.04289641
11	0x3f454d71	0.7707129
12	0xbe97b3bf	-0.29629323
13	0x3f4158c0	0.75526047
14	0x3f0f7df9	0.56051594
15	0x3f2fd90c	0.6869056
16	0xbde208ed	-0.11036859
17	0x3e75eb07	0.24015437
18	0x3e913300	0.28359222
19	0xbb80c52e	-0.0039297557
20	0xbf129c3c	-0.57269645
21	0xbf028c8e	-0.5099572
22	0xbf652eb6	-0.895244
23	0xbf22543a	-0.6340977
24	0xbf2d6c40	-0.677433
25	0x3c836b3c	0.016042344
26	0x3f37f8e7	0.7186417
27	0x3f7fb630	0.9988737
28	0x3f5d2e3e	0.86398685
29	0xbe9b3c96	-0.3031966
30	0xbecf8a5f	-0.40535256
31	0xbf717a36	-0.94327104
32	0x3e50d11b	0.20392267
33	0xbbd856d0	-0.0066021457
34	0xbf2d56cc	-0.67710567
35	0xbe198f11	-0.14995982
36	0xbf768a30	-0.9630461
37	0xbf466390	-0.7749567
38	0xbef2090c	-0.47272527
39	0xbe9dfc2c	-0.30856454
40	0xbe8cae6c	-0.27476823
41	0x3f7bcaea	0.983565
42	0xbf725b4c	-0.9467056
43	0xbf3cba96	-0.7372221
44	0xbe643e90	-0.2228949
45	0x3db3d7a3	0.08781364
46	0x3d289932	0.041161723
47	0x3efce93f	0.49396703
48	0x3f4c1d47	0.79732174
49	0xbec8d0e9	-0.39221886
50	0x3f43b350	0.76445484
51	0x3eeb46dc	0.459525
52	0xbca358a4	-0.019939728
53	0xbef59d9c	-0.4797181
54	0xbf6c31c6	-0.9226345
55	0xbf608b78	-0.8771281
56	0x3ebf02b8	0.37306762
57	0xbf2aafc2	-0.66674435
58	0x3e8cb756	0.27483624
59	0xbd5124da	-0.051060535
60	0xbf7b0c06	-0.9806522
61	0x3f737014	0.9509289
62	0xbf5407e0	-0.82824516
63	0xbf6accc8	-0.9171872
64	0x3f2a0196	0.6640867
65	0xbf749b22	-0.95549214
66	0xbf6f6fe2	-0.93530095
67	0xbf4444ee	-0.7666768
68	0x3ea8a55a	0.32938653
69	0x3c65133f	0.013981639
70	0xbf41f83a	-0.7576939
71	0xbf332026	-0.6997093
72	0xbf7ed284	-0.9953997
73	0x3f2cbbd5	0.6747411
74	0x3eea8431	0.4580398
75	0xbede4ea8	-0.43419385
76	0xbf096ec8	-0.53684664
77	0x3df3d9b9	0.11906762
78	0x3e72c240	0.23706913
79	0x3f04fbe1	0.51946837
80	0x3f7deaae	0.9918622
81	0x3e1f3f4f	0.15551494
82	0x3e4b5397	0.19856106
83	0x3ee2badf	0.44283196
84	0x3e4fcc1d	0.20292707
85	0x3f00216b	0.5005099
86	0x3f471f05	0.7778171
87	0xbf624d50	-0.8839922
88	0xbf5e1a5e	-0.86758983
89	0x3ed5d5b1	0.41764596
90	0x3f80a373	1.0049881
91	0x3f79f1ad	0.9763439
92	0x3e586054	0.21130496
93	0xbe9788ef	-0.2959666
94	0xbf769be8	-0.96331644
95	0xbf45b942	-0.77235806
96	0xbf5cec76	-0.8629831
97	0xbe222694	-0.15835029
98	0xbf221138	-0.63307524
99	0xbf309600	-0.6897888

classifier.weight f4 [2, 100]
0	0xbdfebe53	-0.12438645
1	0x3db5efa1	0.08883596
2	0xbd975bb8	-0.07390541
3	0x3e7512f7	0.23933016
4	0x3c8c4348	0.017121926
5	0xbe13dc73	-0.14439563
6	0xbb5b5e68	-0.0033473019
7	0x3e2ca18d	0.16858502
8	0x3b8c1ed8	0.004276138
9	0x3dd0665d	0.10175774
10	0xbdc9f7f5	-0.09861747
11	0x3ec2ce3b	0.38047966
12	0xbd604530	-0.054753482
13	0xbe9d9fd8	-0.30786014
14	0xbea11d97	-0.31467888
15	0xbd5ec001	-0.054382328
16	0x3ccd0292	0.02502564
17	0xbe3ce167	-0.18445359
18	0x3e0ab25e	0.13544604
19	0x3d944446	0.072395846
20	0x3d8fc943	0.070208095
21	0x3d0ed7f3	0.034873914
22	0x3d94c3df	0.07263922
23	0xbbc14cd0	-0.0058990493
24	0x3d3a2f52	0.045455284
25	0x3de2b310	0.1106931
26	0x3ea42e36	0.32066506
27	0xbd19f05d	-0.037582744
28	0x3d4520c4	0.04812695
29	0x3b13406f	0.0022468825
30	0xbdbb7659	-0.091534324
31	0x3d3951ea	0.045244135
32	0x3c246614	0.010034103
33	0x3c764a30	0.015032336
34	0xbcf71d14	-0.030165233
35	0x3b49a296	0.0030767075
36	0xbd471fc0	-0.048614264
37	0xbc8328d8	-0.016010687
38	0x3dc80ebb	0.097684346
39	0x3d86ff3b	0.0659165
40	0xbd8d1aa2	-0.068898454
41	0xbeef8155	-0.4677836
42	0xbdb382c3	-0.08765175
43	0x3ce75cfc	0.02824258
44	0xbd0cd17c	-0.034379467
45	0xbea04628	-0.31303525
46	0x3e597d81	0.21239282
47	0xbe97f7ba	-0.29681188
48	0x3e888df7	0.2667081
49	0x3c75cfa6	0.0150031205
50	0x3ebb2081	0.36548236
51	0x3dd63eb2	0.10461177
52	0x3e67b3b8	0.22627151
53	0x3d413076	0.047165357
54	0xbdb80e03	-0.089870475
55	0xbdb87678	-0.09006971
56	0x3e880bd0	0.26571512
57	0xbd508d53	-0.050916027
58	0x3e5791ff	0.21051787
59	0xbdec2e6b	-0.11532291
60	0x3d3807c2	0.044929273
61	0x3b4e2e45	0.0031460684
62	0xbdca65ea	-0.0988272
63	0xbd05f944	-0.03270842
64	0xbeb542b8	-0.35402465
65	0xbd955912	-0.072923794
66	0xbbcf4850	-0.006325759
67	0x3d61b47d	0.055103768
68	0xbe9c25d1	-0.30497602
69	0xbdf63696	-0.1202213
70	0xbb63f9a0	-0.003478624
71	0xbdade687	-0.08491235
72	0xbd8923a8	-0.06696254
73	0xbea786da	-0.3272007
74	0x3d5513bc	0.052020773
75	0x3d927c35	0.07152597
76	0x3e11af34	0.14226991
77	0xbea1e736	-0.31621712
78	0x3e85053b	0.25980553
79	0xbed81544	-0.42203724
80	0x3c7ecc11	0.015551583
81	0x3da477d7	0.0803067
82	0x3e541e10	0.20714593
83	0x3aa0fe2b	0.0012282779
84	0x3da30c26	0.079613015
85	0xbe808dc7	-0.25108168
86	0xbe52309a	-0.20526353
87	0xbd05f7aa	-0.032706894
88	0xbd870996	-0.06593625
89	0x3d9647de	0.07337926
90	0x3ed320f0	0.41236067
91	0x3eaef5b1	0.34171823
92	0xbde3ecd6	-0.11129157
93	0xbe0a2ec1	-0.13494398
94	0xbcd321cc	-0.025772952
95	0xbd8b03a0	-0.06787801
96	0x3d933501	0.07187844
97	0x3d80b62a	0.06284745
98	0xbd27703a	-0.040878512
99	0xbbebedd0	-0.0071999803
100	0x3df1a35c	0.117987365
101	0xbe8443ab	-0.25832877
102	0x3d605187	0.05476525
103	0xbe976f64	-0.29577172
104	0x3da6f141	0.08151484
105	0x3e1dddcc	0.1541664
106	0xbd06b468	-0.032886893
107	0xbe052614	-0.13002807
108	0x3e0091c3	0.12555604
109	0xbe00423f	-0.12525271
110	0x3de08b84	0.109641105
111	0xbeaa0e01	-0.3321381
112	0x3d3e1aba	0.046412207
113	0x3e558abc	0.20853704
114	0x3e92e51c	0.28690422
115	0x3d1c4a99	0.03815708
116	0xbc8a6fbe	-0.016898986
117	0x3e926470	0.28592253
118	0xbe48dcf7	-0.19615541
119	0xbcd45d7f	-0.025923489
120	0xbd21651d	-0.03940307
121	0x3c74abe6	0.014933562
122	0x3daef1cf	0.08542215
123	0xbc3edd98	-0.011649512
124	0xbdc69460	-0.09696269
125	0xbe30e4e8	-0.17274821
126	0xbe5bd4e8	-0.21467936
127	0xbb30da59	-0.0026985614
128	0x3db5ad8b	0.08870991
129	0xbdc0fc02	-0.09423067
130	0x3d82f6b3	0.063947104
131	0xbd28c5d7	-0.0412043
132	0xbd931249	-0.07181222
133	0xbce0ec78	-0.027456507
134	0x3d7ff776	0.062491857
135	0xbe4c0e95	-0.19927438
136	0xbd174396	-0.03692969
137	0xbd8b3bdd	-0.067985274
138	0x3db5056b	0.08838924
139	0xba9a3000	-0.0011763573
140	0x3b1b6400	0.0023710728
141	0x3eba2f9f	0.36364457
142	0xbd96f618	-0.073711574
143	0x3c6f23b0	0.014595911
144	0x3d1190e6	0.035538577
145	0x3e1fec3d	0.15617462
146	0xbe526877	-0.20547663
147	0x3e836514	0.25663054
148	0xbe6706a8	-0.22561133
149	0xbb8d242c	-0.0043072905
150	0xbe91c7de	-0.284728
151	0xbc0bc92f	-0.008531853
152	0xbddcbfb9	-0.10778756
153	0x3cf0b7e4	0.02938456
154	0x3dafff6f	0.08593642
155	0xbc4cad68	-0.012492515
156	0xbe133207	-0.14374553
157	0xbd467010	-0.048446715
158	0xbe994b93	-0.2994047
159	0x3e0f598f	0.13999008
160	0xbd5a5f60	-0.053313613
161	0x3dc56ecd	0.09640274
162	0xbd2158e3	-0.03939141
163	0x3db9769b	0.09055825
164	0x3efe77f5	0.49700895
165	0x3d810f6b	0.06301769
166	0xbd96e7a0	-0.07368398
167	0xbd2e0593	-0.042485785
168	0x3e60f296	0.21967539
169	0x3d6c7a84	0.057734028
170	0xbd9a47ea	-0.07533248
171	0xbc77b4d0	-0.015118793
172	0xbd98f6e3	-0.07468965
173	0x3edff8cb	0.437445
174	0xbda0cf28	-0.07852012
175	0x3d7970e2	0.06089867
176	0xbc0ffc00	-0.008788109
177	0x3e681317	0.22663532
178	0xbe784008	-0.24243176
179	0x3ed3551d	0.41275874
180	0x3d3b3ae7	0.04571047
181	0xbe0e9c0f	-0.13926719
182	0xbdf2cf76	-0.11855976
183	0xbdaf9e62	-0.08575131
184	0xbce3441f	-0.027742444
185	0x3e75e89f	0.24014519
186	0x3da55da2	0.080745
187	0x3d241be2	0.040065654
188	0x3d40456e	0.046941213
189	0xbe2d3be7	-0.16917382
190	0xbed135a2	-0.4086123
191	0xbeb6102c	-0.35559213
192	0x3e4c3f7b	0.19946091
193	0x3e04c587	0.12965976
194	0xbd390760	-0.04517305
195	0x3d3aff5a	0.04565368
196	0x3d88f233	0.06686821
197	0xbe039266	-0.12848815
198	0x3c388110	0.01126124
199	0x3daf0cf1	0.0854739

classifier.bias f4 [2]
0	0xbdea40cc	-0.1143814
1	0x3e14023b	0.14453976
