old_paper/ckpt/simple_Conv_100_23.pth (torch, 214625 bytes, 4 tensors)

features.0.weight f4 [100, 1, 23, 23]
000000 64 c6 0e bd 53 a0 66 bd a6 87 5b bd 6c b9 84 bd
       -0.03485717 -0.05630524 -0.05359616 -0.06480679
000010 2c e9 1c bd 6e 8c a0 bd 8e 10 a8 bd 36 80 1d bd
       -0.038308308 -0.07839285 -0.082062826 -0.03845235
000020 0d 9b 1b bd f6 9d ab bd d4 30 b0 bd 4d 22 03 bd
       -0.037989665 -0.08379738 -0.08603063 -0.032015134
000030 b5 b2 87 bd f7 49 28 bc 3a e5 51 bd b0 26 84 bd
       -0.066258825 -0.010271541 -0.051243998 -0.064526916
000040 b4 50 91 bd 48 98 9e bd 76 fd 88 bd 43 1a 47 bc
       -0.07095471 -0.07743889 -0.06688969 -0.012152257
000050 26 f5 9c bc 5c d7 8b bd 9c d3 b1 bc 55 62 b0 bd
       -0.019159865 -0.06828186 -0.021707349 -0.08612505
000060 bb be 9b bd 58 d7 36 bc 92 a5 40 bd d9 5c 6d bd
       -0.07604738 -0.01115974 -0.0470329 -0.057949875
000070 8d 40 74 bd aa f9 aa bd d6 81 39 bd 0e 78 e9 bb
       -0.059631873 -0.08348401 -0.045289837 -0.0071249073
000080 c3 fe 88 bd ed 9f 93 bd a4 f9 86 bc aa 2c 83 bd
       -0.06689217 -0.07208238 -0.01647646 -0.06405003
000090 c4 01 a4 bd 9c ac b1 bc d5 dc ad bd 2e 04 00 bc
       -0.08008149 -0.021688752 -0.08489386 -0.0078134965
0000a0 8a 8b 95 bd 87 07 6d bd eb ab 51 bc f9 75 01 bd
       -0.073020056 -0.057868507 -0.012797336 -0.031606648
0000b0 72 10 b0 bd a9 7b ae bd e0 1c 0d bd ef 10 6c bd
       -0.08596887 -0.0851968 -0.034451365 -0.057633337
0000c0 e8 83 fa bc 03 91 23 bd 75 74 af bc 55 59 bc bc
       -0.030580476 -0.039933216 -0.021417836 -0.022991816
0000d0 f7 a5 94 bc 1c 6e b0 bd 51 36 14 bd 6a a9 14 bc
       -0.018145544 -0.08614752 -0.036184613 -0.009073595
0000e0 74 62 a1 bd 40 30 fc bc 3a 6f 92 bd 8a a7 5d bd
       -0.078801066 -0.030784726 -0.07150121 -0.054114856
0000f0 bc 7c b5 bc e0 f8 8a bc 35 28 7d bc 82 f0 e4 bc
       -0.022154205 -0.016964376 -0.015451481 -0.027946714
000100 23 9e 7f bc 3e 7f 8a bd d1 b7 19 bd 9f 53 29 bc
       -0.015601668 -0.06762551 -0.037528817 -0.010334878
000110 4f 14 a6 bd 4e 81 a8 bd 2f b7 8d bc bb 26 5a bc
       -0.08109342 -0.08227788 -0.017299263 -0.013314898
000120 08 a4 b1 bc 30 84 bf bc 08 0b 4a bc 3e 11 44 bd
       -0.021684662 -0.023378462 -0.012331732 -0.047868006
000130 f6 23 ae bd 0e 13 80 bc 93 81 3d bd 02 35 40 bd
       -0.08502953 -0.015634086 -0.04626615 -0.046925552
000140 f4 ec bf bc c0 a6 4d bc 7b f7 9e bd 39 dd 2b bd
       -0.023428418 -0.012551963 -0.07762047 -0.04195902
000150 87 f5 85 bd 35 54 7e bd 51 6a b0 bd cd 96 44 bd
       -0.06540971 -0.062092025 -0.08614028 -0.047995377
000160 3b f9 19 bc ed 1a 45 bd c1 e2 85 bd 59 57 af bd
       -0.0093978 -0.04812138 -0.065373905 -0.08561582
000170 90 17 ad bd 24 a6 8d bd 3b 2e 47 bc f7 28 e4 bc
       -0.0845176 -0.069164544 -0.012157018 -0.027851565
000180 0d f2 ba bc 80 99 aa bc d0 49 b0 bd 3e b8 ae bd
       -0.022820497 -0.020825148 -0.086078286 -0.08531235
000190 19 5f aa bd bf 76 79 bd 6e 26 8a bd 40 57 92 bd
       -0.0831892 -0.06090426 -0.06745611 -0.07145548
0001a0 30 cb f4 bc 23 66 8a bd 87 24 56 bd 34 a0 c3 bc
       -0.029882044 -0.06757762 -0.05228093 -0.023880102
0001b0 e3 59 1d bd 6a d8 42 bd 6e 42 67 bd 43 91 af bd
       -0.0384158 -0.04756967 -0.056459837 -0.08572628
0001c0 79 f5 6a bd 59 9e 7a bd b7 83 a8 bd 67 e5 a3 bd
       -0.057363007 -0.06118617 -0.082282476 -0.080027394
0001d0 b0 eb 03 bd f1 bd aa bd 2b 37 67 bd de 53 98 bd
       -0.03220719 -0.0833701 -0.056449097 -0.074378714
0001e0 9e 26 b0 bd 40 d4 b3 bb 31 8b 18 bd 3f 65 63 bd
       -0.08601116 -0.0054879487 -0.03724212 -0.055516478
0001f0 5b 63 8a bd f6 49 50 bd 2c 64 04 bd 11 c4 77 bd
       -0.06757232 -0.050851785 -0.032322094 -0.060489718
000200 b3 41 b0 bd 73 4d 6d bd a4 51 67 bd 41 2e 6b bd
       -0.08606281 -0.05793519 -0.056474343 -0.057417158
000210 2f 9a 8d bd 9a c5 67 bc f2 9a 0d bd 0a 0f ac bd
       -0.06914174 -0.014146233 -0.034571595 -0.08401306
000220 c1 b7 a0 bd 3e a4 9a bd f8 5d b0 bd c4 2b 9c bd
       -0.07847548 -0.07550858 -0.08611673 -0.07625535
000230 7b 4f 75 bd 2c 5b 9d bd 80 d2 a0 bd e1 a4 35 bd
       -0.05989025 -0.07683405 -0.0785265 -0.044346694
000240 39 ac 91 bd ca 07 31 bd ae 06 a5 bd 96 0c e5 bc
       -0.07112927 -0.04322032 -0.08057915 -0.027960103
000250 57 40 b6 bc db 48 97 bd 27 15 6e bd ca 95 95 bd
       -0.022247477 -0.07386943 -0.05812564 -0.073039606
000260 45 1c ab bd 79 d6 a7 bc bc 9a 56 bd 5b 30 91 bd
       -0.08355001 -0.02048801 -0.05239366 -0.07089301
000270 d9 0f 63 bd c8 89 ef bc ba b6 a6 bd 49 94 92 bc
       -0.055435035 -0.029240504 -0.08140321 -0.017892973
000280 c8 1f be bc 8a 41 d4 bc 6a b3 fa bc 1e 64 51 bd
       -0.023208514 -0.025910158 -0.03060313 -0.05112087
000290 33 25 1b bc eb 55 8a bd a3 63 91 bd 8c a9 54 bc
       -0.009469318 -0.06754669 -0.07099082 -0.012979876
0002a0 32 ae d0 bb b1 ee 70 bd 82 b0 3f bd 8c 8a 95 bd
       -0.006368422 -0.058821384 -0.04679919 -0.07301816
0002b0 c4 d3 42 bd 6f 6e a3 bc 46 c4 06 bc ff 36 9e bb
       -0.047565237 -0.01995012 -0.008225506 -0.0048283334
0002c0 42 7e 2a bd 55 b2 29 bd 47 4c 28 bc 24 02 0f bd
       -0.041624315 -0.041429836 -0.010272092 -0.03491415
0002d0 31 b8 a6 bc 07 09 0b bd b7 da 9f bd ea eb 85 bd
       -0.020351501 -0.033944156 -0.078053884 -0.06539138
0002e0 2f e7 6f bd 19 49 61 bd e9 bd 79 bd 86 48 89 bd
       -0.058570083 -0.055001352 -0.060972128 -0.06703286
0002f0 49 bf 6a bd 73 7d 9d bd 4c 50 b0 bd 15 66 aa bd
       -0.05731133 -0.07689943 -0.086090654 -0.08320252
000300 bd 5b a2 bd d2 42 58 bd 7b 28 a4 bc 2a 88 a6 bd
       -0.07927654 -0.0527981 -0.020038834 -0.0813144
000310 ba ca 23 bd 33 fc 4f bc ce db 8b bd c4 84 a3 bd
       -0.039988257 -0.012694406 -0.06829034 -0.079843074
000320 b0 ad c3 bc 75 e7 6e bd 42 a0 53 bd 0b be 77 bd
       -0.023886532 -0.058326203 -0.051666506 -0.060483973
000330 51 8e d6 bc e5 6a a6 bd 51 26 62 bd ef 1f 02 bc
       -0.026190909 -0.08125857 -0.055212323 -0.007942184
000340 88 f3 9c bd 78 51 95 bd 8f 92 65 bd 06 39 a8 bd
       -0.076636374 -0.072909296 -0.056047972 -0.08214001
000350 81 f5 98 bd 8f c9 b6 bc eb ed 2a bc bc b8 98 bd
       -0.07468701 -0.022312908 -0.010432701 -0.0745711
000360 02 fd d7 bb 2b 57 a5 bd f8 fd 4a bd 7a b9 c5 bb
       -0.00659144 -0.080732666 -0.04955861 -0.0060340734
000370 90 c5 e2 bc c1 f8 95 bd 26 2e fe bc ed b7 77 bd
       -0.027682096 -0.07322837 -0.031027865 -0.06047814
000380 08 f7 c3 bc 44 1b 19 bd ff d1 7f bd 9d b7 93 bd
       -0.023921505 -0.03737952 -0.062456127 -0.07212756
000390 90 90 95 bd 7a 4b a4 bd 20 55 84 bd bc 95 57 bc
       -0.07302964 -0.080222085 -0.06461549 -0.013158258
0003a0 4f de 96 bd d9 a7 64 bd 1e e0 12 bd 01 8e 21 bd
       -0.07366621 -0.055824134 -0.035858266 -0.039442066
0003b0 31 3d 81 bd de a8 ca bc 48 a2 8a bd bd df 83 bd
       -0.063104995 -0.024738725 -0.06769234 -0.06439159
0003c0 5c 39 a0 bd 33 7e 6d bd ee b3 fd bc 2f 07 82 bc
       -0.078234404 -0.05798168 -0.030969586 -0.015872566
0003d0 ee b2 d0 bc 0b 16 48 bc b6 ab e8 bc 98 3c 36 bc
       -0.025475945 -0.012212287 -0.02840219 -0.011122845
0003e0 f0 cf 34 bd 92 ff 14 bc 85 62 71 bd b3 72 21 bc
       -0.044143617 -0.009094136 -0.058931846 -0.009854007
0003f0 b1 98 bb bc a5 e0 68 bd 05 c9 a8 bd 27 05 a6 bc
       -0.022899957 -0.056854863 -0.082414664 -0.020266129

features.0.bias f4 [100]
000000 de fd 20 3e c2 61 29 bd c0 74 e2 3c 5b 3d 3a bc
       0.15721843 -0.041352995 0.027643561 -0.011367167
000010 26 02 fc bc b4 62 f2 bc c0 6f 0c 3d ff 74 e0 bc
       -0.030762743 -0.029588081 0.03428626 -0.027399538
000020 20 bd e3 3a 52 ff b7 bb 55 9f d7 bc b2 7d 09 3d
       0.0017375089 -0.0056151533 -0.026321093 0.033567138
000030 ba df d7 bc e1 8a 63 3e df c8 0d 3d f8 e6 82 bb
       -0.026351798 0.22220947 0.034615394 -0.003994819
000040 99 2a de bc 60 d6 64 ba 05 78 54 3c f8 62 f1 3c
       -0.027119922 -0.0008729454 0.012968068 0.029466137
000050 de b4 1f bc a2 98 d7 3c 9b 56 c4 bc 80 78 37 ba
       -0.009747712 0.026317898 -0.023967078 -0.0006998852
000060 18 f7 17 bd ff b1 b9 bc 29 57 17 3d aa d2 c6 bc
       -0.03710088 -0.022667883 0.036948357 -0.024270374
000070 24 7b 3b bc e1 30 31 3e 03 20 91 3d de 62 10 3d
       -0.011442933 0.17303802 0.07086184 0.035250537
000080 54 75 14 3d 20 bc 28 3b be 5a 8e bc 10 f7 d6 3a
       0.036244705 0.0025746897 -0.017377254 0.0016400535
000090 b8 88 e0 bb 45 cf fc bc 94 7c f1 bc 38 e9 0d bd
       -0.0068522356 -0.030860553 -0.029478349 -0.034646243
0000a0 f3 43 31 3d 3f e2 14 bd 35 bd 7b bc 18 d7 74 bc
       0.043277692 -0.036348578 -0.015364935 -0.0149438605
0000b0 a8 20 4a bc 80 cd ef bc f8 a6 8a bc 03 78 0a bd
       -0.012336887 -0.029272795 -0.01692532 -0.03380586
0000c0 c9 40 a9 3e 83 10 1d bd 47 8f 45 3e 04 a9 da ba
       0.3305724 -0.038345825 0.19292937 -0.0016682451
0000d0 67 65 42 3e 48 c9 c1 3c eb 84 00 bd c7 7c e2 3c
       0.18983994 0.023655549 -0.03137676 0.02764739
0000e0 30 e7 6f bb 23 cb e6 bc dc 0a 93 bc 97 d6 e6 3c
       -0.0036606304 -0.028173035 -0.017949514 0.028178496
0000f0 94 7c 18 3d 30 bb c6 3b 00 8d 3f 3a 08 28 a4 3b
       0.037228182 0.006064795 0.00073070824 0.005009655
000100 8d fa c0 bc 66 f2 85 3d b8 f3 15 3d f2 79 c4 3e
       -0.023556972 0.065403745 0.03660938 0.38374287
000110 20 d6 98 3e c0 11 3e bc 72 f5 cc bc c4 88 04 3d
       0.29850864 -0.011600912 -0.025019381 0.032356992
000120 c0 ee 7a bc 0e 48 a0 3e 74 00 9b bc 44 82 1c bd
       -0.0153157115 0.31304973 -0.018921115 -0.03821017
000130 ea fc 19 3d a1 04 d3 bc 36 87 78 3d 88 0e 7e 3c
       0.037594713 -0.025759043 0.060675822 0.015506394
000140 e0 0b db ba 9c 1f fd 3c 22 41 1b bd 9f 1b 04 bd
       -0.0016711913 0.030898862 -0.037903912 -0.032252904
000150 1e 6f 7a bc d2 19 d2 bc c2 5f 52 3d 18 63 76 bc
       -0.015285281 -0.025647078 0.051360853 -0.015038274
000160 90 98 b0 3a 90 07 8e bc 03 39 e1 bc 8f 31 1e bd
       0.0013473202 -0.01733759 -0.027493006 -0.03862148
000170 9f af 23 3d 93 2c 1a bd 8e 88 04 3d 50 43 d6 3a
       0.039962407 -0.037640166 0.03235679 0.0016346965
000180 a3 07 fe bc 00 23 b7 bb c0 8f a9 bc 18 b3 f3 3c
       -0.0310095 -0.005588889 -0.020698428 0.029748484

classifier.weight f4 [2, 100]
000000 48 9c 57 be da 07 c9 3d 28 a7 38 3e bf 40 b9 3d
       -0.2105571 0.09815951 0.18032515 0.090455525
000010 49 6b b1 bd 9e 58 8f bc 55 95 69 3e 48 fb 97 3d
       -0.08663041 -0.01749831 0.22810872 0.07420975
000020 af db 14 3e 28 54 bc bd 5d a3 98 3c 24 58 1e be
       0.14536928 -0.09195739 0.018632585 -0.1546331
000030 27 1c 2d 3d 96 e8 ab be 54 0c d6 bd 26 a7 30 3e
       0.042263176 -0.33575886 -0.1045157 0.17251262
000040 f3 ac eb 3c c3 d8 50 3d be 14 d3 bd 67 8e 1a 3e
       0.028768992 0.05098797 -0.10306691 0.15093385
000050 cd 55 57 bd d7 04 35 be 80 6c 17 3e 9c 8f ae 3c
       -0.05257206 -0.17677628 0.14787483 0.021308713
000060 c7 d4 b6 3d 9b 44 27 3d 2a a1 15 be 4c 3b 11 bc
       0.08927303 0.04083691 -0.1461226 -0.008864235
000070 36 06 12 3e e4 01 4c be 5c 80 53 be 7f e1 1d be
       0.14260182 -0.19922596 -0.20654434 -0.15418051
000080 f7 72 65 3e b0 89 89 bb 27 a3 92 3d b1 60 0a 3d
       0.22407137 -0.004197322 0.07160025 0.03378362
000090 5d f3 96 bd 37 60 dd 3d 1b ea 8b bc 8e 8d f4 3d
       -0.073706366 0.10809367 -0.017079404 0.11941062
0000a0 a6 0b 26 be 6a 3b 83 bd a4 0c 81 3d 03 49 80 bd
       -0.16215381 -0.06407817 0.06301239 -0.06263926
0000b0 6e 74 ec 3c 09 f5 07 3e f3 22 93 3d 32 5d 81 bd
       0.028864112 0.13277067 0.071844004 -0.06316604
0000c0 80 79 eb be 64 1f a8 3d 96 66 86 be 34 d1 76 3d
       -0.45991135 0.08209112 -0.26250142 0.060258105
0000d0 e8 24 9a be a1 49 44 3e 0e fc 69 3d 83 bb a0 bd
       -0.30106282 0.19168712 0.057125144 -0.07848265
0000e0 0f 3a 22 3e f8 9b 63 bd d0 3a d4 bd 55 f1 8c bd
       0.1584246 -0.055568665 -0.1036278 -0.06881968
0000f0 be c9 8a 3e c8 cd 17 be d4 ce de 3d 17 ed e5 3d
       0.27107042 -0.14824593 0.10879293 0.11226862
000100 d3 32 88 bd 5b 8b b2 3e 3e 21 92 3e 30 df 03 bf
       -0.06650319 0.34871945 0.28540987 -0.5151243
000110 52 bd d8 be eb c7 de bd b7 32 88 3d b5 31 62 3e
       -0.4233194 -0.10877975 0.06650298 0.22089274
000120 02 10 ad 3d de 04 df be e7 40 09 3e aa ca 30 3c
       0.08450319 -0.435584 0.13403665 0.010790506
000130 80 61 14 be a4 7e ab 3d c3 45 ab bd 1a 56 c3 bc
       -0.14490318 0.08373764 -0.08362915 -0.023844767
000140 39 28 58 3d f5 d5 34 be 8e cd ce 3d 10 00 ab 3d
       0.052772734 -0.17659743 0.100978 0.08349621
000150 2b 3c 6e 3d f4 42 18 3e 0d 62 28 be 6f cb 49 3e
       0.05816285 0.1486929 -0.16443653 0.1970651
000160 56 a8 02 3e 61 9c a1 3d 25 b9 57 3d 81 35 69 bc
       0.12759528 0.07891155 0.052666802 -0.014233948
000170 a6 e8 89 bd db a2 71 3d 21 02 3e be b9 0d 0f bc
       -0.06733827 0.0589932 -0.185555 -0.008731299
000180 01 cb 44 bd 60 2e ed 3d 88 2b 35 3e 44 c3 85 3c
       -0.048045162 0.11581111 0.17692387 0.016328461
000190 0f 4b 78 3e ca fb 9e 3d 87 8a 50 be 57 40 49 3d
       0.24247383 0.07762869 -0.20365344 0.049133625
0001a0 c0 34 d4 3d 9f 4a b8 bd 6d 2b 60 be ba 51 c8 3c
       0.10361624 -0.08998608 -0.21891566 0.024453033
0001b0 ee 3d 13 3c b3 2d 60 bd 8e bd a0 bd 57 8f 40 3e
       0.008986933 -0.054731082 -0.07848655 0.1880468
0001c0 1e 49 3f bd af 49 95 3e 0b 28 de 3d 7f 2c 9f bc
       -0.04670059 0.2915778 0.10847481 -0.019430397
0001d0 65 37 a3 bc 86 b6 95 bd b0 22 86 bc f1 c5 82 be
       -0.019923875 -0.07310204 -0.016373962 -0.25541642
0001e0 09 57 21 bc 3e 50 13 3e d4 9b 2a be 46 64 ee bd
       -0.009847411 0.14386079 -0.16661006 -0.116402194
0001f0 7f 81 8c bc 9b b5 c3 bc 3a 25 23 3e 3a b1 c6 3d
       -0.017151592 -0.023890307 0.1593217 0.09701772
000200 f9 13 e3 bd c3 f0 98 3e 8f 0c 2e 3e d8 3f 7a 3e
       -0.11087794 0.29871187 0.16996978 0.24438417
000210 81 b7 7f be c5 8f 1d be c3 75 e7 3c ba 42 b5 bd
       -0.24972345 -0.15386875 0.028254395 -0.08850618
000220 2b 07 c8 bb c6 13 80 bd 97 c4 a4 3b ab 18 99 bc
       -0.00610437 -0.062537715 0.005028318 -0.01868852
000230 85 b4 a3 3d df b4 9f bb 0e 6c df bc d1 d3 62 bd
       0.07993416 -0.0048738564 -0.027273204 -0.055377785
000240 f3 42 13 3d da 83 50 bd 66 b0 39 bd 92 17 a3 bd
       0.03595252 -0.050906993 -0.045334242 -0.0796348
000250 f2 53 e8 3e df 59 a4 3d 6a 37 93 3e 57 b8 34 3c
       0.45376545 0.08024954 0.28753215 0.011030278
000260 f1 70 75 3e 8d b4 17 be df 03 be bd 72 a3 89 3d
       0.23968865 -0.14814968 -0.09278082 0.06720628
000270 5b 34 bb bc 8f 02 0b 3d a6 cd e0 bc 32 ed 98 3d
       -0.022852113 0.033937987 -0.02744181 0.074671164
000280 cd 16 54 be 55 47 2e 3e 45 5f 3d bd 08 00 99 3c
       -0.20711823 0.17019399 -0.046233434 0.018676773
000290 51 c4 08 bd 73 28 d1 be 85 2b 3b be 2d 25 0a 3f
       -0.033390347 -0.40851173 -0.1827832 0.53962976
0002a0 cb 63 d1 3e a3 eb 8d bb a0 da 60 be a6 86 55 be
       0.40896448 -0.0043310686 -0.21958399 -0.20852146
0002b0 9c 16 37 be 72 67 de 3e 07 58 1f be eb 90 cf 3d
       -0.17879719 0.43438298 -0.15560924 0.10135063
0002c0 9f 9b 00 3e ed 0a d2 bd fb 77 66 3e 83 b5 e0 3d
       0.12559365 -0.1025599 0.22506706 0.109721206
0002d0 7b f1 ce bd 32 7b 4c 3e 1f 24 30 be 96 a5 93 bd
       -0.101046525 0.1996887 -0.17201279 -0.072093174
0002e0 86 44 95 bd a0 1a 86 bd 6e e8 f6 3d fd dc 21 be
       -0.072884604 -0.06548047 0.12056051 -0.15806957
0002f0 9f 51 5d 3c d0 e5 44 be a1 3b 16 bd 6a c3 d2 3c
       0.0135082295 -0.19228292 -0.03667796 0.025727946
000300 d2 43 0d 3e 89 90 61 3d ea 2b 39 3e d7 d2 a3 bd
       0.13795403 0.05506948 0.18083158 -0.07999199
000310 d0 2d e7 bd 87 0f 8d bd ae b3 d4 bd 75 e2 26 3e
       -0.11288035 -0.06887727 -0.10385834 0.16297324

classifier.bias f4 [2]
000000 7e fa 14 3e f4 28 84 bd
       0.1454868 -0.06453124
