old_paper/ckpt/simple_Conv_100_27.pth (torch, 294625 bytes, 4 tensors)

features.0.weight f4 [100, 1, 27, 27]
00000000: 6308 053d 7d32 80bc a38c e73c cad8 13bd
00000010: 581b 9bbc 15c1 ebbc 4d6c afbb e7a8 bf3c
00000020: 09ee e2bb 639f 053d 0090 6b38 b4ec 55bc
00000030: 6557 bcbc dfe4 0abd 9824 a43c f5ff 63bc
00000040: d1e4 353c 8eca fa3b 69b7 0a3d 006e 21b9
00000050: 4b26 47bc e8f1 20bd cbe9 c43c c024 7bba
00000060: 8bed b03c 6c41 18bd c912 5dbc 8bc2 063d
00000070: 2122 ebbc 3d39 013d 01a9 e8bb f0b9 6ebb
00000080: 0048 83bb e0c4 da3a 60f9 c73a 4203 1fbd
00000090: f76c 823c 940d 45bc 1ba5 05bc 0de0 02bc
000000a0: c7d7 db3c 7d90 333c 20ce e7ba 8d0c a83c
000000b0: 7978 a53c 90d1 703c bb5d e23b e378 0a3d
000000c0: 3b49 de3c 02c3 d9bc 675a a53b d2ed bfbc
000000d0: 3c13 0bbd 8776 a33b 667f 19bc 100a c23b
000000e0: be88 c3bb a140 053c e1ef 203c 41cb 603c
000000f0: 6963 073d 815b 85bc 6c9f 1ebc 64e5 a03c
00000100: f105 833c a2ad c2bb 55fe 8fbc 13ed f8bc
00000110: 6fa0 a53c 0fa6 acbc a89b 17bc 4813 7e3c
00000120: b7be 973b 68e2 fabc cace a63c 053d 013d
00000130: d73f 1dbd 3bdf 883c a39d e93b dfc3 c43c
00000140: bc6b 92bc d73b 043d 7d23 babc ee62 c0bb
00000150: 66a3 06bd dfc0 003d 0cd0 803c 509f 173b
00000160: 20c9 8d3c d627 423c 65fc 253c db31 303c
00000170: b026 663b 8bb5 2d3c cbde de3b 8d8e 863c
00000180: 18ab 03bd f369 6b3c 5534 903c 70e5 7f3c
00000190: dc25 15bc af6e cfbc 31f4 913c efbd f1bc
000001a0: 6082 b13a 408b c0bc 9847 633c 5295 1fbd
000001b0: d723 7fbc e9aa 0dbc 9f37 26bc ac3f 19bd
000001c0: 8095 233b 28a1 a43c cc00 853c 6eda b3bc
000001d0: f56b b3bb 90c7 c2bc ef10 ae3c fa01 9e3c
000001e0: 20e7 4cbb ad79 b3bb 4cec 9e3c 7556 aa3c
000001f0: 1d76 7e3c 5d25 623c be0b 1dbd 6945 04bd
00000200: a407 00bd 50fc 643c 1372 ed3b 70a6 c33b
00000210: 9ffb e13c 4c4d 13bd e0ee d03b 7ce2 52bc
00000220: 6b2b 86bc 9016 8f3c cffc 1b3c ed95 09bd
00000230: f872 c63b 677f be3c 3934 d6bc 7d4d ea3c
00000240: 3d6d a1bc cb76 ef3c 3977 9a3c 7691 f63b
00000250: 900b 713b 0092 0eba 33be 5cbc f464 31bc
00000260: f99a 003d 042f 843c 701a 56bb e0e8 ec3a
00000270: cbbe 033d 36dd 23bd 7f8f 923c 6be2 e13c
00000280: 49b1 70bc 304e 0ebd 0054 5538 19a2 0cbd
00000290: 9cdf 12bd edec 04bc a8ee dc3b cbbd 033d
000002a0: c266 bbbc b8b5 833c 59b9 713c a806 83bb
000002b0: 80ed 6ebb 8fa4 2d3c c8dd 88bb 3be8 ea3b
000002c0: a1e4 e6bc b769 9a3c 50ab fd3c 5558 eabc
000002d0: 90d2 d7bc 00b8 723b a367 093d a435 05bd
000002e0: 462d 7cbc df4b d83c d93b d4bc 3c07 1abc
000002f0: 0019 953a afe9 283c f90b a7bc e09e d33a
00000300: a0ca fd3c 9bca cf3c 9313 6b3c 4e04 bfbb
00000310: f010 7ebb 27d0 e53c 199c 71bc 63e1 06bd
00000320: d776 a1bc 6593 393c d53a b8bc 4052 b9bc
00000330: 38a1 6dbc 8015 8739 e029 563c 2655 ad3c
00000340: 1a79 3d3c 88ad 813c 20c8 42bb 3be6 1e3c
00000350: a73e 04bd e3be d13c 3307 cc3c 8399 1d3c
00000360: b16b bbbc e319 14bd a1ee 0fbd 00b5 3db9
00000370: 2d56 663c 59ad 973c 4b1e d43c c038 d43a
00000380: 824c 13bd b64b d4bc bfc4 893c cab2 4fbc
00000390: 423a fbbc 37f2 093d 0481 c6bc 1521 f7bc
000003a0: 5e5b 5d3c bf4b c13c 5f25 6c3c 802d b3b9
000003b0: 3dff 223c 36ae c1bc 5b9a 973c a462 563c
000003c0: 8320 913c 68c7 09bd e102 783c dbfe cf3c
000003d0: 434e 303c e570 f6bc 6915 19bd 1de2 aabb
000003e0: 846d 5f3c 3625 593c ef25 cb3c e539 0dbc
000003f0: 7475 35bc 40c8 073a bf38 fbbc 1b1c 66bc
0.0324787 -0.015649075 0.028265303 -0.036095418 -0.018933937 -0.028778592 -0.0053534866 0.023395969
-0.0069253487 0.032622706 5.6162477e-05 -0.013056923 -0.022990892 -0.033909675 0.02003698 -0.013916005
0.011101917 0.007653541 0.03386632 -0.00015395135 -0.012155126 -0.0392932 0.024037262 -0.00095803663
0.021597644 -0.037171766 -0.013493248 0.032900374 -0.028702797 0.031548727 -0.007100225 -0.0036426745
-0.004006386 0.0016690753 0.0015256815 -0.038821466 0.0159211 -0.012027163 -0.00815704 -0.007987988
0.02683629 0.010959742 -0.0017685331 0.020513797 0.020199047 0.014698401 0.006908146 0.033806693
0.027134528 -0.026582245 0.005046177 -0.023428831 -0.03395389 0.004988495 -0.009368753 0.0059216097
-0.0059672287 0.0081330845 0.009822817 0.0137203345 0.03305379 -0.016278984 -0.009681564 0.019640632
0.015994044 -0.005941109 -0.01757733 -0.030386483 0.020218102 -0.021075277 -0.00925342 0.015507527
0.0046308893 -0.030625537 0.020362277 0.031552333 -0.03839096 0.016708007 0.0071293875 0.02401918
-0.017873637 0.03228363 -0.022722 -0.0058711683 -0.032870673 0.031433936 0.015724204 0.002313573
0.017307818 0.011850318 0.010130976 0.010754074 0.0035118274 0.010602365 0.0068014613 0.016425395
-0.03214559 0.014368522 0.017603079 0.015618667 -0.009103265 -0.025321333 0.017816635 -0.029509513
0.0013542883 -0.0235039 0.01387205 -0.038960762 -0.01557251 -0.008646705 -0.010145097 -0.037414238
0.0024960935 0.020096377 0.016235732 -0.021954741 -0.005475516 -0.0237768 0.021248309 0.019288052
-0.003126569 -0.0054771514 0.019399785 0.020793179 0.01553109 0.013802853 -0.038341276 -0.032292757
-0.031257287 0.013976172 0.0072462647 0.0059707686 0.027585803 -0.035962388 0.0063761324 -0.012871381
-0.016378125 0.017466813 0.0095207235 -0.033590246 0.006056186 0.02325411 -0.026147949 0.028601402
-0.01970541 0.02923145 0.018855678 0.0075246645 0.0036780573 -0.0005438626 -0.013473081 -0.010827292
0.031397793 0.0161357 -0.0032669567 0.0018074773 0.032164376 -0.040005885 0.01789069 0.027573785
-0.014690706 -0.034742534 5.086139e-05 -0.034334276 -0.03585778 -0.008113128 0.006742317 0.032163423
-0.022876147 0.016077861 0.014753663 -0.003998596 -0.003645748 0.010598316 -0.004176829 0.0071687973
-0.02818519 0.018849237 0.030965477 -0.028606573 -0.026345521 0.0037035942 0.0335461 -0.03252186
-0.015391653 0.026403366 -0.025907444 -0.009401139 0.0011375248 0.010309621 -0.020391451 0.0016145371
0.030980408 0.025365165 0.014347929 -0.0058293706 -0.003876742 0.028053356 -0.014746689 -0.03292979
-0.019709988 0.0113266455 -0.02248899 -0.022622228 -0.01450377 0.00025765225 0.013071507 0.021158766
0.011564517 0.015829816 -0.0029721335 0.009698446 -0.032286312 0.025603717 0.024905777 0.00961912
-0.0228785 -0.0361575 -0.035139684 -0.00018091872 0.014058632 0.018515276 0.025893351 0.0016191229
-0.035961635 -0.025915008 0.016817449 -0.012676904 -0.030667428 0.03367826 -0.024231441 -0.030167142
0.013510553 0.023595689 0.014413207 -0.0003417544 0.009948549 -0.02364264 0.01850622 0.013085041
0.017715698 -0.033637434 0.015137405 0.02539008 0.010760847 -0.03008313 -0.037373934 -0.005214943
0.01363695 0.013253501 0.024798362 -0.00861976 -0.011075366 0.0005179681 -0.030666707 -0.014044787

features.0.bias f4 [100]
00000000: 576c 87bc 53ee b83c 6249 653c 440e 793d
00000010: 4155 f2bc dc46 a1bc a665 b4bc 70e9 94bc
00000020: 0356 f5bc dadb 123d 7e9c a13d 2a55 afbc
00000030: 8ba8 48bc bbc3 04bd d088 cb3a a890 0a3e
00000040: f293 fb3c 54ca 113d 50d7 85bc 3c39 c1bc
00000050: c4d5 803d 56cd 8abc 6c26 40bc a6ca 9abc
00000060: 852c cb3c 6e4f cdbc bcd5 933d 592d 9fbc
00000070: 9c64 93bc ad51 203e 97c1 143e 80fb 223a
00000080: 82e5 ef3c 2c41 43bc 6af4 b8bc f471 e83c
00000090: fee5 edbc 493b f5bc 56c1 69bc 4efd b53c
000000a0: 5ce9 12bd cb04 d13c 3066 d1bc edb2 c1bc
000000b0: 06d5 f0bc 70b7 03bd b87f 25bc 438e d0bc
000000c0: 5a08 dfbc ec3c 83bb 48b7 0f3c d5a4 23bc
000000d0: e471 463d 78d6 033b 847c abbc 7fc6 02bd
000000e0: 9f58 993c 13eb db3c f121 7cbc 26a0 fb3b
000000f0: a4b5 40bc 7249 443e 70a3 9dba 799c 5c3e
00000100: 1ff4 30bc d2a6 1d3d 9827 ed3c bd81 123c
00000110: 909f 2d3d 88ee 17bc dee5 6a3e 191c 173d
00000120: 9242 ae3d 2037 67bb 9055 603d 049a 8d3d
00000130: 28ad 6abc f2b0 96bc 1101 a7bc dc43 66bc
00000140: 6050 0c3d 96e6 583c 60c5 e6bc 144e 683c
00000150: 8ba9 eb3d 0969 04bc 8cde 193d 80a0 5f3a
00000160: bc7f 003b b04f 8dbb aa63 a2bc 1055 1e3b
00000170: bded 0abd d03f f8bc 0f22 4d3e 2f09 86bc
00000180: fcea 373d 8fe2 8ebc b7e7 e2bc 5c47 8fbc
-0.016531153 0.02257458 0.013994547 0.06080462 -0.029581668 -0.019687109 -0.022021126 -0.018177718
-0.02994824 0.035854198 0.07891177 -0.021402914 -0.012247215 -0.032413226 0.0015528444 0.13531744
0.030710194 0.035593346 -0.01633802 -0.023586862 0.062907726 -0.016943615 -0.0117279105 -0.018895458
0.024801502 -0.02506229 0.07218501 -0.019430803 -0.01799231 0.15656157 0.14526974 0.0006217286
0.029284243 -0.011917394 -0.022577483 0.02837465 -0.029040333 -0.029935496 -0.014267286 0.022215512
-0.03586708 0.02551498 -0.025561422 -0.023644889 -0.029398452 -0.03215736 -0.010101251 -0.02545846
-0.027225662 -0.004005065 0.008771725 -0.0099880295 0.04844846 0.0020116847 -0.020933397 -0.031927582
0.018719016 0.02684549 -0.015388952 0.0076790033 -0.0117620565 0.19168642 -0.0012026858 0.21544065
-0.0108003905 0.03848917 0.028949544 0.008942065 0.0423885 -0.009273179 0.2293925 0.03689203
0.08508791 -0.003528066 0.0547691 0.06914142 -0.01432351 -0.018394921 -0.02038625 -0.014054265
0.03425634 0.01323857 -0.028170288 0.0141787715 0.11506947 -0.008081683 0.037565753 0.0008530691
0.0019607386 -0.004312478 -0.019822914 0.0024159588 -0.03391813 -0.030303866 0.20032524 -0.016361801
0.044901833 -0.017442016 -0.02769838 -0.017490081

classifier.weight f4 [2, 100]
00000000: dda4 bbbc c554 17be 4842 9abd 1bd8 a93e
00000010: ed4e 973d 926a e13d 4e88 e33d bdef a03b
00000020: 9e61 dd3c af0d 433e 7663 ac3e cac3 9cbc
00000030: 4d58 f43d f141 423d ffc7 643d 555b 67be
00000040: fc83 07be 49fa 3b3e a7e2 b1bd 3731 16be
00000050: 0c62 a93e 2b50 4e3c 3a6b 9f3d 36c2 2fbd
00000060: d812 bbbd e80c c83d 28f6 bc3e 73ed 02be
00000070: 121d 133d 6bcd 75be 2162 6ebe 3872 c83d
00000080: 616b 0fbe 6576 09be fe05 1e3e 41cb c03d
00000090: 6034 4e3d 9876 cd3d 75c5 973d 47af a2bd
000000a0: 119c f63c d010 8abd 5ef8 86bd fe40 93bd
000000b0: 85ed 5a3d 7c61 983d 6b77 d9bd 3cee dcbc
000000c0: 6166 4b3c 134c cf3c 8324 b8bd 3445 893d
000000d0: 36e0 813e 49c8 bd3c 9cc9 b6bd 5ad6 953d
000000e0: d1fe 843c e79f ffbc cac6 c43c 4055 c0bd
000000f0: 9f86 f9bd a239 92be 3852 3c3c 76c5 89be
00000100: 0717 ccbd 2891 17be 0464 c23d a3a0 e6bd
00000110: e4a8 583e c983 043e 4b19 92be 7107 1dbd
00000120: 9c2c fdbd b9e5 0dbd 3b40 9c3e 2d9a ac3e
00000130: 99ce 123e 0fc2 6d3c 99ad 9f3d b58a c4bc
00000140: a7eb 2a3e d8d0 afbd e7de bcbd 9543 7dbd
00000150: 7806 cebd bed4 06be df72 103e 916f c13d
00000160: c934 513d 3083 323d 3fbb abbd b54b 653d
00000170: 1e0d a43c d4b9 8dbd b386 83be 945a 69bb
00000180: 0580 633e 8833 95bd f9a3 60bc e69a c9bd
00000190: 4de9 553d 2ef9 9abc 78c6 e3bb 2b6e 83be
000001a0: 1065 80bd b721 b13c 62c6 60be fd30 3fbd
000001b0: 30b9 1c3d a868 19be 2298 dcbe 7f16 d23d
000001c0: fcf1 d23c a0fd 843c 5b60 8cbd 3876 223e
000001d0: 3f62 c23d 7a20 14be 3a66 ab3d e943 0b3e
000001e0: 1104 8fbe 3ac6 83bd a1dd 63be c40e 3b3c
000001f0: 10c7 4c3d 30cd 8dbc ef2f a9be 5fd1 143e
00000200: b473 89bd 8fc7 523e 2697 3a3e 8fb8 e3bc
00000210: 1c2f 153d dae3 2c3d 6a13 b4bd 95c6 25be
00000220: ab31 ebbd 3e5d 623d e62e 903b 6483 8b3d
00000230: 27f4 6a3d 61bb 013e 1eb3 26bd 310e f73c
00000240: d4d0 bbbd 1f3d a1bd ef39 923d d937 71bd
00000250: 12e1 c53d 6519 ea3d c2a4 90bc a472 093d
00000260: c3a7 57be bea3 8fbd 083b dd3c d2ce 1abe
00000270: 6469 e33d 156c 023e 8a7a b33d 113f 0abd
00000280: c0eb 723d 4de6 873e ac44 14be aca1 b33e
00000290: d1d1 023d 64f6 c83d 1c73 26be e1a6 55bd
000002a0: e74f 42be b7a8 cfbd ac41 bf3e 6ae2 483e
000002b0: d470 e73d 76e6 bebd 5e0c 6dbe 571c adbe
000002c0: e1a6 35be 72a3 b6bd 2bb2 0f3d 44ac c83d
000002d0: 4baf 12be edfd d7bb c8f3 debb db72 d53c
000002e0: c910 683e b7a1 043b 077d 58be 207e 3b3b
000002f0: 8b6b d5bc 8e49 18be 7417 953d a63d 40bd
00000300: 9d05 39bd bf6b d0bd 089c a23e 6f0f ca3d
00000310: 7f15 52be 87f4 98bd 1619 c1bd de1a 96bc
-0.022905761 -0.14778431 -0.075321734 0.33172688 0.07388101 0.11006655 0.111099824 0.0049113915
0.027024087 0.19048189 0.33669633 -0.019136328 0.119309045 0.047426168 0.055854794 -0.22593434
-0.13233942 0.18357195 -0.08685809 -0.14667211 0.33082616 0.012592356 0.07784124 -0.042909823
-0.091344535 0.09768087 0.36906552 -0.12785892 0.035916395 -0.24004142 -0.2327962 0.097874105
-0.14005806 -0.1342407 0.15431973 0.094137676 0.050342917 0.100323856 0.07410709 -0.07943588
0.030103715 -0.06741488 -0.06590341 -0.07190131 0.053449173 0.07440469 -0.1061848 -0.026969068
0.012414546 0.02530483 -0.08991339 0.067026526 0.25366372 0.023166792 -0.08925173 0.07316275
0.016234787 -0.031204177 0.024020571 -0.0939126 -0.1218388 -0.28559595 0.011494212 -0.26908463
-0.099653296 -0.14801466 0.09491733 -0.11261108 0.21158177 0.12940897 -0.28534922 -0.038337175
-0.12362024 -0.03464291 0.30517754 0.33711377 0.14336623 0.014511599 0.07796783 -0.023991922
0.16691457 -0.08584756 -0.09222203 -0.06183203 -0.100598276 -0.13167092 0.1410632 0.09445108
0.05107573 0.04358214 -0.08385324 0.055980403 0.020025786 -0.069202095 -0.25688705 -0.0035606967
0.22216804 -0.072852194 -0.013710969 -0.09843998 0.052224446 -0.018917646 -0.0069511496 -0.2566999
-0.06269276 0.021622522 -0.21950677 -0.04667758 0.038262546 -0.1498133 -0.43084818 0.10258197
0.025750153 0.01623422 -0.06854316 0.1586541 0.09491395 -0.14465514 0.083691075 0.13600124
-0.2793279 -0.06434293 -0.22252513 0.011417095 0.04999453 -0.017309755 -0.33044383 0.14532994
-0.06711522 0.20583938 0.18221721 -0.027797965 0.03642188 0.042209484 -0.087927654 -0.16189034
-0.11484083 0.055264704 0.004400122 0.0681217 0.057361748 0.12669136 -0.040698163 0.030158134
-0.0917069 -0.07872986 0.07139956 -0.05889115 0.096620694 0.11430625 -0.017656688 0.033556595
-0.2106009 -0.07013653 0.027005687 -0.15117958 0.11104086 0.12736543 0.08763607 -0.03375155
0.05930686 0.26542893 -0.14479321 0.35084283 0.031938378 0.0981262 -0.16254848 -0.0521611
-0.18975793 -0.10139602 0.3735479 0.1961762 0.11300817 -0.09321301 -0.23149249 -0.33810684
-0.1773944 -0.089178935 0.035082024 0.09798482 -0.14324681 -0.0065915496 -0.0068039633 0.026055744
0.22662653 0.002023799 -0.21141444 0.0028609112 -0.026052257 -0.14871809 0.07279864 -0.046933793
-0.04517137 -0.10176801 0.31759667 0.09866225 -0.20516013 -0.07468515 -0.09428613 -0.018323358

classifier.bias f4 [2]
00000000: 9ae2 c9be f462 ce3e
-0.39430696 0.4030987
