old_paper/ckpt/simple_FC_100_13.pth (torch, 70613 bytes, 4 tensors)

features.1.weight f4 [100, 169]
000000 b5 c8 8b bd b7 d6 20 bd de 1a c1 bc 32 cb e8 bc
       -0.06825391 -0.039267268 -0.023572382 -0.028417204
000010 cf 08 87 3d 88 79 1f bc b4 37 53 bd f0 de 8e bb
       0.06593477 -0.009733565 -0.051566795 -0.0043600723
000020 b2 d2 75 3d b2 57 5e 3d 40 20 89 3a 4c 08 88 3c
       0.060015388 0.05428285 0.0010461882 0.016605519
000030 00 47 fe b9 20 e2 c4 3b 36 6e 59 bd b0 76 bb bb
       -0.00048499554 0.0060084015 -0.05308362 -0.0057209358
000040 72 f4 fa bc d8 ce e3 3c d6 ce 15 3d 71 aa 95 3d
       -0.030634139 0.027808592 0.036574207 0.073079
000050 22 0b 86 bc 80 f0 13 3d 86 11 8b bd 5c 52 50 bd
       -0.01636273 0.03611803 -0.06790452 -0.050859794
000060 f5 b3 85 3d ad 0f 86 3d 8a 54 c0 bc ca b3 37 bd
       0.06528465 0.06545959 -0.023477811 -0.044849195
000070 90 e8 a5 3c be f4 2a 3d 3c 84 a9 bc 94 dd 5f bd
       0.020252496 0.04173731 -0.020692937 -0.054654673
000080 66 df 43 bd 16 ad 60 bd fe 68 71 3d 12 44 8d bd
       -0.04782047 -0.054852568 0.05893802 -0.06897749
000090 79 50 21 bd df b8 90 bd d0 0c 98 3c 84 3b a0 3c
       -0.039383385 -0.07066511 0.018560797 0.01955963
0000a0 d0 af f5 3c ca 1e 1f bd 08 ba 9c bd 72 62 89 bc
       0.02999106 -0.038847722 -0.0765267 -0.016770575
0000b0 c5 be 8f 3d 1c f3 a9 3c d0 8b 76 bd 98 33 84 bd
       0.07018808 0.020745806 -0.06019193 -0.06455153
0000c0 30 c0 42 3c 5d 69 82 3d 00 d2 70 39 46 1e 7e bd
       0.011886641 0.06367753 0.00022966415 -0.06204059
0000d0 9b 76 95 3d d2 de 51 bd e1 95 8f 3d ee eb 4c 3d
       0.07298013 -0.05123789 0.07011009 0.050029688
0000e0 98 9a b0 3c bc 66 5f bd 0a 5e 09 3d a0 fb b0 3b
       0.021558091 -0.054541335 0.03353695 0.00540109
0000f0 3f 8c 90 3d 60 e1 7c bd 32 6f 4d bd 20 63 ec 3b
       0.07058 -0.06173837 -0.050154872 0.007213965
000100 ba a5 4c 3d 76 e9 13 3d 00 91 6e 3c 94 58 13 3d
       0.049962737 0.036111318 0.014560938 0.035973147
000110 b0 a4 a7 3b e5 4a 33 bd 3c 79 26 3d 16 c0 01 3d
       0.005116068 -0.043772597 0.04064296 0.031677328
000120 a3 69 93 bd bc bf d3 3c 26 8d 47 bd 9c 74 69 bd
       -0.07197883 0.025848262 -0.048718594 -0.056995973
000130 d0 9a 50 bc f0 14 4a bc e6 23 55 3d 2a 89 5b 3d
       -0.012732223 -0.012334093 0.05203619 0.053597607
000140 cd 5c 9b 3d a0 0f 05 bc 8f 37 41 bd 70 f2 3a 3c
       0.0758606 -0.008121401 -0.047172125 0.011410341
000150 c0 80 a7 3b 50 c7 94 bc 1c cb 20 3d 05 87 9b 3d
       0.0051117837 -0.018161446 0.0392562 0.07594112
000160 38 9a df 3c 73 1b 8a 3d 20 92 34 bd cf 53 33 bd
       0.027295217 0.06743517 -0.04408467 -0.043781098
000170 20 a7 01 3d 50 d7 34 3c ba 4c 51 3d 70 1f ef 3c
       0.031653523 0.011037663 0.051098563 0.029189795
000180 20 11 10 bb 50 ba c4 bc 60 87 32 bc 95 be 8c 3d
       -0.0021982864 -0.024014622 -0.010896534 0.06872288
000190 4a 6e 44 bd d9 be 8f bd 80 06 8f bc 0a f6 dc bc
       -0.047956742 -0.07018823 -0.017459154 -0.02697279
0001a0 46 43 5e 3d 60 09 89 bb 17 2f 2c bd 60 ce a1 3b
       0.054263376 -0.004182026 -0.042037096 0.004937932
0001b0 11 fc 8e 3d a1 9b 99 3d d0 06 7b 3c 13 cb 9b bd
       0.069816716 0.07500387 0.015321448 -0.07607093
0001c0 10 09 ad 3b 70 b8 73 3c 20 61 1a bd 53 83 94 3d
       0.0052806213 0.014875516 -0.037690282 0.072516106
0001d0 a0 6b e5 bb 19 ed 13 bd d4 9d 18 3d 4c b7 ad 3c
       -0.0070013553 -0.036114786 0.03725989 0.021205567
0001e0 60 12 f7 bb ca 98 4a bd 36 a6 af bc 41 7e 9b 3d
       -0.0075400323 -0.049462117 -0.02144156 0.075924404
0001f0 08 3a 30 3d 05 42 1f bd 7c 8e 81 bc b2 83 30 3d
       0.043024093 -0.03888132 -0.015815012 0.043094344
000200 bc d6 9d 3c f0 a2 a5 bb d6 0b 00 3d e0 75 03 3b
       0.019267432 -0.005054824 0.031261288 0.0020059273
000210 68 28 a1 3c 1c b7 9f 3c 66 71 72 bd 00 00 6b 38
       0.019672588 0.019496493 -0.059190176 5.6028366e-05
000220 14 73 e8 3c 40 4a 99 bc 6d 31 50 bd de 00 9d bd
       0.028375186 -0.018712163 -0.050828386 -0.07666181
000230 0d 46 68 bd d0 4b 4a 3c 3c 60 9f 3c 32 77 75 3d
       -0.05670743 0.012347177 0.019455068 0.059928127
000240 aa 39 42 3d 2c 30 ea 3c 66 11 58 bd f2 70 46 bd
       0.047418274 0.028587423 -0.052750967 -0.048447557
000250 a8 89 51 bc 3a b1 68 3d 3b e8 9b 3d 5d 7f 96 3d
       -0.012789167 0.05680964 0.07612654 0.07348511
000260 79 f1 84 bd d7 6e 2d bd 91 ae 84 3d 3c 6e a3 bc
       -0.0649137 -0.042342033 0.064786084 -0.019950025
000270 de 55 97 bd f1 92 9a 3d fa 6f 6d 3d 6d 0f 25 bd
       -0.07389425 0.07547558 0.057968117 -0.040297914
000280 a0 19 8b 3b 22 f6 37 3d 78 85 95 3c 28 b6 6f bc
       0.004244998 0.044912465 0.01825212 -0.014630832
000290 75 51 97 bd af fa 3d bd 85 88 8e 3d 72 92 5a 3d
       -0.073885836 -0.04638165 0.06959633 0.053362317
0002a0 6d db 95 3d 7c bd 5f bd ba 08 4d 3d 10 f0 dc bc
       0.07317243 -0.054624066 0.05005715 -0.02696994
0002b0 c4 cb f4 3c a0 6d f9 3c ce 4a 4c 3d e5 47 09 bd
       0.02988232 0.030447781 0.049876027 -0.03351583
0002c0 20 b3 e0 3c 2f 37 8a 3d 09 ae 8d 3d 16 ca 03 bd
       0.027429163 0.06748807 0.0691796 -0.032175146
0002d0 90 35 c7 3b 48 0b 96 bd 7d 13 96 bd f9 1b 8f 3d
       0.006079383 -0.073263705 -0.07327936 0.06987757
0002e0 c3 a5 95 bd c8 d4 3f bd 32 72 30 bd ef 0e 96 bd
       -0.07307007 -0.046833783 -0.043077655 -0.07327067
0002f0 80 f7 87 ba 2a 78 63 bd 2c c5 b6 3c b1 6c 9b 3d
       -0.0010373443 -0.05553452 0.022310816 0.075890906
000300 00 e2 62 39 ea 94 34 3d 80 f0 e3 bc 05 16 96 3d
       0.00021637231 0.044087328 -0.02782464 0.07328419
000310 26 67 06 3d 50 e8 fb 3c 54 57 02 bd a4 49 b2 3c
       0.032813214 0.030750424 -0.031821564 0.02176363
000320 f2 ae e3 bc fe f7 3c bd 90 d5 f6 3b 1c db 74 bd
       -0.027793381 -0.04613494 0.007532783 -0.05977927
000330 36 72 0f 3d 12 c3 97 bd 26 d7 4e bd 40 09 54 bb
       0.03502103 -0.074102536 -0.05049815 -0.0032354146
000340 d1 41 95 3d b6 8d d2 bc 10 d6 89 3c ad 6e 73 bd
       0.07287944 -0.025702339 0.016825706 -0.05943172
000350 54 b7 57 bd ad 2a 2d bd d8 9a 49 3c aa 95 7f 3d
       -0.05266507 -0.042277027 0.012304984 0.06239859
000360 72 89 30 bd 2c 29 bd 3c 8f fd 36 bd 34 00 2f 3d
       -0.043099828 0.023090921 -0.044675406 0.042724803
000370 65 d7 28 bd d6 5d 07 bd 72 fb bd bc c4 f9 86 bd
       -0.04122104 -0.033048473 -0.023191188 -0.06590608
000380 9e d2 5d bd 66 06 5f 3d a5 f3 8e bd 59 1e 91 bd
       -0.05415594 0.05444946 -0.06980065 -0.070858665
000390 06 76 d4 bc f4 d5 03 3d 40 82 f1 bb ec b0 b0 3c
       -0.025935184 0.032186463 -0.0073702633 0.021568738
0003a0 9e 3f 2e bd de f9 d7 bc 03 2b 4c bd b4 e1 3e 3d
       -0.04254114 -0.026364263 -0.049845707 0.046601966
0003b0 25 1e 94 3d 8c b1 0e 3d 71 f0 80 3d 20 cd 17 bd
       0.07232312 0.03483729 0.062958606 -0.037060857
0003c0 20 cc 6b bc b0 35 78 bd 04 cb f6 3c c5 fc 81 3d
       -0.014391929 -0.060598075 0.030126102 0.0634704
0003d0 74 fc 64 bd 40 a9 20 bd 4f 35 96 bd e0 dc 51 bb
       -0.05590482 -0.03922391 -0.073343866 -0.003202252
0003e0 1a 61 b9 bc c3 aa 2e bd f0 77 05 3d f3 49 85 3d
       -0.02262931 -0.04264332 0.032585084 0.06508245
0003f0 66 c6 74 3d ea 9d 78 bd 7a 13 50 3d c8 ff 28 3c
       0.05975952 -0.060697474 0.050799824 0.010314889

features.1.bias f4 [100]
000000 b2 56 8e bc cf 41 62 3d 92 ed ed bc 89 72 9f 3e
       -0.017375324 0.05523854 -0.029043946 0.3114207
000010 27 2c 16 3e 43 35 e6 3e 96 69 ea 3e b8 aa a2 bc
       0.1466528 0.4496251 0.4578368 -0.019856796
000020 ef ed 04 3e d9 64 5a bd 76 a6 83 3d 3b 87 0f 3e
       0.1298139 -0.053318832 0.06428234 0.1401643
000030 61 b6 ac 3d 8c 00 3d bd 78 4c 6b 3e 72 29 42 bd
       0.084332235 -0.0461431 0.2297839 -0.047402807
000040 e1 00 cc 3e a5 0f 6a bd 15 f6 66 3c 60 01 13 bc
       0.3984442 -0.057143826 0.0140967565 -0.008972496
000050 58 c1 4a bc c5 50 f4 3e 1f 6f 4a 3e 14 59 87 3e
       -0.012375198 0.47717872 0.19768952 0.2643515
000060 a2 3a ea 3e 9f 9b 89 bd fd df 7e 3e 76 d9 a0 3c
       0.45747858 -0.067191355 0.24890132 0.019634943
000070 81 0d a9 3e 9a e9 1a bb 5d 49 5c 3e bc c2 ae 3d
       0.33018115 -0.0023637773 0.21512361 0.085332364
000080 86 35 03 3e 34 48 04 3e e0 f8 3f bc e1 d1 14 3e
       0.12813386 0.12918168 -0.011717051 0.14533187
000090 ff 5f c5 3e 00 a4 4e bd f0 c4 87 bd bf 81 61 3e
       0.38549802 -0.05044937 -0.0662936 0.2202215
0000a0 77 94 1a bb 69 c0 c3 3d 72 b5 3b bd 63 40 40 3d
       -0.0023587027 0.09558184 -0.045827337 0.046936404
0000b0 8c 03 14 3d ae ae 35 bd 0f f0 fd 3d 60 29 10 3e
       0.036136195 -0.04435604 0.12399303 0.14078283
0000c0 4e 7e c6 bc 59 9f 39 3e 7d dc 64 3e 36 75 6f 3e
       -0.024230149 0.18127193 0.22349735 0.23384556
0000d0 30 ff 92 3d 33 26 b2 3c 27 fd 3b 3e fc dd 1f bd
       0.071775794 0.02174673 0.18358289 -0.03903006
0000e0 9e aa fe 3c f3 c4 85 bd 7f 80 c3 3d 1d 13 c7 3d
       0.031087216 -0.06531706 0.09545993 0.097204424
0000f0 96 cf fc 3e 74 b7 91 3e 76 32 0c 3e e0 56 70 bd
       0.49377126 0.28460276 0.13691124 -0.0586766
000100 ce 91 04 3e 14 e4 ab bc ad 0f 19 bd 81 62 3a 3e
       0.12946245 -0.02098278 -0.037368465 0.18201639
000110 47 e4 99 bd e2 37 4e 3d 5e 08 6c bd c3 4b e7 3e
       -0.075142436 0.050346263 -0.057625167 0.4517499
000120 0b 98 85 3e 9e cc 4c 3e 22 4d 82 bd 6b 1b 41 3e
       0.26092562 0.1999993 -0.06362368 0.18858115
000130 0a 18 78 bd 16 39 3c bd 17 e9 c6 3d 9d a0 7a bd
       -0.0605698 -0.04595288 0.09712427 -0.06118833
000140 d9 69 b2 3e a3 21 3f bd 62 73 79 bd f2 6a 59 bd
       0.3484638 -0.046662938 -0.060901053 -0.053080507
000150 01 ca 9c 3e 83 3d 8d bd cc 04 73 3d e1 b3 7a 3d
       0.30622867 -0.06896498 0.059330747 0.061206702
000160 d7 6c c3 3e 1e fd 1b 3e d7 96 a4 3d 5e dc 87 bd
       0.38168976 0.15233275 0.08036583 -0.066338286
000170 84 cd 93 bd bb 8d 91 3e 2a b3 6d bd 0e 52 6d bd
       -0.07216933 0.28428444 -0.058032192 -0.05793958
000180 6d db 44 3e 35 a2 61 bd bc b6 95 3e d7 3f 4b 3e
       0.1922433 -0.055086333 0.29240978 0.19848572

classifier.weight f4 [2, 100]
000000 a8 31 a4 3c 37 65 24 3b f8 70 4b bd 18 de c5 be
       0.02004321 0.0025084743 -0.049668282 -0.38646007
000010 e2 5c 14 be 6b e6 f7 be 4c f8 ff 3e b3 8f e0 3c
       -0.14488557 -0.48417982 0.49994123 0.027412271
000020 aa b0 4b 3e 3d 96 8a 3d 6e 80 d4 3d 2b ac 63 be
       0.1989161 0.06766937 0.103760585 -0.22233646
000030 03 d4 b3 bd 7a de af bd 03 3c 83 be e7 10 aa bd
       -0.087806724 -0.08587356 -0.25631723 -0.08304005
000040 0c bf d4 3e 2f d7 96 bd 43 0c c1 bc 5a 4e 12 3d
       0.41552007 -0.07365262 -0.023565417 0.035719253
000050 d3 34 9b bd e4 93 eb be 50 a5 73 3e 23 27 a4 be
       -0.07578435 -0.4601127 0.2379353 -0.3206111
000060 79 fd ee 3e f5 be 8e 3c 9e 51 63 3e fe b2 a6 bd
       0.4667776 0.01742504 0.22199103 -0.08139609
000070 53 80 b8 3e 10 bd 2b bc dc 24 8b 3e 26 cf 2e be
       0.36035404 -0.010482088 0.2717656 -0.17071208
000080 ba b9 2d be ce eb f0 3d ad c3 c8 3d 23 e0 e0 bd
       -0.1696538 0.11763726 0.09802947 -0.10980251
000090 18 8d db 3e f0 9c 02 bc 62 5e b4 bd af 44 93 3e
       0.42881083 -0.007971987 -0.088070646 0.2876334
0000a0 5b 92 69 3d 1c 38 2a 3e 61 6e a8 bd ec 41 3a 3d
       0.05702434 0.16622967 -0.08224178 0.045473024
0000b0 87 98 c8 3d 77 f5 78 3d 31 80 69 3d e0 9d f8 3d
       0.09794717 0.06078097 0.05700702 0.12139487
0000c0 b5 7a aa bd 63 6f 43 3e cd b7 84 3e 5b 0b 7d be
       -0.08324186 0.1908546 0.2592148 -0.24711363
0000d0 2f b7 d2 bd b1 f7 5b 3b 79 5e 80 be b2 fe e4 ba
       -0.10288846 0.0033564384 -0.25072077 -0.0017470925
0000e0 37 e5 2e 3e 13 4c c2 3d b1 a2 dc 3d 0d 22 19 be
       0.17079626 0.09487166 0.107732184 -0.14954396
0000f0 e1 7c 00 bf f9 70 49 be 6e 97 58 3d 64 53 5e 3c
       -0.5019055 -0.19672002 0.05287879 0.013569687
000100 15 93 46 be 74 76 02 3d 2a bd 7a bd 7d f8 86 be
       -0.19392045 0.031851247 -0.061215557 -0.26361457
000110 1a 97 9f bd 2e 4f 3e 3d 0e 43 28 3d d5 aa fc be
       -0.07792492 0.04646223 0.041079573 -0.49349084
000120 16 c9 8b 3e b8 22 83 be cd 11 74 bd 42 1c 85 3e
       0.27301854 -0.25612426 -0.05958729 0.25998122
000130 bd 4a 32 bd dd 10 95 bd a1 d1 1a 3e d6 82 16 bd
       -0.043528307 -0.07278607 0.1511903 -0.03674587
000140 17 74 cb 3e f5 2c 96 3d d6 81 a7 bd 73 cf bf bd
       0.39737007 0.073327936 -0.08179061 -0.0936574
000150 22 e0 a9 be 40 ea 45 bc f7 57 d6 3c d3 5d 10 bd
       -0.33178812 -0.012079775 0.026164992 -0.035245728
000160 d8 d0 e0 3e bd c4 ef 3d 3f f2 ce bd d9 35 c6 3d
       0.43909335 0.11707447 -0.101047985 0.096782394
000170 b0 2d 14 bd 46 e2 9e 3e f7 0d cc bd d0 02 33 bc
       -0.036176383 0.31032008 -0.09963601 -0.0109259635
000180 2a b7 88 3e 10 be 9b 3d 51 e0 b0 be 1c 55 11 3e
       0.26702243 0.07604611 -0.3454614 0.14192623
000190 c2 e1 42 3d 36 32 ec 3d 9a 34 cb 3c 2d d9 ad 3e
       0.04757858 0.115330145 0.024805356 0.33954754
0001a0 24 f1 2a 3e 67 4a eb 3e e4 d5 ef be e2 ec 8c 3d
       0.1669355 0.45955202 -0.46842873 0.06881119
0001b0 a7 9b 84 bd 80 08 b9 ba c9 7f 22 bd 9d d9 9b 3d
       -0.06475001 -0.0014116913 -0.039672647 0.07609866
0001c0 6d ef 07 3e 07 45 a1 3d c0 a2 6a 3e 9d ff f5 bc
       0.13274927 0.07874494 0.22913647 -0.030029112
0001d0 da ac c8 be c6 31 9a 3d d0 77 de 3d 5a 76 28 bd
       -0.39194375 0.07529025 0.10862696 -0.041128494
0001e0 c4 bb e4 3c bc cd 01 3f 58 26 2a be 00 73 60 3e
       0.027921565 0.5070455 -0.1661619 0.21918869
0001f0 1f ba f0 be d1 1f ab 3d 38 d1 92 be e3 c8 a3 3c
       -0.47017 0.08355678 -0.28675246 0.019993251
000200 89 38 af be 6e 2e 61 3c df 17 82 be 92 26 f1 3b
       -0.3422282 0.01374398 -0.25408837 0.0073593343
000210 e4 8a e3 3d 07 7d 15 be 00 86 ea bb 56 37 5c 3e
       0.11110476 -0.14598475 -0.0071570873 0.21505484
000220 2e 60 c7 be a8 de 60 3c 16 d1 38 3d f1 7e 54 be
       -0.38940567 0.01372496 0.045121275 -0.2075155
000230 a1 c3 93 bd 75 0b 17 be e6 19 82 bb 41 7a 83 bd
       -0.07215048 -0.14750464 -0.0039703725 -0.064198025
000240 da 7d 0b 3d 73 8d 0b 3d 5d 50 4f be 69 fe 20 be
       0.03405557 0.034070443 -0.202455 -0.1572205
000250 ef c9 13 bd dd d7 71 be 3b d5 5e be fc 58 9b 3e
       -0.03608125 -0.23617502 -0.21761028 0.30341327
000260 bc aa e7 3d 1c 5c 51 bd 58 a7 06 3e 6b e7 77 3d
       0.11311862 -0.051113233 0.13149774 0.06052343
000270 a6 30 7f bc f5 fb 85 bd 31 21 ab bd 25 99 c8 3d
       -0.015575564 -0.065421976 -0.0835594 0.09794835
000280 35 1c 01 3f b2 9e bb 3e d2 b7 61 be b9 68 8b 3d
       0.50433666 0.36644512 -0.22042778 0.06807084
000290 ea 81 1c 3e 3d 10 a7 bc aa 1d 77 bd 08 42 08 3e
       0.15283933 -0.020393485 -0.060331024 0.13306439
0002a0 a4 11 d1 3c c4 d5 fe bd f2 07 94 bd 65 98 fc 3e
       0.025521107 -0.12443116 -0.07228078 0.49335018
0002b0 61 43 82 be 85 46 65 3e 33 14 8e bd 23 fc 47 be
       -0.2544203 0.22390182 -0.069374464 -0.19529776
0002c0 ba 11 b8 bd 27 54 1b bd dc 92 25 bd 25 e1 1c 3d
       -0.08987756 -0.03792205 -0.04042326 0.038300652
0002d0 a1 94 a5 be a2 d2 29 3d 2c 8e 30 bd e8 cb bd bc
       -0.32339957 0.04146064 -0.043104336 -0.02316852
0002e0 dd 67 9b 3e a0 ba c7 3b 8e 35 01 3e d7 a8 07 3e
       0.3035268 0.0060952455 0.12618086 0.13248001
0002f0 ad 2b b9 be c3 18 35 be 6a 86 65 3d 80 af 48 3c
       -0.36166134 -0.17685227 0.05603639 0.012248874
000300 14 08 85 3c da e8 90 be 6c 6f de 3c 6f 69 a9 3d
       0.016239204 -0.28302652 0.02715274 0.08272063
000310 ec 50 04 be 97 73 a2 bc e9 3b be 3e 4b da 94 be
       -0.12921494 -0.019830508 0.37155083 -0.29072794

classifier.bias f4 [2]
000000 d1 7b 2c bd 76 57 e9 3d
       -0.042110268 0.11393635
