old_paper/ckpt/simple_FC_100_7.pth (torch, 22607 bytes, 4 tensors)

features.1.weight f4 [100, 49]
00000000: 2b84 103e 10eb 81bd 2696 9c3d 3073 ed3c
00000010: b243 55bd 1c23 48bd 4028 4cbb 5070 453c
00000020: e08e 963b 25de aebd bce4 3bbd 4811 fdbd
00000030: 6cc1 cc3d a093 1abd 8046 7b3c 9731 98bd
00000040: 181b dcbd 608f 15bc 66f1 41bd 0c3e 8ebd
00000050: b83b 8f3d 9086 4bbc aaa9 fcbd 90e0 0d3d
00000060: 0bd1 c63d 1318 0b3e 2291 893d 3532 0d3e
00000070: b89b 2a3d 4171 0e3e 1c21 bfbd 1c32 e3bc
00000080: fee2 b7bd 2c03 8b3d 3c2d 2a3d da1a 853d
00000090: 261d e83d 5d89 09be 0090 9e3c 7bbe 103e
000000a0: c6c2 d93d c470 873d d4ce 263d a0a6 4e3d
000000b0: 70fd 653c 58c2 533d f029 9fbd 6086 3cbd
000000c0: 00f0 b0bb 3864 cebc 08f2 dbbd ee53 adbd
000000d0: 0af3 da3d bc63 ca3d 506a cb3d ce2d ff3d
000000e0: 6aac c63d c74a 113e 40ba 013b 587c 5b3d
000000f0: 329b 33bd ac0c a93d 25c9 0c3e f890 0bbe
00000100: 350f 02be 5be6 103e f722 88bd a8ce 7b3d
00000110: f7f5 083e 88ca 043d a893 dbbd 20d7 09bd
00000120: 6006 4c3c 24e5 68bd 2253 933d 98a2 c1bd
00000130: 3059 30bc 8845 cebc 7003 ab3c 7ca3 21bd
00000140: 3210 a03d 539e 05be ee5d 3fbd a359 c2bd
00000150: 20be 6b3d fe26 8d3d 00fc 96ba 2e30 45bd
00000160: 588a 843d 92e9 be3d 60ef 24bd 0e5d c63d
00000170: 67e6 043e 0753 94bd 609d a5bd 1596 d9bd
00000180: 643d 9ebc 4660 e73d ff8e 07be d097 c6bd
00000190: c03c 26bd 2133 073e 5ba1 083e f893 22bd
000001a0: dc7b 4c3d b89c 343d e064 efbb 6088 ea3b
000001b0: 1080 783d 0e37 32bd cafc 50bd 7808 c33d
000001c0: 5862 913c fedf dc3d ec47 f6bd fa1b a0bd
000001d0: 78e9 be3d 9c8b 273d d3ac 8cbd f3f9 c7bd
000001e0: e84b b83d eab7 0ebd 7a55 47bd cb98 083e
000001f0: a3d5 093e 60f9 9fbb 4038 d8bd dc91 36bd
00000200: eb17 0a3e ecf2 dfbd 214d fcbd 2a9d 62bd
00000210: fede 96bd 6095 a13b aaf4 933d 7d22 0c3e
00000220: 6c8b 833d 468e eb3d 6a5c 81bd 7511 cdbd
00000230: 00eb ee3a 164e b03d c031 a7bd f25f f83d
00000240: 006d 2f3a ca21 1ebd d129 ffbd 4347 96bd
00000250: 6c7d f6bd c84d bbbc f80b cfbd e001 ecbb
00000260: 2a53 c13d d344 8bbd 2a37 ccbd 5c18 c9bd
00000270: 571a a0bd 35cd 09be 2a5a a7bd 5c2f 08be
00000280: 347a 333d 93ca f3bd 4064 3e3b 2c04 a73d
00000290: 1226 2cbd c033 0dbe 4097 7fbd 4203 a33d
000002a0: 80d0 76bb d0f1 5f3d 2f5e 063e 1c45 643c
000002b0: a4f9 06be 007c 2cbd 2a50 2abd 8398 ecbd
000002c0: 1cfb 00bd 002e 4b3d 6e84 dc3d 48a2 d5bd
000002d0: 6ac7 ccbd a4e1 02bd 7e1d 9dbd a4fa 06bd
000002e0: 80d0 6d3c b5e7 dbbd bcab 0abe b254 e43d
000002f0: 9e11 c5bd 70ae 8ebc fcb0 56bd 2a26 6dbd
00000300: 40e4 00bb 7897 d4bc cec9 53bd 305d 743c
00000310: e304 c5bd 8c1b c0bd 8091 22bd 00d2 9fbc
00000320: 40a1 1cbb 9097 633c cade ed3d 66e3 ff3d
00000330: 9059 ed3c 9a39 f8bd 4eb5 db3d 54d6 07be
00000340: 6a2b 5abd ccfb 0dbe 0049 65bd 9e28 a7bd
00000350: 1090 cf3c 185b 9a3d abf0 013e 4e02 d93d
00000360: da30 af3d 0ade 01bd 1450 443d 75ae b5bd
00000370: ea81 a43d c483 7a3d 1c8e d3bc b0a6 933d
00000380: b572 87bd fcbe 733d 119e 043e fcac 82bd
00000390: 14bf 783d f6ad e43d 84f5 523d 1ac8 a23d
000003a0: 30ba b23c 5539 c3bd c8bd e2bc de1a eebd
000003b0: 90ed c03c e020 85bd 980d 653d d8e2 65bd
000003c0: aaa0 ebbd 8578 f2bd 409a 32bd 006e c9b9
000003d0: 51de f2bd de96 81bd 00c2 173b 65c7 bcbd
000003e0: e873 dc3c 4020 ccbd afd8 00be cf4e 0a3e
000003f0: 92ff 5cbd 68f7 9f3c 705b dc3c 0fc6 053e
0.14112918 -0.06343663 0.07645826 0.02898559 -0.052066512 -0.048861608 -0.003115192 0.012050703
0.0045946687 -0.085384645 -0.045872435 -0.12356812 0.0999783 -0.037738442 0.015336633 -0.074313335
-0.10747355 -0.009128422 -0.047349356 -0.06945428 0.06993812 -0.012422219 -0.12337048 0.034637988
0.097078405 0.13583402 0.06717135 0.13788684 0.04165241 0.1391039 -0.09332487 -0.027733855
-0.08978842 0.06787714 0.041547045 0.06499262 0.113336846 -0.13431306 0.019355774 0.14135163
0.10632853 0.06613305 0.04072459 0.050451875 0.014037475 0.051699013 -0.07771671 -0.046026587
-0.005399704 -0.025194272 -0.10739523 -0.08463274 0.10690887 0.09882304 0.09932387 0.124599084
0.09700854 0.14188682 0.0019794852 0.05358538 -0.043849178 0.0825437 0.13748606 -0.1362952
-0.12701114 0.14150374 -0.06647294 0.06147638 0.13375078 0.03241971 -0.107215226 -0.033652425
0.012452692 -0.05685915 0.07193591 -0.094548404 -0.010763451 -0.02517964 0.020875663 -0.03946255
0.07815589 -0.13048677 -0.046720438 -0.09489753 0.057554364 0.06892203 -0.0011519194 -0.04814165
0.064716995 0.09321894 -0.04026735 0.096857175 0.12978517 -0.07242399 -0.080866575 -0.10624329
-0.019316383 0.112976596 -0.13238142 -0.09696925 -0.04058528 0.13203098 0.13342802 -0.039691895
0.04992281 0.04409477 -0.0073057264 0.0071573704 0.060669005 -0.043509535 -0.05102233 0.095231
0.01774709 0.107849106 -0.12025437 -0.07817836 0.093218744 0.040904626 -0.06868901 -0.09764471
0.08998853 -0.034843363 -0.0486655 0.13339536 0.13460402 -0.0048820227 -0.10557604 -0.044572696
0.13485686 -0.109350055 -0.12319399 -0.055325665 -0.07366751 0.004931137 0.072244 0.13685031
0.06423077 0.11501746 -0.06316455 -0.10013095 0.0018227994 0.08608644 -0.08163786 0.12127675
0.00066919625 -0.038606443 -0.12459148 -0.07337811 -0.12035641 -0.022864237 -0.10109705 -0.007202372
0.094396904 -0.068002366 -0.09971459 -0.09819099 -0.07817524 -0.13457187 -0.08171494 -0.13299316
0.043817714 -0.11903872 0.0029051453 0.081550926 -0.042028494 -0.13789272 -0.062400103 0.07959606
-0.0037660897 0.05467397 0.13121866 0.013932493 -0.13181168 -0.042110443 -0.041580357 -0.11552527
-0.031489477 0.049604416 0.107674465 -0.10431343 -0.09998973 -0.03195347 -0.07671641 -0.032953873
0.014515042 -0.10737554 -0.13542074 0.11148967 -0.09622501 -0.017417163 -0.05241488 -0.057897724
-0.0019667298 -0.025951132 -0.051706128 0.014914796 -0.09620073 -0.09380254 -0.03968954 -0.019509315
-0.0023899823 0.013891116 0.11614759 0.12494545 0.02897337 -0.121203616 0.107279405 -0.13265353
-0.05326406 -0.13865584 -0.05597782 -0.08162044 0.025337249 0.07536906 0.12689464 0.10596143
0.085542396 -0.031705894 0.04792793 -0.08871166 0.08032592 0.061160818 -0.025824599 0.072095275
-0.066136755 0.05950831 0.12950923 -0.063806504 0.0607291 0.11165993 0.051503673 0.079483226
0.021817297 -0.095324196 -0.027678385 -0.11626218 0.023550779 -0.06500411 0.055921167 -0.05612454
-0.115052536 -0.118393935 -0.043604136 -0.00038419664 -0.1185881 -0.06327604 0.0023156404 -0.09217719
0.026910737 -0.09967089 -0.12582658 0.13506626 -0.05395467 0.019527152 0.02689907 0.13063835

features.1.bias f4 [100]
00000000: 3ecc c63d a47c 04bc d851 80bd ade8 1bbd
00000010: 94e3 02be c3d4 523e fb49 973e cc40 b93e
00000020: 6e7f 2a3e c323 3e3e 82b0 a1bd 688f 83bd
00000030: c831 063d 6701 08be 727e bfbd ae42 6abd
00000040: 2662 34bd 25ea c03e da45 8e3e 752c 0e3e
00000050: a16a 303e b985 dc3d 1c36 c43e 32d0 e03e
00000060: 8513 153e 4009 9b3b a6c9 a43e 3f49 45bc
00000070: 80e1 29bd abad 053f 4820 7dbc 1452 abbd
00000080: 7cee 873e ce58 6b3e 5374 d8bd 69de dc3e
00000090: 7b5c bb3d 66f7 51bd 3399 133e 65cd a2bd
000000a0: 94ad e23c d784 8e3e c0b6 813e 8a5a 933e
000000b0: a083 f5bc a7f2 9f3e 6801 bfbd 350f fbbd
000000c0: b261 a1bd 3f5e 813e 450f d43e 5434 1abe
000000d0: 31b8 f6bd 3071 d03d dfa3 153e 89fd 323e
000000e0: 1741 0bbe 7894 a93d 3e93 99bd e20f 863e
000000f0: 4b37 093e 0cfd 0fbe 3050 d6bd 33af a0bd
00000100: bef0 533e 6a7b dabd ac6d 2e3e cefd 52bd
00000110: d9a6 c83e 52c2 e43b 50dc d23e 205a cbbd
00000120: 71ed e4bd 0f5d 793e 0474 0fbe 2a51 e3bd
00000130: 623d 12be c049 9b3d 7e31 c8bd 432b f03d
00000140: 63f4 273e 8bd6 1e3e 1d3a 323e 5a68 b4bd
00000150: b7ad cf3d f49c e83d 9b4b 923d b407 86bd
00000160: c3f1 853d 2355 0ebe 8dfb 04be a597 a5bd
00000170: d2cd 0bbe a72e e73e 9e02 d7bd 0b17 343e
00000180: 9af0 c33e 0db6 c9bd 9317 853e 256e a93c
0.09706925 -0.008086357 -0.062656105 -0.038063694 -0.12782127 0.20588975 0.2954863 0.3618225
0.16650173 0.1856833 -0.07894994 -0.06423837 0.03276232 -0.13281785 -0.093502894 -0.057192497
-0.044038914 0.37678638 0.27787668 0.13884147 0.17228176 0.10767693 0.38322532 0.4390884
0.14558227 0.0047313273 0.32185096 -0.012041389 -0.04147482 0.5221812 -0.015449591 -0.083652645
0.26549137 0.22983095 -0.10569062 0.43138435 0.091484986 -0.05126133 0.1441391 -0.07949332
0.02767066 0.27835724 0.2533474 0.28780013 -0.02996999 0.31239817 -0.0932644 -0.1225876
-0.07879962 0.25267217 0.414179 -0.15059024 -0.120468505 0.10177839 0.14613293 0.17479528
-0.13599049 0.08280271 -0.07498787 0.26183993 0.13399999 -0.14061373 -0.10464513 -0.078459166
0.20697305 -0.106680706 0.17034024 -0.05151158 0.39189795 0.0069811726 0.4118371 -0.09929299
-0.11178101 0.24351905 -0.140091 -0.11099465 -0.14281228 0.07582426 -0.09775065 0.117270015
0.1640182 0.15511529 0.17404981 -0.08808966 0.10140555 0.113580614 0.07143327 -0.06544438
0.06540253 -0.13899665 -0.12986584 -0.080855645 -0.13652733 0.4515278 -0.10498546 0.17586915
0.38269502 -0.098491766 0.25994548 0.020682404

classifier.weight f4 [2, 100]
00000000: 0bad 033e b80d 55ba fe7d 4d3c b90e 5dbd
00000010: c9c3 8e3d 939e e6bd 5a2d 913e 4769 a03e
00000020: a9ed 76be 9a9e 7b3e 905a 403d 6d8c 89bc
00000030: b2e8 2d3e 17d3 22bd 390c 44bd 6dc2 9a3d
00000040: e06f 9a3c 22be b5be 816d 913e 975b fdbd
00000050: dabf 193e c78d 40be c3d4 c93e f9bf dbbe
00000060: 2373 13be f3e7 b4bd 085f 8d3e 1ea9 1a3d
00000070: 0456 18bd afee 05bf 5dc4 523d 4e3b 94bd
00000080: c634 b5be de42 60be d069 adbb dfc3 e63e
00000090: c0a0 cfbd 162a 123c 785f 1cbe ce3a 123d
000000a0: e87f 08be 9c6e b13e 7dad a4be ed5a b93e
000000b0: 42d7 1fbd 6e14 cdbe ad94 82bd 9044 0fbd
000000c0: f758 533d 1861 89be da05 a13e e0ef 8abd
000000d0: f46f bdbc 9457 ba3d 44b1 073e 5a4c e9bd
000000e0: 18b5 ecbc 3b5b 11bd 40da 39bd 8b57 823e
000000f0: 2e2c 1b3d 30f3 05bc 080b 563b c7d4 bebd
00000100: 7946 62be 0440 09bd 4e5a 1b3e 008a 573b
00000110: 81a8 cabe 2a44 e2ba 7634 a7be 6e1d b23d
00000120: cc26 8dbc 07fa 62be 98d7 163c b55a 863d
00000130: fa38 c8bd 90dc fb3d 0b2b c13d 2db5 98ba
00000140: 7c06 9bbe 5b8c 2abe 87a2 25be 95d0 b0bd
00000150: 95aa bc3c 89a2 cdbd 2924 a33d 4d5a e33d
00000160: 5bed 193e e6c8 9abd 7aba 7fbd 7a7d 0ebd
00000170: 578d 21bd b736 dc3e c91a 8c3d b4f2 5d3e
00000180: a443 cf3e a2f3 98bd dfce b23e a2c2 4a3c
00000190: d25a 9abc 3488 a53c 7b06 a9bc 0d47 413d
000001a0: 4abc 86bd fbb4 8f3e d0fb bcbe f687 cebe
000001b0: 4d3c 8e3e f5ea c2bd 8487 96bc 83a1 8dbd
000001c0: 5a72 87bd 035d bdbd 7eef 393d ccde ae3c
000001d0: 9ae4 3a3d b62f c03e 21ea 8fbe fdc5 de3c
000001e0: ed40 44be 29bc 203e 4edc d4be 588a fc3e
000001f0: b61f ad3d 030b 34bd 096a d6be 4244 05be
00000200: cba4 b0bd fb5f 093f b3e3 44bd b12c 823d
00000210: 81a8 7e3e 162c a43e b408 b6bc ce79 d2be
00000220: 3661 273d d1aa e43d d127 603e d226 1f3d
00000230: 3a8e 9a3d 23df 4bbe 48d2 a73e b779 88be
00000240: 3a4b 2c3e df42 5b3e 1689 84bd 08b3 c63c
00000250: a64d 92bd e08e 7c3e 4229 fabe 143e 993d
00000260: d013 bdbd 266a 09be 06dd 1ebe 230d 563e
00000270: a08c d33b e968 a4bd a328 45bd 728e 84be
00000280: 022d 5abe f4cf d13c 0b0f a7bd 2037 16bd
00000290: 3641 1b3e 00ba 74b9 b72d 28be e401 f13c
000002a0: 58a2 d63e 2a19 8dbd 52ef fa3e 0456 58bd
000002b0: 88c9 c4bc aef8 a43e ef02 cbbd ec4e 82bd
000002c0: 7ee1 503d 7ece 5dbd 004a 0eb9 9a73 31be
000002d0: 190f 833e f450 9d3e a124 ff3d d3a1 98bd
000002e0: 9bb6 23be 2229 7c3e b1c8 e8bd 7aca d5bb
000002f0: bf19 e1bd 20cc 3cbd 207d efbc fd09 72bd
00000300: da5c 1ebd 11d5 03bf 363c 573d d29f 26be
00000310: adc6 c3be 7dab 9a3d 19bf a3be 5090 91bd
0.1285898 -0.00081273494 0.012542246 -0.05396912 0.06970937 -0.112607144 0.28354913 0.3133032
-0.24114098 0.2457222 0.046961367 -0.016790593 0.16983297 -0.039752092 -0.04786322 0.07556615
0.018852174 -0.35496622 0.28403857 -0.12370985 0.15014592 -0.18804084 0.39420137 -0.429199
-0.1439939 -0.08833303 0.27611566 0.03775894 -0.037191406 -0.5231733 0.051456798 -0.07237874
-0.35391825 -0.21900508 -0.005292155 0.45071313 -0.101380825 0.008921167 -0.15270793 0.03570061
-0.13330042 0.346547 -0.3216361 0.36202183 -0.039023645 -0.4005465 -0.06376014 -0.034977496
0.051598515 -0.2683189 0.31449777 -0.06784034 -0.023124672 0.090987355 0.13251215 -0.11391516
-0.028894946 -0.035487395 -0.045374155 0.25457415 0.03788393 -0.008175656 0.0032660384 -0.09317928
-0.22097196 -0.033508316 0.15171167 0.003288865 -0.39581683 -0.0017262746 -0.32657212 0.086970195
-0.017230414 -0.2216569 0.009206675 0.0656027 -0.097764924 0.12297928 0.09432038 -0.0011650674
-0.30278385 -0.16655104 -0.1617528 -0.08633534 0.023030559 -0.10040767 0.079658814 0.11101208
0.1503195 -0.075578496 -0.062433697 -0.034787633 -0.039441433 0.43010494 0.06841046 0.21674615
0.40481293 -0.07468344 0.34923455 0.012375506 -0.018842135 0.020206548 -0.020632973 0.0471869
-0.06578882 0.28067765 -0.36910868 -0.40338105 0.2778038 -0.09517471 -0.018375166 -0.069155715
-0.06613608 -0.09246256 0.045394413 0.021346472 0.045628168 0.375364 -0.28108314 0.027194018
-0.19165392 0.15696777 -0.4157433 0.49324298 0.08453314 -0.043955814 -0.41877773 -0.1301432
-0.08625182 0.5366208 -0.048068713 0.063561805 0.24868967 0.32064885 -0.022220947 -0.41108555
0.040864192 0.11165393 0.21890189 0.03885538 0.07546659 -0.19909339 0.3277762 -0.2665536
0.16825572 0.21412228 -0.064714596 0.02425529 -0.071437165 0.24663877 -0.48859602 0.074825436
-0.092322946 -0.13419399 -0.15514001 0.20903449 0.006455973 -0.080278225 -0.048134457 -0.25889927
-0.21306232 0.025611855 -0.08157166 -0.036673665 0.15161595 -0.00023338944 -0.16423689 0.029419847
0.41920733 -0.06889565 0.49010712 -0.052816406 -0.024021879 0.32220978 -0.09912669 -0.063627094
0.050996296 -0.054152004 -0.00013569742 -0.17329255 0.25597456 0.30725825 0.12458158 -0.074527405
-0.15987627 0.24625066 -0.11366404 -0.006524381 -0.10991239 -0.046093106 -0.029234469 -0.059091557
-0.03866277 -0.5149699 0.052547656 -0.16271904 -0.38237515 0.0755224 -0.31981733 -0.071076035

classifier.bias f4 [2]
00000000: bcca 4c3c ec78 163d
0.0124995075 0.036736414
