old_paper/ckpt/simple_Conv_100_29.pth (torch, 339425 bytes, 4 tensors)

features.0.weight f4 [100, 1, 29, 29]
000000 bb 13 cf 3c 5c be 14 3d 9c 59 fa 3b 33 bb 0a bc
       0.025277963 0.036314353 0.007640077 -0.008467483
000010 18 48 a8 bc a0 6d 03 bc 93 0d 20 3d bc b7 c3 bc
       -0.02054219 -0.008021742 0.039075445 -0.023891322
000020 6d 51 c7 3c 60 4d 5a 3c c9 3c 06 3d 1e fe e0 3c
       0.024330819 0.013324112 0.032772813 0.027464923
000030 60 6e db ba 90 09 5e 3b 4c a4 ae 3c 8b b7 1e 3d
       -0.0016741268 0.0033880211 0.021318577 0.03874926
000040 ad 4f ca 3c b0 d1 9d bb cc 00 d8 bb f0 44 48 3b
       0.024696195 -0.0048162565 -0.006591892 0.0030558668
000050 d5 8b 9f bc 00 3c d3 b9 08 1f 96 bc 7c 85 8c bc
       -0.019475857 -0.0004028976 -0.018325344 -0.017153494
000060 94 e9 fe 3c 41 88 f3 bb 1d 58 6c bc d6 9c 9f bc
       0.031117238 -0.007432014 -0.014425305 -0.019483965
000070 90 39 f7 3c b0 f0 fd 3c 20 54 ad ba c0 4a 6f 3b
       0.030178815 0.030998558 -0.0013223924 0.003651306
000080 94 d4 1a 3c 32 08 77 bc 9a e4 80 bc fa 79 15 3c
       0.009450097 -0.0150776375 -0.015734006 0.00912332
000090 90 f8 86 3c c6 03 8a bc f8 f9 bb 3b 48 4e 75 bb
       0.016475946 -0.016847502 0.0057365857 -0.0037430692
0000a0 b6 02 85 bc d2 29 cd 3c 43 c6 c8 3c 20 1e 2d 3b
       -0.016236644 0.025044356 0.024508601 0.002641566
0000b0 ce 1b bd 3c 7a 07 b1 bc ba 3c e5 3c f0 0f ba bb
       0.023084547 -0.02161001 0.027983058 -0.0056781694
0000c0 10 28 7a 3b 02 34 b1 3c 63 d0 f3 bb 7c b1 d8 bc
       0.0038170852 0.021631245 -0.007440613 -0.026451819
0000d0 dc 42 8e bb 02 25 6e bc 00 3d 81 39 9a 79 78 bc
       -0.0043414664 -0.014535191 0.00024650246 -0.015165711
0000e0 b2 4c 87 bc 40 74 d8 3a ee 18 40 3c 80 6a 35 bb
       -0.016516063 0.0016514137 0.011724694 -0.0027681887
0000f0 f5 a9 04 3d 3c 7a a3 bb 41 80 11 bc ca 38 8f 3c
       0.032388646 -0.0049889367 -0.008880676 0.017483134
000100 85 0e 1c 3d d4 8d bf bc ff 3c c6 bc 20 c9 08 3b
       0.038099784 -0.023383059 -0.024199007 0.0020871833
000110 c8 79 48 bc ba 74 b5 bc cb a6 1c 3d de 5b fb bb
       -0.012236066 -0.022150386 0.038245004 -0.0076708635
000120 30 9b 9e 3b d9 43 06 bc 7d 87 6c 3c 42 0a 20 bc
       0.004840277 -0.008194887 0.0144366 -0.009768071
000130 f0 6c 82 bb 2f 99 03 3d fa 35 9d bc 90 ca 6b 3b
       -0.0039802715 0.03212851 -0.019190777 0.003597889
000140 f2 17 04 3d 8a ff a1 bc c9 82 22 3d 24 39 b6 bc
       0.0322494 -0.01977517 0.039675508 -0.022244044
000150 2c e0 aa bb 4a e3 82 bc 35 a3 ed bb bb 3b e9 bb
       -0.0052147117 -0.01597752 -0.007252122 -0.007117716
000160 07 05 06 bc b8 07 8c bb d0 a2 83 bc e0 e1 b4 3c
       -0.00817991 -0.004273381 -0.016068846 0.022080362
000170 ab 81 1b 3d 99 fd 11 3d f4 6f 2f bc 30 71 3f 3b
       0.037965458 0.03564224 -0.010707844 0.0029211752
000180 aa 7b 0b 3d e0 1d 95 3c d9 a6 68 3c 78 00 f0 3c
       0.034053482 0.018202722 0.014199936 0.029297099
000190 0c 27 84 bc 40 ea 0d bb fd 56 dc bc 46 5c 01 3d
       -0.0161319 -0.0021654516 -0.026896948 0.03158214
0001a0 3e c0 81 bc 49 74 d2 bc 50 cd d6 bc c2 d4 de bc
       -0.015838739 -0.025690215 -0.026220948 -0.02720106
0001b0 1c eb 52 bc f0 44 7e 3b f3 1d 06 bc 74 a0 02 bc
       -0.012873437 0.0038798414 -0.008185851 -0.007972825
0001c0 18 60 b8 3b b0 e9 97 3b 0f f8 1f 3d 2f bf 82 3c
       0.0056266896 0.004636012 0.039054926 0.015960304
0001d0 9c 70 fe bb ba db bc 3c ae 65 3d bc 1a 7c ea bb
       -0.007764889 0.023053993 -0.011559887 -0.0071559073
0001e0 24 7f 28 bc 6b 50 ce bc 01 f9 05 bc 17 11 ba bc
       -0.010284219 -0.02518483 -0.008177043 -0.022713227
0001f0 80 63 01 3b 4f 4f 6f bc 50 b2 d1 bc 1c 71 cc bc
       0.0019743145 -0.014606311 -0.025597721 -0.024956279
000200 87 71 d1 3c c0 00 70 ba eb bc 92 bc 69 ff 97 bc
       0.02556683 -0.0009155385 -0.017912349 -0.018554406
000210 b3 16 06 bc a0 87 92 3b 5e c4 5a bc 13 92 dc bb
       -0.008184123 0.004471734 -0.013352482 -0.0067312806
000220 fa 26 fe 3c 38 5f b1 bc 88 a6 89 3c dc 14 c1 bb
       0.031024445 -0.02165185 0.016803041 -0.005892379
000230 48 6b 5f 3c 3a a2 09 3d 6a 62 08 3d d7 17 df bb
       0.013636418 0.033601977 0.03329698 -0.006808262
000240 78 f2 b9 3b b5 4d 73 bc a8 a7 21 bc b2 b6 a2 bc
       0.0056746565 -0.01485007 -0.0098666325 -0.019862507
000250 59 a9 6b 3c d4 68 9c 3c 85 43 b0 bc e4 61 d3 bb
       0.014383637 0.019092955 -0.02151657 -0.0064508785
000260 95 f9 b5 bc 7e 7c 89 3c b9 b9 ef bb 38 c7 04 bc
       -0.022213737 0.016782995 -0.007315841 -0.008104138
000270 d8 17 92 bc 45 19 07 bc 10 83 ef 3c ff a0 bf 3c
       -0.017833635 -0.008245771 0.0292373 0.023392199
000280 a0 28 d7 3c df 62 97 3c cc bd 62 bc 84 73 91 bb
       0.026264489 0.018479763 -0.013839196 -0.0044388194
000290 95 76 b8 bc 65 a3 bb bc 5e d3 cf bc 00 9a 62 b9
       -0.022517482 -0.022905061 -0.025369342 -0.00021610409
0002a0 f6 7b 49 bc d9 b6 c7 bc 0d 84 04 bc da a5 0e 3d
       -0.012297621 -0.02437918 -0.008088124 0.034826137
0002b0 fe 1f af bc 5a 50 60 bc a7 fb 1a bc 00 a4 9c 38
       -0.02137756 -0.013691032 -0.009459413 7.469207e-05
0002c0 b0 ff 90 bb f4 18 02 bc ec 73 e0 bc 83 66 1e 3d
       -0.0044250116 -0.00794052 -0.027399026 0.03867198
0002d0 21 39 df bc ee 5f ec bb a0 7a 5a 3c c0 05 d7 3a
       -0.02724892 -0.007213584 0.0133349 0.0016404912
0002e0 80 82 8b 3a 20 7c d2 3b 29 7c cb bc ca d1 d2 bc
       0.001064375 0.0064234883 -0.024839478 -0.0257348
0002f0 49 c4 aa bc 23 29 e0 bc e4 8d 83 bc f6 3e 98 bc
       -0.02084555 -0.027363366 -0.01605887 -0.01858471
000300 b3 ab 1f 3d e4 3b d6 3c fb 0f 1f 3d b9 bc 7f bc
       0.038982105 0.026151605 0.0388336 -0.01560896
000310 85 66 dd bc 65 7c c6 3c 95 dd 66 bc c0 fa 89 bc
       -0.027026424 0.024229238 -0.014090915 -0.0168432
000320 c0 aa 5c bc 3d f1 94 bc 92 44 5b bc 3d 42 1d bc
       -0.013468444 -0.018181438 -0.013383048 -0.009598312
000330 cd bc 24 bc d0 41 05 3b 45 d5 19 3c f4 48 05 3d
       -0.010054779 0.0020333417 0.009389226 0.032540277
000340 40 aa 3e ba b0 81 9f bc 94 bd fa 3b a2 bf f5 bb
       -0.0007273294 -0.01947102 0.007651994 -0.007499651
000350 b2 01 9f bc fd e8 7e bc 8f ca 9f bc e0 3c 49 3b
       -0.019409988 -0.015558478 -0.019505767 0.003070645
000360 1d 8e bd bc bd d0 ff 3b 4b a0 87 bc 40 eb 8f 3a
       -0.023139054 0.007806866 -0.016555926 0.0010980144
000370 89 3f 99 bc 1e 2c 12 3d 9e dc 1e bc 3e 4e f2 3c
       -0.018707054 0.035686605 -0.009696154 0.029578324
000380 2a 58 41 bc 98 ae 91 3b 65 ff 7d bc a8 d7 76 bb
       -0.011800805 0.004445862 -0.015502785 -0.0037665162
000390 aa 5a bc bc dc b8 02 3d b0 cc 61 3b 3e 7a ad bc
       -0.02299245 0.031914577 0.0034454279 -0.021176454
0003a0 8c c2 86 bb d3 b0 12 3c 61 11 d5 bc 00 56 e7 38
       -0.0041125473 0.008953291 -0.026009263 0.00011030957
0003b0 08 35 e4 bc 82 ad 11 3d c4 51 f6 3c fb 6a 24 3c
       -0.027857319 0.03556586 0.030068286 0.010035272
0003c0 44 12 2e bc 00 6c ce 3a b0 b6 e6 bc c4 ea 42 3c
       -0.010624472 0.0015748739 -0.028163284 0.011896793
0003d0 ee 6d d4 3c 02 3d 18 bc 20 c2 bd 3b d5 5d 08 3d
       0.025931325 -0.009291889 0.005790964 0.03329261
0003e0 7b cd b9 bc 80 1a 3b bb 06 75 a4 bc b0 aa 3c 3b
       -0.022680989 -0.002854973 -0.020075332 0.002878826
0003f0 7b 50 1f 3d a0 b5 43 bb ff 92 d1 3c c0 2d e9 ba
       0.03889511 -0.0029862896 0.025582789 -0.0017790124

features.0.bias f4 [100]
000000 2c 48 f7 bb c9 20 54 3c 90 f3 69 3b 24 17 c5 bc
       -0.0075464454 0.01294727 0.0035698153 -0.024058886
000010 34 b7 93 3b 05 e7 cb bc c8 45 08 bd f0 43 6b 3b
       0.0045079235 -0.024890432 -0.033269674 0.0035898648
000020 5d 2f 82 bc 0e bf 09 3d 79 02 60 3e c8 7e b2 bc
       -0.015891725 0.03362947 0.21875943 -0.02178897
000030 2c d6 8f 3b 29 1c 6e 3e 5f 93 1e 3e 6c 08 4f 3d
       0.004389545 0.2325293 0.15485905 0.05054514
000040 20 61 72 3b f0 f7 33 3b 06 1e 9d bc 4a 8f 65 bc
       0.003698416 0.0027461015 -0.019179355 -0.014011214
000050 8e 17 0d bd 6c c4 9a bb 96 e2 85 bc 18 ca ff 3d
       -0.03444629 -0.0047231223 -0.016343396 0.12489718
000060 29 7f fb bc 7e 73 6e bc e5 6c 06 bd a0 48 5e 3b
       -0.030700283 -0.014553903 -0.032818694 0.00339178
000070 c8 7b 0e 3d e6 f2 d5 bc 34 2a 2f 3d 2c ae 04 3b
       0.034786016 -0.0261168 0.042764857 0.0020245416
000080 87 16 c1 3d 72 19 81 bc 4c 7b 87 bc d4 75 04 3e
       0.09428125 -0.015759204 -0.016538285 0.12935573
000090 c2 83 98 bc ec 8f 25 3d dd 17 83 bc 45 65 01 bc
       -0.018617515 0.040420458 -0.01600259 -0.00789768
0000a0 28 b7 a8 bc e1 57 0a 3d 69 32 bc bc fc c3 18 3e
       -0.020595148 0.033775214 -0.022973256 0.14918512
0000b0 a4 12 aa bc dd 63 80 3c 96 de fe 3c 93 93 06 bd
       -0.020760842 0.015672619 0.031111997 -0.03285558
0000c0 c5 4a 3d bc 54 94 5c 3d 18 cf 7c 3a 2f e8 b5 3c
       -0.011553471 0.053852394 0.00096438965 0.02220544
0000d0 10 18 c8 bc 90 14 b6 bc 55 e8 58 3c ff a6 12 3e
       -0.024425536 -0.022226602 0.013238986 0.14321516
0000e0 f8 3f 3b 3b ee 9e 34 3d c7 5b 0e 3e 1e 68 c8 3d
       0.0028572064 0.04409688 0.13902198 0.09785484
0000f0 d5 f8 ea 3d 77 1f d8 bc 15 ac bf bc c2 03 99 bc
       0.11473242 -0.026382191 -0.023397485 -0.01867855
000100 ac 29 a5 bc 5e 34 8c 3d a0 55 af 3b ad ac d2 3d
       -0.020161472 0.06845926 0.0053507835 0.102868415
000110 45 6d 07 3d 05 1e 19 3e 80 4b e7 b9 5f f9 e1 bc
       0.033063192 0.14952858 -0.00044116005 -0.02758473
000120 c2 10 ec 3d d6 2d a4 bc da 93 39 3e 01 31 c5 3d
       0.11526634 -0.020041388 0.18122807 0.096284874
000130 92 57 53 bc 7e 71 02 3d 4a b4 ae bc 3e 25 5d 3c
       -0.012899296 0.031846516 -0.021326203 0.013497649
000140 f8 15 3f bb 44 08 a3 3a 7e 2f b5 3c 10 9b 7c 3e
       -0.0029157382 0.0012438376 0.022117373 0.24668527
000150 42 66 1b 3d 5e d7 5c 3e 2c 2a 89 bc 60 82 f1 3b
       0.037939318 0.21566531 -0.016743742 0.0073702782
000160 16 f8 00 3d fb 75 df 3d 29 bf cd bb 10 06 5e 3a
       0.031486593 0.10911175 -0.0062788916 0.00084695313
000170 be e5 44 bc 8c aa 60 3d 8a 25 16 3e de 2f f9 3d
       -0.012017665 0.054850146 0.14662758 0.12167333
000180 5a 1f f1 bc 6e 63 ec ba 1e ed d3 bc 29 8e 30 3c
       -0.029433895 -0.0018035003 -0.025869902 0.010776081

classifier.weight f4 [2, 100]
000000 ad f8 ed 3d 1e 3a 3f bc 24 40 0c be 80 2b 08 3d
       0.11619697 -0.011671571 -0.13696343 0.03324461
000010 8d 89 0b be 5b d0 06 be ba 01 9e ba a3 a6 19 3e
       -0.1362669 -0.13165419 -0.0012054958 0.15004973
000020 db 41 0f bd 19 5f a3 3d 95 ed c2 3e 8a c9 58 3d
       -0.034974914 0.07977123 0.38071886 0.052926578
000030 71 34 81 bd ce cd d5 3e 26 32 61 3e a3 76 81 be
       -0.063088305 0.4175858 0.21991786 -0.25285825
000040 01 6f 0a be 8f 51 e1 3b 00 e3 d8 bc e4 ae 0b bd
       -0.13518907 0.0068761776 -0.02647543 -0.034102336
000050 05 68 eb bb 4a 5f dd 3d 7c 2c a3 3d 33 5f 4c 3e
       -0.007184031 0.108091906 0.07967469 0.1995819
000060 a6 01 c6 bd 20 af 18 be 37 61 85 3b 4b 2d 49 bd
       -0.09668283 -0.14910555 0.004070427 -0.04911546
000070 5a 97 2c 3e 41 97 44 bd e9 5d 50 be 38 c4 ee bd
       0.16854611 -0.04799581 -0.20348324 -0.116585195
000080 55 5c 3e 3e e2 e1 3a 3d a8 85 c0 3d 06 86 6f 3e
       0.1858991 0.045625575 0.09400493 0.2339097
000090 31 fd 17 be 93 c3 de 3d 26 4b 48 bd 86 e2 2b 3d
       -0.14842679 0.108771466 -0.048899792 0.041964076
0000a0 b1 3a cd bd 8e 9d f0 3d b4 23 2f 3d 34 05 71 3e
       -0.1002096 0.11748801 0.04275866 0.23537141
0000b0 d1 1e 13 3c 4b a2 93 3d 16 e8 0e be fb b0 8b 3d
       0.008979515 0.07208689 -0.13955721 0.06820866
0000c0 2e 2b 49 3d b1 ed 71 be 04 59 42 3d d7 05 33 3d
       0.049113445 -0.23625828 0.047448173 0.04370674
0000d0 06 a1 b8 bd 9e b9 ae bc e1 b7 97 3d 12 b1 7f 3e
       -0.09015088 -0.021328744 0.07408119 0.2496989
0000e0 30 d9 f5 bb 3e 25 93 3d 95 d8 86 3e a6 ff 4a 3e
       -0.0075026974 0.07184838 0.26337114 0.19824085
0000f0 c0 c0 35 3e 03 a0 6b 3d 1e 75 a2 3d 50 20 0b 3d
       0.1774931 0.057525646 0.079324946 0.033966362
000100 d4 cc e4 bd 42 c3 a4 be d0 81 2e 3d 44 98 06 3e
       -0.1117188 -0.3218022 0.042604268 0.13144022
000110 6e aa a7 bd f4 49 97 3e a3 1f 00 bd 1a b1 88 3c
       -0.08186804 0.2954861 -0.03128017 0.016686011
000120 f3 b9 57 3e 86 f0 af bd 6b 3c 9b 3e a0 2b 2f 3e
       0.21067028 -0.08590798 0.30319533 0.17106485
000130 39 7e df bd b7 2a 94 3d 53 f8 c6 bc d8 89 48 bd
       -0.10912747 0.0723471 -0.024288332 -0.048959583
000140 e1 2b 86 3d ed b9 49 3d e9 94 04 3e 5d f8 d9 3e
       0.06551338 0.04924958 0.1294743 0.425723
000150 f4 5e 0b be ae a2 bd 3e 49 63 fb bc ba 67 d6 bd
       -0.1361044 0.37038177 -0.030686991 -0.10469003
000160 f5 7b 30 be f9 78 39 3e d4 ef 50 3c e5 eb 59 3d
       -0.17234786 0.18112554 0.012752492 0.053203482
000170 5b ff 6f bd 19 c9 37 be d8 b6 8b 3e 8f 29 23 3e
       -0.058593135 -0.17947806 0.27287936 0.15933822
000180 f1 d1 fe 3c a1 69 88 bd 44 b2 40 bc 8a a0 3c bd
       0.031105967 -0.06660772 -0.011761252 -0.04605154
000190 a3 92 3f bd f6 7c af bd e4 8b 8f 3c 1e 7f bb 3d
       -0.046770703 -0.08568756 0.01752276 0.09155105
0001a0 7b 03 43 3d a7 76 bc 3d 6e 9a 10 3d f9 0a d1 bd
       0.04761074 0.09202319 0.035303526 -0.10207171
0001b0 e1 14 19 3d f1 48 03 be 9c 99 b6 be d5 3d 90 bd
       0.037373427 -0.12820794 -0.3566407 -0.070430435
0001c0 3e ae 31 3d d1 b3 c2 be 43 79 8a be f0 39 04 3e
       0.04337906 -0.38027814 -0.2704564 0.12912726
0001d0 62 a5 bc bc b1 98 0c 3e 3f 4e 26 bd 5b 34 40 3d
       -0.02302808 0.13730122 -0.040601965 0.04692493
0001e0 ff 0c 3b bd de ac 1e 3c 48 96 1c bd 18 c8 3f be
       -0.04566669 0.009684769 -0.038229257 -0.18728673
0001f0 77 be 5c 3c 0b 81 22 3e 81 0c 03 bc 1a e3 f2 3d
       0.013473145 0.15869538 -0.007998587 0.118597224
000200 38 8b 43 bd 68 e3 12 bd 7d df d8 3d 42 3c 6f bd
       -0.04774019 -0.035861403 0.10589502 -0.058407076
000210 58 c8 c3 bd 70 a4 69 3d 98 d9 08 be 20 53 2a be
       -0.09559697 0.057041585 -0.13364255 -0.16633272
000220 d8 7b 03 3e fe 17 0e be 86 52 4b bd 5f 0c a7 3d
       0.12840211 -0.1387634 -0.049639247 0.081566565
000230 70 d9 51 3d c4 a0 af bd fa 2a 3c bd 6f 78 71 be
       0.051232755 -0.085755855 -0.045939423 -0.23581098
000240 94 b2 c7 bd 22 0c 5e bc 61 58 8a 3d d9 3f 88 3d
       -0.09750858 -0.013552697 0.06755138 0.06652803
000250 02 ee c2 3c c5 88 32 3e a9 38 e0 3d 21 ba b6 bd
       0.023795132 0.17434986 0.10948307 -0.0892222
000260 c7 69 86 3c 97 3a ad bd 50 f4 e8 b9 33 b2 4d be
       0.01640786 -0.08458441 -0.00044432515 -0.20087509
000270 df 6f ff 3d 41 ff 41 be f1 09 30 be e0 cf c1 bd
       0.124725096 -0.18945028 -0.17191292 -0.09463477
000280 10 3b 32 be 51 f3 2a 3d ea dc a7 3d 01 1b 60 bb
       -0.17405343 0.04173595 0.08196433 -0.0034195783
000290 ca 16 6d 3d c2 21 73 3e f4 85 0c 3e 1d 35 37 be
       0.05788306 0.23743346 0.13722974 -0.17891355
0002a0 6e 78 0a 3e ac 16 36 be 8f 67 c3 3c be 8c 20 bd
       0.13522503 -0.17782086 0.023853092 -0.039196722
0002b0 60 a4 11 be 81 10 84 3d 02 dd 92 be 12 8b f3 bd
       -0.1422286 0.0644846 -0.2868424 -0.1189176
0002c0 98 17 3b bd 3f f7 0a be 98 e8 00 3d 09 e6 0a be
       -0.045676798 -0.1357088 0.03147182 -0.13564314
0002d0 07 3f cf bd d1 37 b8 3d e2 f7 6f bb c9 3a da be
       -0.101194434 0.08995021 -0.0036616256 -0.42622975
0002e0 cd 46 fc 3d 09 ac b6 be 45 5f 4b ba 41 90 95 3d
       0.12318192 -0.35678127 -0.0007758032 0.07302905
0002f0 2a 75 fe 3c 4f e9 1c be 59 e8 e7 3c 70 d5 d0 3d
       0.031061728 -0.15323375 0.028309034 0.1019696
000300 f3 c5 10 3d 2a 0e 77 3e 95 58 42 be b1 65 5b be
       0.03534503 0.24126497 -0.18979104 -0.21425511
000310 ad 2f bc ba 66 08 27 bd f2 5e 67 bb 6d 70 ce bd
       -0.001435747 -0.040779494 -0.0035304395 -0.10080037

classifier.bias f4 [2]
000000 94 94 6f be 95 f1 c3 3e
       -0.23396522 0.3827025
