old_paper/ckpt/simple_FC_100_25.pth (torch, 253013 bytes, 4 tensors)

features.1.weight f4 [100, 625]
0	0xbd229182	-0.03968955
1	0xbccbd948	-0.024883881
2	0xbd185ec4	-0.03719975
3	0x3c96654a	0.018358845
4	0xbced3a0c	-0.028958343
5	0x3cb19dc0	0.021681666
6	0xbcd2ca96	-0.025731366
7	0x3c99d9ee	0.018780675
8	0x3cffef90	0.031242162
9	0xbc887a59	-0.016659902
10	0xbc71abe6	-0.014750456
11	0x3a7fefc0	0.00097632036
12	0x3c47f4bc	0.012204345
13	0xb9942f80	-0.0002826415
14	0x3b2650e0	0.0025377795
15	0xbba87ad0	-0.0051415935
16	0xbae11cc0	-0.0017174706
17	0xbbcf7790	-0.0063313916
18	0xbcc56354	-0.024095215
19	0xbc067e28	-0.008208789
20	0x3ce76198	0.028244779
21	0xbc2b1b7a	-0.010443563
22	0x3d153088	0.036423236
23	0xbbd69408	-0.0065484084
24	0xbcab9b97	-0.020948214
25	0x3c7517a8	0.014959253
26	0x39b9ed80	0.000354629
27	0xbca9b7b8	-0.020717487
28	0x3b6a4d40	0.003575161
29	0xbc8a992b	-0.01691874
30	0xbd0655fc	-0.032796845
31	0xbd10028a	-0.03515867
32	0xbcea25d4	-0.028582491
33	0x3c8a2d28	0.016867235
34	0xbc85a247	-0.016312731
35	0x3cce6790	0.025195867
36	0xbcd401ca	-0.02587976
37	0x3d209e82	0.039213665
38	0x3cd208b0	0.025638908
39	0x3bf57d68	0.007491756
40	0xbcc424b0	-0.023943275
41	0x3c05b0d0	0.008159831
42	0xbd0b9d4e	-0.034085564
43	0xbd0a29c0	-0.033731222
44	0x3c23f7a0	0.010007769
45	0xbce9e39c	-0.028550915
46	0x3bfa8ec0	0.0076464117
47	0xbcfddb08	-0.030988231
48	0xbcee884f	-0.029117731
49	0xbc86946e	-0.016428199
50	0xbcc496a1	-0.023997607
51	0x3cc8d7a0	0.02451688
52	0x3cc43284	0.023949869
53	0x39d0ae80	0.00039802864
54	0xbbe63770	-0.0070256516
55	0x3c3d14dc	0.011540618
56	0x3bf0d0d8	0.007349115
57	0xbcf59861	-0.029979886
58	0xbc1ba3c2	-0.009499492
59	0x3d1d9d54	0.038480118
60	0x3bdf2b70	0.006810598
61	0x3c872884	0.016498812
62	0xbc6e680a	-0.014551172
63	0x3c49f2a4	0.012325916
64	0xbcc2f9e4	-0.023800798
65	0xbb9073c0	-0.0044083297
66	0xbcb50be4	-0.022100396
67	0xbd11f324	-0.035632268
68	0x3c2fc638	0.010728411
69	0x3c5aa0a0	0.01334396
70	0xbbfaf270	-0.0076582953
71	0xbcc4bb0f	-0.024014978
72	0x3bbfbe88	0.0058515705
73	0xbc8586e9	-0.016299682
74	0xbab32f00	-0.0013670623
75	0xbd0dfae1	-0.034663085
76	0xbd07a5a2	-0.033116944
77	0xbd1803f0	-0.03711313
78	0x3cbd8d28	0.023138598
79	0x3cca288c	0.024677537
80	0xbd0acfe5	-0.03388967
81	0x3c712b80	0.014719844
82	0xbcf0559e	-0.0293377
83	0xbce63e61	-0.028105916
84	0x3c97351a	0.018457938
85	0x3c2970b8	0.010341816
86	0xbc672d84	-0.014109973
87	0xbb8e9318	-0.004351031
88	0x3cc7209c	0.024307542
89	0xbcc843f0	-0.024446458
90	0x3bfe5378	0.007761415
91	0xbccc5a82	-0.024945501
92	0x3b9fead0	0.0048802868
93	0x3a94a240	0.0011339858
94	0x3bdba788	0.006703321
95	0xbc82425c	-0.015900783
96	0x3d19a694	0.037512377
97	0x3c23da88	0.010000832
98	0xbcb48b8a	-0.022039194
99	0x3cb8638c	0.022508405
100	0xbc57b9a4	-0.013166819
101	0x3ceae95c	0.028675728
102	0x3bdc2cc0	0.006719202
103	0x3ba8c898	0.0051508658
104	0x3caad4d4	0.020853437
105	0x3b1c8f20	0.002388902
106	0xbc548b3e	-0.012972651
107	0x3cc54610	0.02408126
108	0xbcc4132e	-0.023934927
109	0x3d227a56	0.03966745
110	0x3c18238c	0.009285819
111	0xbb8b8650	-0.0042579547
112	0xbb1df660	-0.002410315
113	0x3c0e4db8	0.008685522
114	0xbb086ba0	-0.0020816103
115	0xbc365bbe	-0.0111302715
116	0x3cf42b44	0.029805787
117	0x3b159ca0	0.0022828951
118	0x3691c000	4.3436885e-06
119	0x3d032d42	0.032025583
120	0xbd17cb61	-0.03705919
121	0x3d1a5a2a	0.037683643
122	0x3ca7415e	0.020416912
123	0x3d16a4fe	0.036778443
124	0x3d0dbe04	0.03460504
125	0x3c9a3b7e	0.018827196
126	0x3d0ac350	0.03387767
127	0xbc35e6ec	-0.011102419
128	0x3c1f07e0	0.009706467
129	0xbc8a6be1	-0.016897144
130	0xbcef6a36	-0.02922545
131	0x3d16f12c	0.036851093
132	0x3cb3c09a	0.021942426
133	0x3ca41cfe	0.020033356
134	0xbcf271d2	-0.02959529
135	0xbc0a0e0c	-0.008426201
136	0xb7e9f800	-2.7891248e-05
137	0x3b558000	0.0032577515
138	0xbc77c742	-0.01512319
139	0x3d18793c	0.037224993
140	0xbc5ac2d6	-0.013352117
141	0xbb92c798	-0.00447936
142	0xbcaf6afd	-0.02141332
143	0x3cecaaa8	0.028889969
144	0x3bde63c0	0.0067867935
145	0x3c3c5ae8	0.011496283
146	0x3c9692cc	0.018380545
147	0x3cb5c0f6	0.022186738
148	0x3d1c9d68	0.03823605
149	0xbc5691d6	-0.013096293
150	0x3d17e8cc	0.037087247
151	0xbb743230	-0.003726136
152	0xbd082de6	-0.033246897
153	0xbb5b7af0	-0.0033490025
154	0x3c7f77b8	0.015592508
155	0x3cba21b4	0.022721149
156	0x3bb59008	0.0055408515
157	0x3c96d828	0.018413618
158	0xbc36897a	-0.011141175
159	0x3c317bd0	0.010832742
160	0x3c42062c	0.011842292
161	0xbd20ba87	-0.039240386
162	0xbcca902b	-0.024726948
163	0x3c7c5770	0.015401706
164	0x3d19f2ac	0.037584946
165	0x3c7c0974	0.015383113
166	0x3cc6af60	0.024253547
167	0x3d19257e	0.03738927
168	0xbc5964b8	-0.013268642
169	0xbc7d339e	-0.015454201
170	0x3c84416e	0.01614448
171	0xbc6d0a1a	-0.01446774
172	0xb952c100	-0.00020099059
173	0x3d1430dc	0.03617941
174	0xbccdc333	-0.025117492
175	0xbcb57c61	-0.022154035
176	0xba694500	-0.00088985264
177	0x3cf5e2b8	0.030015334
178	0xbbb06e20	-0.0053842217
179	0xbd106a5e	-0.03525769
180	0x3c30a65c	0.010781851
181	0xbc8a1902	-0.016857628
182	0x3cd5d7fc	0.026103966
183	0x3ce4e148	0.027939454
184	0x3d1d1b54	0.03835614
185	0x3b0027c0	0.0019554943
186	0x3c7b545c	0.015339937
187	0x3cd708d0	0.02624932
188	0x3ca46d28	0.020071581
189	0x3ce14634	0.027499296
190	0x3c76c0ec	0.015060645
191	0x3ccc4708	0.024936214
192	0xbc28765c	-0.010282125
193	0x3c9d2cd0	0.019186407
194	0xbc649528	-0.013951577
195	0xbc9e3994	-0.019314565
196	0xbcf21d45	-0.029554972
197	0xbcc87c14	-0.024473228
198	0xbd069d2d	-0.03286474
199	0xbd06e9e4	-0.0329379
200	0x3ce768d0	0.02824822
201	0x3ce29bec	0.02766224
202	0xbcc6c469	-0.024263578
203	0x3bdd6f68	0.0067576654
204	0x3b566ef0	0.0032719932
205	0xbcb623b8	-0.022233829
206	0x3c3f7d5c	0.011687603
207	0xbca589a1	-0.020207228
208	0xbd0c6daa	-0.03428427
209	0xbd0d1498	-0.034443468
210	0x3bda3690	0.0066593364
211	0x3d13098c	0.035897776
212	0xbd1c4d72	-0.038159795
213	0x3d19b468	0.037525564
214	0x3ba74d20	0.0051056296
215	0x3c5d1bc8	0.013495393
216	0x3b9e6940	0.004834324
217	0x3ca960e8	0.020676091
218	0x3b3d7a30	0.002891194
219	0xbcb70a02	-0.02234364
220	0xbcc0e2fd	-0.023545736
221	0x3cfb7b2c	0.030698381
222	0xbcef5fee	-0.029220548
223	0x3bb4f7b8	0.0055226944
224	0x3d11cc98	0.035595506
225	0x3ced94c0	0.029001594
226	0x3c2364e8	0.009972788
227	0xbd0f3759	-0.034964893
228	0x3d1e8fec	0.038711473
229	0xbcff6330	-0.031175226
230	0x3cfc97ac	0.030834042
231	0x3c9c22d0	0.019059569
232	0xbc1411c8	-0.0090374425
233	0x3cb4632c	0.022019945
234	0xbcdc2545	-0.02687324
235	0xbc906a4a	-0.017628808
236	0x3bfcca28	0.0077145286
237	0x3d14bafa	0.036311127
238	0xbd0c2c9c	-0.03422223
239	0x3d15e86c	0.036598608
240	0xbb3d3d60	-0.0028875694
241	0xbc0d5e60	-0.008628458
242	0xbace12e0	-0.0015722178
243	0xbbfbbb20	-0.007682219
244	0xbbdeab48	-0.0067953207
245	0x3d209e84	0.039213672
246	0xbbf32278	-0.0074198805
247	0x3cee1b08	0.029065624
248	0xbcf50a28	-0.02991207
249	0xbce161b6	-0.027512413
250	0x3c459844	0.012060229
251	0x3ce73714	0.028224505
252	0x3c282be0	0.010264367
253	0x3ce368b4	0.027759887
254	0xbc53c932	-0.012926387
255	0x3be95a88	0.007121388

features.1.bias f4 [100]
0	0x3e5c3a78	0.21506679
1	0xbd0ba579	-0.034093354
2	0xbcb24ffd	-0.021766657
3	0x3e6c17bb	0.23055927
4	0xbcfc6238	-0.030808553
5	0x3e7ee0c8	0.24890435
6	0x3ea628a8	0.32452893
7	0x3e9b984a	0.30389625
8	0x3dcd2ab7	0.10017913
9	0x3e3772d3	0.17914896
10	0x3e08d778	0.13363445
11	0xbc92d290	-0.01792267
12	0x3d513da8	0.05108419
13	0xbcfc9178	-0.030831084
14	0x3eca38f6	0.39496583
15	0x3e33321b	0.17499582
16	0x3e962fc5	0.2933332
17	0xbc511f80	-0.012763858
18	0xbc8f2769	-0.017474847
19	0xbd010350	-0.0314973
20	0x3ed9844d	0.4248375
21	0x3e2b6558	0.16737878
22	0x3e6b9365	0.23005445
23	0x3e1965d5	0.14980252
24	0x3e2c0449	0.1679851
25	0xbb88cc58	-0.0041747503
26	0x3ebe4eee	0.37169594
27	0x3e3d7851	0.18502928
28	0xbd1a7a0f	-0.03771406
29	0xbcf31c24	-0.029676504
30	0xbc8465fd	-0.016161913
31	0x3dd41e9e	0.10357402
32	0xbc96842e	-0.018373575
33	0x3ed94650	0.42436457
34	0xbc455b8b	-0.012045751
35	0xbc9657fb	-0.0183525
36	0xbd200bc5	-0.039073724
37	0x3e605e1d	0.21910901
38	0x3f0bbfd9	0.5458961
39	0x3da3bc7b	0.07994934
40	0x3d61f005	0.05516054
41	0xbd0f1254	-0.03492959
42	0x3ea0a87a	0.31378537
43	0xbc55c9c5	-0.013048594
44	0xbd21b579	-0.039479706
45	0x3f12361a	0.571138
46	0x3db65174	0.08902255
47	0xbd281737	-0.041037764
48	0x3dd97931	0.106188186
49	0xbc76f368	-0.015072681
50	0xbd1f3892	-0.03887231
51	0x3dc4a2d5	0.0960137
52	0x3e32adfd	0.17449184
53	0xbd022281	-0.031771187
54	0xbcecb8eb	-0.02889677
55	0xbccf33f4	-0.025293328
56	0x3eb704d9	0.35745886
57	0x3e2b4dde	0.16728923
58	0xbc979b28	-0.018506601
59	0x3edfd11b	0.43714222
60	0xbcee1fdc	-0.029067926
61	0x3e6c6be8	0.23088038
62	0x3da3201e	0.0796511
63	0xbcacb04a	-0.021080155
64	0x3eb564e2	0.3542853
65	0xbd06407d	-0.032776345
66	0x3e752a8c	0.23942012
67	0x3e9477ef	0.28997752
68	0xbcd03d26	-0.025419783
69	0xbd0565fd	-0.032567967
70	0xbc982a2a	-0.018574793
71	0xbcfd7cb0	-0.030943245
72	0x3eb01055	0.3438746
73	0xbc0e2000	-0.008674622
74	0x3dca2947	0.09871154
75	0xbc507610	-0.012723461
76	0xbd224478	-0.03961608
77	0x3e13b66c	0.14425057
78	0xbd04e4cd	-0.032444764
79	0x3e045bb8	0.12925613
80	0xbd1ff1f8	-0.03904912
81	0xbb6a2d50	-0.0035732575
82	0x3ebdea9a	0.3709305
83	0x3e3787d9	0.17922916
84	0xbd1a31a6	-0.037645005
85	0xbd0c39b8	-0.034234732
86	0x3ecea777	0.4036214
87	0xbc033e04	-0.008010391
88	0x3e3f1e49	0.18663897
89	0xbcf2d599	-0.029642867
90	0x3e8ac46d	0.27102986
91	0x3d8baa6a	0.06819613
92	0xbd0a02ab	-0.03369395
93	0x3e694655	0.22780736
94	0x3e60412a	0.21899858
95	0xbcadea26	-0.021229815
96	0x3dca831f	0.098882906
97	0x3dd11f09	0.102109976
98	0xbcb6a81c	-0.022296958
99	0xbd12d98b	-0.035851996

classifier.weight f4 [2, 100]
0	0x3e4adea3	0.19811492
1	0x3d9febd1	0.0780865
2	0xbcf451f8	-0.029824242
3	0x3e3257cf	0.17416309
4	0xbd8e4a1e	-0.069477305
5	0x3e86ecb8	0.26352477
6	0xbeb46fa6	-0.3524143
7	0xbe9b9668	-0.30388188
8	0xbdc0493a	-0.09388967
9	0xbe3841bb	-0.17993824
10	0xbe2b62d8	-0.16736925
11	0xbda7409e	-0.081666216
12	0x3d090d98	0.03346023
13	0xbdb05810	-0.086105466
14	0x3ebb8389	0.3662379
15	0xbe0281f0	-0.1274488
16	0xbe8acf28	-0.27111173
17	0x3dc1980f	0.09452831
18	0x3c6c99c0	0.014440954
19	0x3d908298	0.07056159
20	0xbed95652	-0.4244867
21	0xbe5630cb	-0.2091705
22	0xbe461dfb	-0.19347374
23	0xbe1c6ad9	-0.15275134
24	0x3e1d2e5c	0.15349716
25	0xbd712d70	-0.058881223
26	0xbed6ea16	-0.41975468
27	0x3e900fcc	0.28137052
28	0x3cbee6d8	0.023303434
29	0xbcf1be0c	-0.029509567
30	0xbd5fc0ba	-0.054627158
31	0xbda4da89	-0.08049495
32	0x3d464036	0.04840108
33	0x3ef06d1d	0.46958247
34	0x3bf9e542	0.0076262066
35	0x3b900360	0.0043949336
36	0xbbb5b080	-0.005544722
37	0xbe22009b	-0.15820543
38	0x3f0f2d86	0.5592884
39	0xbd265273	-0.040605973
40	0x3defbe96	0.11706273
41	0x3d01431e	0.03155815
42	0x3e8afa34	0.27144015
43	0xbd33cb84	-0.04389526
44	0xbd8386be	-0.064221844
45	0x3f0f5ae0	0.5599804
46	0x3d2908aa	0.04126803
47	0x3db8143d	0.08988235
48	0x3e393de5	0.18090017
49	0xbd9a1d09	-0.07525069
50	0x3bbc3c81	0.0057445173
51	0x3c5f0bf1	0.013613687
52	0xbdd616e0	-0.10453582
53	0x3d767bc2	0.06017662
54	0x3d79ba4e	0.06096869
55	0x3da7b1f3	0.08188238
56	0xbec14cfc	-0.37754047
57	0xbe26db9d	-0.16294713
58	0x3dba5650	0.09098494
59	0x3eee98e4	0.4660102
60	0x3cc9c9d8	0.02463238
61	0x3e8509f2	0.2598415
62	0xbd43813b	-0.047730666
63	0x3c1d0580	0.009583831
64	0x3ebf1917	0.3732383
65	0xbda41a68	-0.08012849
66	0x3e9ff39c	0.31240547
67	0xbeb3ab4c	-0.35091627
68	0x3da71359	0.08157987
69	0xbca1e3a0	-0.01976186
70	0x3cbffa0e	0.023434665
71	0x3c60e1d0	0.013725713
72	0xbeb5192e	-0.35370773
73	0x3d95654f	0.07294714
74	0xbe031218	-0.12799871
75	0x3db2d1a9	0.08731396
76	0x3d33207a	0.043732144
77	0xbe0d74de	-0.13814113
78	0x3c197bd8	0.009367906
79	0xbda899ac	-0.082324356
80	0xbc60f240	-0.013729632
81	0xbc26e12c	-0.010185521
82	0xbec296db	-0.3800572
83	0x3e3430f8	0.17596805
84	0x3d0299fa	0.031885125
85	0x3d56498e	0.05231624
86	0xbee1fe70	-0.44139433
87	0x3c3ed4a8	0.011647381
88	0xbe427641	-0.18990423
89	0x3d691b66	0.056910895
90	0xbe9116d0	-0.28337717
91	0xbe0d3cb5	-0.13792689
92	0x3c390540	0.011292756
93	0xbe839aa9	-0.25703934
94	0xbe7ba4f4	-0.24574643
95	0x3d032442	0.032017
96	0xbdb4c978	-0.088274896
97	0x3e2b0e23	0.16704611
98	0x3cf7a6b4	0.030230857
99	0x3cb7d914	0.022442378
100	0xbe72cfc0	-0.23712063
101	0xbd514b60	-0.051097274
102	0xbcac9ac8	-0.0210699
103	0xbe9cb5ea	-0.3060754
104	0xbdc3ab30	-0.09554136
105	0xbe83d733	-0.2575012
106	0x3ebe06ce	0.37114567
107	0x3ea8a0f2	0.32935292
108	0x3df382a3	0.11890151
109	0x3e4afb91	0.19822527
110	0x3ddc37a3	0.10752799
111	0xba917c24	-0.0011099619
112	0xbd9d3571	-0.07676209
113	0x3c8c31f4	0.017113663
114	0xbee19cae	-0.4406485
115	0x3e68868e	0.22707579
116	0x3eae9ca5	0.34103885
117	0x3db928a1	0.090409525
118	0xbcbbe914	-0.022938289
119	0xbdb9b806	-0.09068303
120	0x3efb45e7	0.4907677
121	0x3e0baf66	0.13641128
122	0x3e98d575	0.29850355
123	0x3e18e8af	0.14932512
124	0xbe4231fb	-0.18964379
125	0x3bb72c7a	0.005590019
126	0x3ecceffa	0.40026838
127	0xbde90d51	-0.11379493
128	0xbb4c7560	-0.003119789
129	0xbd983e30	-0.07433736
130	0xbca103a0	-0.019655049
131	0x3e442a7b	0.1915683
132	0x3c8c5440	0.017130017
133	0xbec50c85	-0.38486114
134	0xbc784af6	-0.015154591
135	0xbda66e1a	-0.08126469
136	0x3d68972a	0.056784786
137	0x3e94fd65	0.29099575
138	0xbf0f7447	-0.560368
139	0x3e183adf	0.14866208
140	0x3c9176cb	0.01775684
141	0x3d52f772	0.051505513
142	0xbebcf269	-0.36903694
143	0x3ad11538	0.0015951758
144	0xbc89b8f4	-0.016811825
145	0xbf19c64a	-0.6006819
146	0xbe15d24d	-0.14631005
147	0xbd5a41d6	-0.053285442
148	0xbd2a8d03	-0.041638386
149	0xbda0c538	-0.078501165
150	0xbd8028e6	-0.06257801
151	0xbe3fbf6f	-0.1872537
152	0x3e7c8e93	0.24663763
153	0xbd2e4963	-0.042550456
154	0xbcb814f8	-0.022470936
155	0xbd131c9d	-0.03591596
156	0x3ec2a66e	0.380176
157	0x3e423770	0.1896646
158	0x3cac20a4	0.021011658
159	0xbed2e485	-0.41189972
160	0x3daf01c9	0.08545262
161	0xbe5d2261	-0.21595146
162	0x3de94fca	0.11392172
163	0x3d509c36	0.050930224
164	0xbebcb603	-0.36857614
165	0x3d3c2df8	0.045942277
166	0xbe42114c	-0.1895191
167	0x3e827b7a	0.2548483
168	0xbc50d740	-0.012746632
169	0x3d101cc6	0.03518369
170	0x3c5712b3	0.013127017
171	0x3c513ea8	0.012771286
172	0x3ec9b332	0.39394528
173	0x3d23dc1a	0.040004827
174	0x3dcbbe0b	0.09948357
175	0xbdb97013	-0.090545796
176	0x3ca39cc8	0.01997222
177	0x3e4d8dff	0.20073698
178	0x3d2ad97a	0.041711308
179	0x3e497671	0.19674088
180	0x3da9e7df	0.08296179
181	0x3cfafeee	0.030639138
182	0x3ecfa033	0.4055191
183	0xbe3da59e	-0.18520209
184	0xbdb5d227	-0.08877974
185	0xbd8deb9d	-0.06929705
186	0x3ec614a8	0.38687634
187	0xbca32398	-0.019914433
188	0x3e4b51cb	0.1985542
189	0xbda62925	-0.081133164
190	0x3e98a5ca	0.29813987
191	0x3bb292a5	0.0054496103
192	0xbd448a27	-0.047983315
193	0x3e8c4cda	0.27402383
194	0x3e45c4fc	0.19313425
195	0xbd8703ed	-0.06592546
196	0x3e139765	0.14413221
197	0xbd0f449e	-0.034977548
198	0x3c936e80	0.017997026
199	0x3db77d33	0.08959427

classifier.bias f4 [2]
0	0x3e1c08f0	0.15237784
1	0xbe54f3b9	-0.20796098
