old_paper/ckpt/simple_Conv_100_17.pth (torch, 118625 bytes, 4 tensors)

features.0.weight f4 [100, 1, 17, 17]
0	0x3c8957c4	0.016765483
1	0xbd644e34	-0.055738643
2	0x3c88e30b	0.016709825
3	0xbd81de85	-0.0634127
4	0xbd6c3675	-0.05766912
5	0x3c2f19e7	0.010687328
6	0xbcf8dd0d	-0.030378843
7	0x3c6030dd	0.013683525
8	0x3c89c681	0.016818287
9	0x3c4f62aa	0.012657801
10	0x3c5b7ae5	0.013396
11	0xbd5b7484	-0.053577915
12	0x3b00fab0	0.0019680671
13	0x3c2b8301	0.0104682455
14	0x3cfbf79b	0.030757716
15	0x3c897648	0.016780034
16	0x3bc0f626	0.005888718
17	0xbc530a45	-0.012880866
18	0x3c632289	0.013863214
19	0x3cd0d1ac	0.025490604
20	0x3ccd8862	0.025089446
21	0x3c6d9438	0.01450067
22	0x3cff00fd	0.031128401
23	0x3c5941eb	0.013260345
24	0xbc57afb3	-0.013164449
25	0x3cd38316	0.025819343
26	0xbda3f485	-0.08005623
27	0x3ced5196	0.028969567
28	0xbd8245ea	-0.06360991
29	0x3c62d829	0.013845482
30	0x3c4666e9	0.012109497
31	0xbd895e3a	-0.067074254
32	0xbd9d705c	-0.076874465
33	0x3d02294b	0.03177766
34	0x3c89fa78	0.016843066
35	0xbda43ff4	-0.080200106
36	0x3c2d909f	0.010593562
37	0xbc36a359	-0.011147344
38	0xbcf31b6f	-0.029676167
39	0x3c5fb8e3	0.01365492
40	0xbd78d033	-0.06074543
41	0x3c1db0b5	0.00962465
42	0x3c60ba8b	0.01371635
43	0xbd010603	-0.031499874
44	0x3c9547b9	0.018222677
45	0x3c631d07	0.013861901
46	0xbd2e8ba8	-0.042613655
47	0xbd9968b8	-0.07490677
48	0xbd58c482	-0.05292178
49	0xbda57127	-0.08078223
50	0xbd9ee1d4	-0.07757917
51	0x3ca76d97	0.020437999
52	0x3c62a12b	0.013832371
53	0x3c9ea1cd	0.019364262
54	0xbd0f3b2b	-0.034968536
55	0x3c3e743e	0.011624394
56	0xbd6c5087	-0.057693984
57	0x3c5f9dd1	0.013648466
58	0x3c632a1b	0.013865019
59	0xbcbdecfa	-0.023184288
60	0xbdaacdd1	-0.083400376
61	0xbc0b2609	-0.008492955
62	0x3c09889d	0.008394388
63	0x3c59a895	0.013284822
64	0xbda00e92	-0.07815279
65	0xbd88570f	-0.0665723
66	0xbd82869a	-0.063733295
67	0xbd8b3779	-0.0679769
68	0x3cee4e69	0.029090123
69	0xbda4c8cc	-0.080461115
70	0x3c5b145d	0.013371554
71	0xbb203040	-0.0024442822
72	0xbd4fb7b0	-0.050712287
73	0xbc688756	-0.014192423
74	0x3d056d5d	0.032575
75	0x3c6245f9	0.013810628
76	0x3c9a0605	0.018801698
77	0x3c30d935	0.010793974
78	0xbc4401a1	-0.011963279
79	0xbbf49e80	-0.0074651837
80	0xbbd7f752	-0.006590762
81	0x3c4b7ef4	0.012420405
82	0xbd8b00b8	-0.067872465
83	0xbda28296	-0.079350635
84	0xbc8aca2d	-0.016942108
85	0x3cf7e31d	0.030259663
86	0xbc20daa2	-0.009817751
87	0x3bab08a6	0.005219537
88	0x3ca7b7f3	0.020473456
89	0x3c28e8dd	0.010309425
90	0x3b81afa8	0.0039577074
91	0x3be9e26d	0.0071375878
92	0xbc93400b	-0.017974874
93	0x3cc7ac75	0.024374226
94	0x3c45f3ef	0.012082084
95	0xbd9d2d2b	-0.07674631
96	0xbd9bb4cb	-0.07602843
97	0xbd754460	-0.05987966
98	0xbccc9723	-0.024974411
99	0xbc6e931a	-0.014561439
100	0x3c5e997b	0.013586397
101	0x3c92b9d9	0.017910885
102	0xbb9db8da	-0.004813296
103	0x3c62aea9	0.013835588
104	0xbc219282	-0.00986159
105	0x3bc08b26	0.005875963
106	0xbcb9e729	-0.022693234
107	0xbb99f632	-0.004698538
108	0xb906f500	-0.00012870505
109	0xbd91b295	-0.0711414
110	0x3ca8eadb	0.0206198
111	0xbc5542d3	-0.01301642
112	0xbd122b16	-0.03568562
113	0xbc12b7f5	-0.008954992
114	0xbcb06302	-0.021531586
115	0x3cef0dbd	0.029181356
116	0xbd9d1983	-0.076708816
117	0x3c91c012	0.017791782
118	0xbc67692c	-0.014124196
119	0x3c5fe633	0.013665724
120	0x3ce6f751	0.028194102
121	0x3c954cbd	0.018225068
122	0x3c4f05d2	0.012635665
123	0x3cd6d3c2	0.02622402
124	0xbd63dc6c	-0.055630133
125	0x3b8ef566	0.00436275
126	0x3c1f4a45	0.009722297
127	0x3c157d75	0.00912415
128	0x3cdd1e5c	0.026992016
129	0xbd85d852	-0.065354005
130	0xbc054982	-0.008135201
131	0x3c88038d	0.016603256
132	0xbd780289	-0.060549293
133	0xbdac4d56	-0.08413188
134	0xbd886f15	-0.06661812
135	0x3ccff134	0.02538357
136	0xbc3be065	-0.011467074
137	0xbccbb809	-0.024868028
138	0x3cffe371	0.031236382
139	0xbd758c87	-0.05994847
140	0x3be19ef6	0.0068854047
141	0xbcb15c40	-0.021650434
142	0x3c0a713d	0.00844985
143	0xbda85140	-0.08218622
144	0x3bfc5e16	0.0077016456
145	0x3c2c22d1	0.010506348
146	0xbd4fd39f	-0.050738927
147	0x3cde8530	0.027163118
148	0xbc323c9d	-0.010878709
149	0xbd702145	-0.05862548
150	0x3a5c3cc0	0.00084013864
151	0xbd8031f6	-0.06259529
152	0xbd5ac43f	-0.05340981
153	0xbd670f0b	-0.05641083
154	0xbd7e4427	-0.062076714
155	0x3bfa7d46	0.0076443283
156	0xbd779071	-0.060440484
157	0x3c5fd15d	0.013660756
158	0xbd7b4931	-0.061349098
159	0xbd98469d	-0.074353434
160	0x3c1036fd	0.008802173
161	0xbd83d6f1	-0.06437481
162	0xbda97820	-0.08274865
163	0xbcb9ac0b	-0.022665044
164	0x3cc1c30d	0.023652578
165	0x3c9a2435	0.018816093
166	0x3c62cb57	0.013842425
167	0xbda5a81b	-0.08088704
168	0xbbba4daa	-0.005685528
169	0xbd870b88	-0.06593996
170	0x3c6b3086	0.014354831
171	0xbbafe262	-0.005367563
172	0xbbea5432	-0.00715115
173	0xbc913fbc	-0.017730586
174	0x3c6337f3	0.01386832
175	0xbd9725cf	-0.07380258
176	0xba7ed000	-0.00097203255
177	0xbc50d5b4	-0.012746263
178	0xbd7b1fb5	-0.061309535
179	0x3cc86238	0.024460897
180	0x3c751103	0.014957669
181	0x3c5fd241	0.013660968
182	0xbc550077	-0.013000599
183	0xbc8272a3	-0.015923804
184	0xbbdab022	-0.0066738287
185	0xbd8eae6e	-0.069668636
186	0xbd75eeb9	-0.060042117
187	0xbc78f9d2	-0.015196281
188	0x3c329b1f	0.010901242
189	0xbc74e406	-0.014946943
190	0x3c3aa6e6	0.011392331
191	0x3cebb1ce	0.028771307
192	0x3cdbf508	0.026850238
193	0x3cd70102	0.026245598
194	0x3bc07bd6	0.0058741374
195	0xbda7552b	-0.081705414
196	0x3c8e86fa	0.017398346
197	0x3bae40e6	0.005317795
198	0x3c9ea367	0.019365026
199	0x3c96c76d	0.01840564
200	0xbd7b023c	-0.061281428
201	0xbd4f0df8	-0.05055043
202	0xbda2e7ea	-0.0795439
203	0x3c62728f	0.013821258
204	0x3c45668d	0.012048376
205	0xbd95f033	-0.07321205
206	0xbc004bd8	-0.007830583
207	0x3c351b4c	0.011053871
208	0x3bc20ff6	0.005922313
209	0xbcd59ab7	-0.02607475
210	0x3d06834d	0.032840062
211	0x3c9e8c69	0.019354062
212	0xbda49eaf	-0.08038079
213	0xbd9c8a87	-0.076436095
214	0x3b074330	0.0020639412
215	0xbc113dfd	-0.008864877
216	0xbc21d8b6	-0.009878328
217	0xbd803dfe	-0.06261824
218	0xbc5f1365	-0.013615464
219	0xbd93b8b3	-0.07212963
220	0xbcb625bd	-0.022234792
221	0x3c29e565	0.010369633
222	0xbbf8b558	-0.0075899772
223	0xbd578e27	-0.0526258
224	0xbc0de03d	-0.00865942
225	0xbda6b713	-0.081403874
226	0xbd862be4	-0.0655134
227	0x3cf4d0fc	0.029884808
228	0x3c6b0a9a	0.014345789
229	0xbd9ccddd	-0.07656453
230	0x3c957251	0.018242987
231	0x3c8dff9e	0.017333802
232	0x3c998b10	0.018743068
233	0x3cdc86a8	0.026919678
234	0x3c1c620d	0.0095448615
235	0x3d002b0c	0.031291053
236	0x3bb47486	0.0055070547
237	0xb9aabe00	-0.00032566488
238	0xbdaadd03	-0.08342936
239	0xbd9da582	-0.07697584
240	0x3ca874ef	0.02056357
241	0xbc878689	-0.016543644
242	0xbc4a3328	-0.012341298
243	0xbd80cab8	-0.062886655
244	0xbd92d5c5	-0.071696796
245	0xbb3df8d0	-0.0028987415
246	0xbd9c9aff	-0.07646751
247	0x3c71e8d1	0.01476498
248	0x3c177915	0.009245177
249	0x3c9209a6	0.017826866
250	0x3c9c6a8b	0.019093772
251	0x3c89ef3f	0.016837714
252	0xbcbaee31	-0.022818657
253	0x3c87838b	0.016542217
254	0x3c983f20	0.018584788
255	0xbd8329a3	-0.06404426

features.0.bias f4 [100]
0	0xbc74368a	-0.014905581
1	0xbc7a3ac0	-0.015272796
2	0x3bb46e59	0.0055063185
3	0xbd4bee94	-0.049788073
4	0xbd4665dd	-0.04843699
5	0xbc2719b1	-0.010198996
6	0xbd3e9eaa	-0.046538033
7	0xbd551bfb	-0.052028637
8	0x3e339d64	0.17540509
9	0x3e19450e	0.14967749
10	0xbc7b1820	-0.015325576
11	0xbd681dee	-0.05666917
12	0xbcf47716	-0.02984194
13	0xbd073add	-0.03301512
14	0xbd1303c8	-0.035892278
15	0x3d8a1a23	0.067432664
16	0x3e3f84c7	0.18702994
17	0xbd49444b	-0.049137395
18	0xbd09e2f5	-0.03366371
19	0xbcf5c24f	-0.02999988
20	0x3e0ab0fc	0.13544077
21	0x3def4f38	0.11685032
22	0xbcf6ca46	-0.030125748
23	0x3dd6c6dc	0.10487148
24	0xbd4e4201	-0.050355915
25	0xbcde8baa	-0.027166206
26	0x3e0ba015	0.13635285
27	0xbc647752	-0.013944464
28	0xbc0841ba	-0.008316452
29	0x3c963251	0.01833454
30	0x3e39e801	0.18154909
31	0x3d92593f	0.071459286
32	0xbd6fa6b0	-0.058508575
33	0xbd07fe28	-0.033201367
34	0xbccf5121	-0.02530724
35	0xbc951fe6	-0.018203687
36	0x3dd6b0b4	0.10482922
37	0x3a61adb4	0.00086089526
38	0xbd29d410	-0.041462004
39	0xbd1b1ffc	-0.0378723
40	0x3d91d239	0.07120175
41	0x3d0fd913	0.035119127
42	0x3d5c06c4	0.05371739
43	0xbd145a6a	-0.036219038
44	0x3d889cb6	0.06670515
45	0x3dd654c4	0.104653865
46	0x3e0cb49d	0.13740773
47	0xbd0fc0a9	-0.035095844
48	0x3d85cad8	0.0653283
49	0xbcec56f8	-0.028850064
50	0xbd0b2e19	-0.03397951
51	0x3ddeed12	0.10885061
52	0x3db3ae8a	0.08773525
53	0x3e013a4f	0.12619899
54	0x3e0eff08	0.13964474
55	0x3e45d3e1	0.19319107
56	0x3cc200dc	0.02368205
57	0x3ce6da32	0.028180216
58	0xbc9f3de9	-0.0194387
59	0xbd45ace8	-0.0482606
60	0xbd472bf2	-0.048625894
61	0x3d097493	0.03355844
62	0xbd666d89	-0.056256805
63	0x3d68aa27	0.056802895
64	0xbd0fe810	-0.03513342
65	0xbcd8d1ed	-0.026467288
66	0x3d9b8de3	0.07595422
67	0x3da6e0bd	0.08148334
68	0x3e186d25	0.14885385
69	0xbd54c703	-0.051947605
70	0x3e2de28c	0.16980952
71	0x3db1301e	0.08651756
72	0x3d94870f	0.07252323
73	0x3e92ead7	0.28694794
74	0xbd32ff00	-0.04370022
75	0xbd396130	-0.0452587
76	0xbc8f81a8	-0.01751788
77	0xbc307cab	-0.010771911
78	0xbd13f22e	-0.036119632
79	0x3d09e7c0	0.03366828
80	0x3d525095	0.05134638
81	0x3ddf3702	0.10899164
82	0x3c12d19c	0.008961108
83	0xbc518175	-0.012787213
84	0xbd69c576	-0.05707308
85	0x3d2c7cd0	0.042111218
86	0xbbca4cfb	-0.0061737276
87	0x3d64e1e0	0.055879474
88	0x3e16ce9c	0.14727253
89	0x3e67a9ae	0.22623321
90	0xbd6a7c79	-0.057247613
91	0xbd7075c3	-0.058706056
92	0xbce117a0	-0.027477086
93	0x3e4dd461	0.20100547
94	0x3da95272	0.08267678
95	0xbd2e6dc5	-0.042585153
96	0xbcff3c35	-0.031156639
97	0xbd292892	-0.041298456
98	0xbd0a9ce3	-0.033841025
99	0xbcbaad56	-0.022787731

classifier.weight f4 [2, 100]
0	0xbe27aaa9	-0.16373695
1	0x3e117aab	0.1420695
2	0x3c978a75	0.018498639
3	0x3d4c16bf	0.04982638
4	0xbd8cf828	-0.068832695
5	0xbe2c8184	-0.16846281
6	0xbd9c945a	-0.07645483
7	0x3c8dd45a	0.017313171
8	0xbeff6de6	-0.49888533
9	0x3ed4a116	0.4152915
10	0xbd8b94f5	-0.06815521
11	0xbd80f855	-0.062973656
12	0x3ddf7617	0.10911196
13	0x3d4543d9	0.048160408
14	0xbdd8c58e	-0.105845556
15	0xbe732d72	-0.23747805
16	0xbefe504b	-0.49670634
17	0xbd1d8bf7	-0.03846356
18	0x3e000c03	0.12504582
19	0x3e039304	0.12849051
20	0x3ee7523e	0.45179933
21	0x3e94f4a6	0.29092902
22	0xbd4a9905	-0.049462337
23	0xbe9c4ec1	-0.30528834
24	0x3d891771	0.06693924
25	0xbe0975c2	-0.13423827
26	0xbeafa743	-0.34307298
27	0x3d530cf4	0.051526025
28	0x3df41f70	0.11920059
29	0xbe0cd726	-0.13753948
30	0xbf0b692b	-0.5445735
31	0x3e87dc36	0.26535195
32	0xbd3e37fe	-0.046440117
33	0xbac2c274	-0.0014858977
34	0xbe117d79	-0.1420802
35	0xbd0118d6	-0.031517826
36	0xbea1f2f8	-0.31630683
37	0x3e34dc63	0.17662196
38	0x3d3f2e2d	0.046674896
39	0xbd81f8e4	-0.063463
40	0x3e111580	0.14168358
41	0x3da43720	0.08018327
42	0x3e1197be	0.14218041
43	0xba29a27a	-0.0006471049
44	0xbe846090	-0.2585492
45	0x3ea57c3f	0.32321355
46	0xbee2070d	-0.44146004
47	0x3d8205e6	0.06348781
48	0xbe8e97ec	-0.27850282
49	0x3b57b6cb	0.003291535
50	0x3e1458cf	0.14487003
51	0x3e978e5c	0.296008
52	0xbe92acbc	-0.2864741
53	0xbeba57f4	-0.36395228
54	0x3ec8654b	0.3913978
55	0x3f1ac38d	0.60454637
56	0xbe41a814	-0.18911773
57	0xbe21a29b	-0.15784685
58	0xbd397f57	-0.045287456
59	0xbb48fee9	-0.0030669516
60	0xbc5bc9e3	-0.013414833
61	0x3d2f175f	0.042746898
62	0xbd783409	-0.0605965
63	0xbe768a08	-0.24076092
64	0x3d833629	0.064068146
65	0x3da205ff	0.079113
66	0xbe6756cc	-0.22591704
67	0x3e936b87	0.28792974
68	0xbee001cd	-0.43751374
69	0xbd307d8c	-0.04308848
70	0x3ee02c10	0.43783617
71	0xbe80f479	-0.25186518
72	0xbe18c6c4	-0.14919573
73	0x3f6af22b	0.9177577
74	0xbc1f1e45	-0.009711807
75	0x3da14237	0.078739576
76	0xbda70ab1	-0.08156336
77	0x3dd5f751	0.104475625
78	0x3e1cb133	0.15301971
79	0xbe07a13c	-0.132451
80	0x3df8eee3	0.12154939
81	0xbeaeea56	-0.3416316
82	0x3d174437	0.03693029
83	0x3cbf1754	0.023326553
84	0xbbc91a4a	-0.006137167
85	0xbe1e0b2e	-0.15433952
86	0x3d2dbfe6	0.042419337
87	0x3e049b5f	0.12949894
88	0x3edc95ba	0.43082982
89	0xbf2bebbb	-0.6715657
90	0x3d9df303	0.077123664
91	0x3d183fa3	0.037170064
92	0xbe2bc203	-0.16773228
93	0x3f2845c6	0.65731466
94	0x3e86d9f7	0.2633817
95	0xbb4c28b0	-0.0031152181
96	0xba07938f	-0.0005171829
97	0x3debd269	0.11514742
98	0xbd6f834a	-0.058474816
99	0x3c786936	0.015161803
100	0x3e2821d9	0.16419162
101	0xbe25e850	-0.16201901
102	0x3dd92a79	0.10603804
103	0xbca623e9	-0.020280795
104	0xbdcca8ea	-0.09993155
105	0x3d61b621	0.055105332
106	0xbdb840e8	-0.08996755
107	0xbda2eff7	-0.07955926
108	0x3f09047d	0.53522474
109	0xbee41b85	-0.44552246
110	0x3d298d45	0.04139449
111	0xbd525d1f	-0.05135834
112	0x3d187995	0.037225325
113	0xbdb18f46	-0.08669905
114	0x3b44d73d	0.0030035519
115	0x3e8b4a7e	0.2720527
116	0x3f181548	0.5940747
117	0xbdc4a339	-0.09601445
118	0xbdc186f8	-0.09449571
119	0xbe0e85c5	-0.13918217
120	0xbe9f1a59	-0.3107479
121	0xbec8eab8	-0.39241576
122	0x3d2187f0	0.03943628
123	0x3e9cee52	0.30650574
124	0x3d427d80	0.047482967
125	0xbd1265a2	-0.035741456
126	0x3ed32453	0.4123865
127	0xbdb75587	-0.0895186
128	0xbe0fef89	-0.14056219
129	0x3a81abb6	0.0009893093
130	0x3f04610e	0.51710594
131	0xbe5c3dac	-0.21507901
132	0xbced4eac	-0.028968178
133	0xbdc1f7b5	-0.094710745
134	0x3e235832	0.15951613
135	0xbdc79f8d	-0.09747229
136	0x3e93930b	0.28823122
137	0xbe53bf8a	-0.20678535
138	0x3d39994a	0.045312203
139	0x3dbdd12f	0.09268414
140	0xbea7c584	-0.3276788
141	0xbe14c753	-0.14529161
142	0xbe5b408c	-0.21411341
143	0xbbb63cb4	-0.0055614356
144	0x3e578285	0.21045883
145	0xbe9b7300	-0.30361176
146	0x3ec31a06	0.38105792
147	0xbe1beadf	-0.15226315
148	0x3e272049	0.1632091
149	0xbd9986d1	-0.07496417
150	0xbe0d61a5	-0.1380678
151	0xbeb1022c	-0.3457197
152	0x3e8b38c8	0.27191758
153	0x3ebdb156	0.3704936
154	0xbed3a02c	-0.4133314
155	0xbf14dbe0	-0.58148
156	0x3e2bf5f6	0.16793045
157	0x3ce00a81	0.027348759
158	0xbc913e10	-0.017729789
159	0x3dc63e1e	0.09679817
160	0xbdcb6839	-0.09931988
161	0xbe338e86	-0.17534837
162	0xbd857307	-0.0651608
163	0x3e13e6ee	0.14443561
164	0xbdf9d939	-0.12199635
165	0x3cac136c	0.021005355
166	0x3e7eafb2	0.2487171
167	0xbe5847bc	-0.21121114
168	0x3eeaec5a	0.45883447
169	0xbdd11389	-0.10208804
170	0xbf173be2	-0.5907575
171	0x3e9093c8	0.28237748
172	0x3e90f32a	0.2831052
173	0xbf617457	-0.88068146
174	0x3dcaec6d	0.09908376
175	0xbd6ac998	-0.05732116
176	0xbd3790ee	-0.04481595
177	0x3c834649	0.016024726
178	0xbdb541a5	-0.08850411
179	0x3db9b1f3	0.09067144
180	0xbe5244f5	-0.20534118
181	0x3e9e34ee	0.30899757
182	0xbd713c93	-0.05889566
183	0x3df1189f	0.11772274
184	0xbbf00487	-0.0073247585
185	0x3e0ade54	0.13561374
186	0xbe01fca0	-0.12694025
187	0xbe3e77da	-0.18600407
188	0xbed4924f	-0.41517875
189	0x3f308472	0.68952096
190	0x3d952959	0.07283277
191	0xbc1a6336	-0.009423068
192	0x3df26850	0.11836302
193	0xbf13fddf	-0.5780925
194	0xbe80cd0f	-0.25156447
195	0xbd6e42b3	-0.058169078
196	0x3e1164dd	0.14198633
197	0xbdecbe38	-0.11559719
198	0xbd71f7e6	-0.059074305
199	0x3e06f73b	0.13180248

classifier.bias f4 [2]
0	0xbdbabac3	-0.09117653
1	0x3e02f5c0	0.12789059
