old_paper/ckpt/simple_Conv_100_15.pth (torch, 93025 bytes, 4 tensors)

features.0.weight f4 [100, 1, 15, 15]
0.0071530715 -0.043747835 0.081897914 0.0035792664 -0.044153165 0.036795653 0.005412936 0.028223956
0.08886618 0.008024223 -0.008178171 -0.04315896 0.048875805 0.08610753 0.023386866 -0.04501291
0.0778407 0.042836986 0.08530137 -0.0334858 -0.0068449117 -0.044154923 -0.04233065 0.07755142
0.021524616 -0.012072325 -0.014354158 0.08016889 -0.043914776 0.01845266 0.015361659 0.016450137
-0.04424454 -0.04218648 0.013436586 0.02236358 -0.041978907 -0.045741387 -0.04504313 -0.04263313
-0.039003722 0.08907787 0.021108486 -0.0057843775 0.049973276 0.07624464 0.027960459 -0.02030081
-0.022618644 0.035998035 -0.03641452 0.04944441 -0.045448866 -0.045396775 -0.04210816 0.013802014
-0.039602622 -0.008042321 0.02205836 -0.04520202 -0.031142993 -0.044071436 -0.040634044 0.0189218
0.005410053 -0.0029527768 -0.041276656 0.04303206 -0.04410164 -0.04432457 -0.011938993 -0.03732511
-0.005676817 0.011398815 -0.0036738366 -0.041923497 -0.044969942 0.037140124 0.033468697 0.037456855
0.005179286 -0.043861035 -0.022029527 -0.026595157 0.024576887 0.084266 0.009915732 -0.034744896
-0.033933192 0.026039198 0.07552068 0.047580592 0.03504313 0.030651854 -0.035427038 0.049936857
-0.020218097 -0.0073277727 0.030122506 0.025840685 -0.043915093 0.036705043 -0.015877016 0.042866357
0.08845078 -0.016024955 0.011770941 0.015693083 0.020361982 -0.013816804 0.027757632 -0.044281512
-0.032572545 -0.0047095306 -0.008113328 -0.0073182657 -0.044649314 0.033525478 -0.024206288 0.04964346
0.018644169 -0.013445426 0.039090917 -0.0418594 0.02958175 -0.018334396 0.0010473952 -0.042547595
-0.0032374412 0.033735033 -0.035701092 0.021574385 0.0136708245 -0.012918815 -0.03602044 -0.024953153
0.025946476 -0.043914616 -0.03267006 -0.0455904 0.010536976 -0.013549376 -0.00031562895 -0.044067856
-0.04559518 0.012108475 0.014568701 0.021223411 -0.017114695 -0.045845855 -0.03629632 -0.019362934
0.012149766 -0.0059378855 0.03848981 0.0084451735 0.013346463 -0.00929394 -0.03928956 -0.038516417
-0.04213557 -0.04418323 0.016194806 -0.0017506406 0.088372566 -0.036034163 0.022468932 -0.04571127
-0.043177564 -0.041761722 -0.043609258 -0.045336053 0.018435903 0.01842761 0.077295035 -0.008224536
-0.027195368 0.030995013 -0.043010812 -0.043909684 -4.5903027e-05 -0.02154661 -0.04565125 -0.011735566
-0.021651015 -0.04556431 -0.04280174 -0.0020069554 -0.0036718473 -0.044168394 0.06749331 -0.016684376
-0.04391366 -0.01634273 0.07647853 -0.044074453 -0.011178996 -0.027230233 0.05254683 -0.02457339
-0.029403372 0.008279838 0.08189433 0.077817574 -0.044122666 -0.032918897 0.04522449 -0.012465589
-0.043915734 -0.04391567 -0.018388852 0.08260868 0.061848804 -0.040948242 -0.007461317 0.076135576
-0.020794887 0.009313129 0.08784487 -0.016375247 0.04628209 -0.043059684 -0.042703647 -0.042400125
0.014260851 -0.07577465 -0.08260651 -0.07418126 0.01919726 -0.08391232 -0.083406895 -0.045704342
-0.083957516 -0.07942798 0.018260216 -0.09661041 -0.07549313 0.003056507 -0.08766582 -0.047939252
-0.021196436 -0.009412586 -0.07802241 -0.09306703 0.012534854 -0.0030302582 -0.090393744 -0.08089118
-0.08213539 -0.058962747 -0.082498804 -0.075722925 -0.07356853 -0.073829636 0.02063114 -0.07862632
00000000: 5064 ea3b ee30 33bd 18ba a73d 2092 6a3b
00000010: f3d9 34bd 0ab7 163d 005f b13b ed35 e73c
00000020: 79ff b53d 0878 033c bcfd 05bc 73c7 30bd
00000030: ff31 483d 2559 b03d d095 bf3c 755f 38bd
00000040: f26a 9f3d d675 2f3d 7cb2 ae3d 6828 09bd
00000050: 484b e0bb cbdb 34bd e762 2dbd 47d3 9e3d
00000060: 6454 b03c 00cb 45bc b42d 6bbc 962f a43d
00000070: fbdf 33bd 082a 973c 78af 7b3c 70c2 863c
00000080: c339 35bd bbcb 2cbd 2025 5c3c d433 b73c
00000090: 13f2 2bbd 525b 3bbd 257f 38bd 14a0 2ebd
000000a0: 5ec2 1fbd 756e b63d b4eb ac3c e08a bdbb
000000b0: c7b0 4c3d 2626 9c3d 550d e53c e24d a6bc
000000c0: bc4a b9bc ad72 133d 6427 15bd 3986 4a3d
000000d0: 9728 3abd f8f1 39bd 9b79 2cbd d821 623c
000000e0: 5c36 22bd f0c3 03bc bcb3 b43c c125 39bd
000000f0: 971f ffbc 4084 34bd e26f 26bd e401 9b3c
00000100: d046 b13b 6083 41bb b611 29bd 6342 303d
00000110: eca3 34bd ae8d 35bd c49b 43bc 37e2 18bd
00000120: 9804 babb 18c2 3a3c c0c4 70bb f9b7 2bbd
00000130: 6732 38bd 3e20 183d 7916 093d 5c6c 193d
00000140: 00b7 a93b a1a7 33bd 4477 b4bc 16de d9bc
00000150: 7855 c93c a793 ac3d 9875 223c aa50 0ebd
00000160: 88fd 0abd 2850 d53c 96aa 9a3d dee3 423d
00000170: 6389 0f3d 9919 fb3c f11b 11bd 978a 4c3d
00000180: 6ca0 a5bc d01d f0bb 79c3 f63c d8af d33c
00000190: 50e0 33bd 0758 163d 8410 82bc a294 2f3d
000001a0: af25 b53d c446 83bc e8da 403c c88e 803c
000001b0: 2cce a63c e05f 62bc f963 e33c 8860 35bd
000001c0: ca6a 05bd 6852 9abb c4ed 04bc 10ce efbb
000001d0: 33e2 36bd 0352 093d 444c c6bc f156 4b3d
000001e0: a8bb 983c 344a 5cbc cc1d 203d c374 2bbd
000001f0: 6d55 f23c 0432 96bc c048 893a 6346 2ebd
00000200: 402b 54bb bf2d 0a3d 4f3b 12bd c4bc b03c
00000210: 98fb 5f3c 70a9 53bc 2b8a 13bd 8e6a ccbc
00000220: b48d d43c d0df 33bd 0ad1 05bd 00bd 3abd
00000230: 48a3 2c3c 34fe 5dbc 007b a5b9 7f80 34bd
00000240: 03c2 3abd a062 463c 90b1 6e3c b8dc ad3c
00000250: 1e34 8cbc ddc8 3bbd 73ab 14bd 049f 9ebc
00000260: d00f 473c 9892 c2bb 7ea7 1d3d a05d 0a3c
00000270: 20ab 5a3c 9c45 18bc 17ee 20bd 64c3 1dbd
00000280: 5996 2cbd 79f9 34bd f8aa 843c c075 e5ba
00000290: adfc b43d 8f98 13bd c410 b83c be3b 3bbd
000002a0: f5da 30bd 570e 2bbd 9f9f 32bd 4cb2 39bd
000002b0: e406 973c 80f5 963c dc4c 9e3d 34c0 06bc
000002c0: d2c8 debc 41e9 fd3c 1b2c 30bd a4da 33bd
000002d0: 0088 40b8 8482 b0bc cefc 3abd 8846 40bc
000002e0: 785d b1bc a4a1 3abd e150 2fbd 2087 03bb
000002f0: 60a3 70bb ebe9 34bd ef39 8a3d acad 88bc
00000300: cfde 33bd 30e1 85bc c7a0 9c3d 6a87 34bd
00000310: 1c28 37bc f011 dfbc 583b 573d 224e c9bc
00000320: 57df f0bc 28a8 073c 37b8 a73d d25e 9f3d
00000330: f8b9 34bd f7d5 06bd 513d 393d 783c 4cbc
00000340: fce0 33bd ebe0 33bd 38a4 96bc bd2e a93d
00000350: 2c55 7d3d 58b9 27bd 107e f4bb f8ec 9b3d
00000360: 0a5a aabc 1896 183c 03e8 b33d 6225 86bc
00000370: 4a92 3d3d 5a5f 30bd 05ea 2ebd c1ab 2dbd
00000380: 58a6 693c bd2f 9bbd 9a2d a9bd 58ec 97bd
00000390: 9243 9d3c 39da abbd 3cd1 aabd 7a34 3bbd
000003a0: ebf1 abbd 23ab a2bd 7396 953c aedb c5bd
000003b0: 249c 9abd ae4f 483b 238a b3bd f35b 44bd
000003c0: 26a4 adbc 3f37 1abc 37ca 9fbd ed99 bebd
000003d0: fd5e 4d3c 4c97 46bb 5b20 b9bd 46aa a5bd
000003e0: 9936 a8bd ec82 71bd 22f5 a8bd 9f14 9bbd
000003f0: 19ab 96bd fe33 97bd a302 a93c d606 a1bd

features.0.bias f4 [100]
-0.043920357 0.09471151 0.12825991 0.087009944 0.06718519 -0.04096998 0.23567666 0.0828049
0.081435114 0.14420845 -0.047393702 0.0906858 -0.060450297 -0.013090546 -0.011087168 -0.024250817
-0.0058047627 0.08179884 -0.023505604 0.22452053 0.10496725 0.070966244 0.07385872 0.11134977
0.060014453 -0.05613693 -0.021276277 -0.038123835 0.18219191 -0.064511806 0.14702842 -0.06635111
-0.053511724 0.16770959 0.07836081 -0.033683673 0.010300094 -0.065117426 -0.044164658 0.1011664
0.04748282 0.09241825 0.1383469 0.078693904 -0.036962938 0.25687364 -0.04259026 -0.03053216
0.13111897 0.12206695 0.059456028 -0.043644916 -0.036093093 0.026804706 0.124842696 0.15101662
0.17256239 0.096023194 0.12614249 0.08747727 -0.013277214 0.14559218 0.052747283 0.16705021
0.13782562 0.08226793 0.15517452 -0.033065405 0.016169364 -0.011527398 0.09667102 -0.052483123
0.14072514 -0.05584979 -0.016779933 0.14302267 0.02027225 -0.020687217 -0.050876096 -0.024733353
-0.038555406 0.21279366 0.24713536 0.079041116 -0.05222775 -0.032037094 0.12165771 -0.04687166
0.084961265 -0.05173681 0.13116463 -0.016453804 0.1235683 0.21791802 0.021982456 0.36341032
0.15195993 0.08842846 0.08076492 0.107584774
00000000: d5e5 33bd 1cf8 c13d 9156 033e 4532 b23d
00000010: 6498 893d 23d0 27bd 3955 713e 9e95 a93d
00000020: 74c7 a63d 61ab 133e e61f 42bd 7ab9 b93d
00000030: bb9a 77bd bb79 56bc f4a6 35bc a6a9 c6bc
00000040: e135 bebb 2686 a73d d38e c0bc b6e8 653e
00000050: 12f9 d63d c056 913d 3e43 973d 590b e43d
00000060: b7d1 753d d6ef 65bd 964b aebc bd27 1cbd
00000070: 8490 3a3e c41e 84bd 9e8e 163e 17e3 87bd
00000080: 1c2f 5bbd 10bc 2b3e a27b a03d e4f7 09bd
00000090: bac1 283c 495c 85bd 00e6 34bd 5430 cf3d
000000a0: 587d 423d c845 bd3d cfaa 0d3e 452a a13d
000000b0: 7366 17bd f184 833e 2073 2ebd 951e fabc
000000c0: 0d44 063e 3dfe f93d 2a88 733d 03c5 32bd
000000d0: 5ad6 13bd 8b95 db3c 87ad ff3d 1aa4 1a3e
000000e0: 32b4 303e cfa7 c43d 7f2b 013e 4827 b33d
000000f0: ac88 59bc 1e16 153e 890d 583d 360f 2b3e
00000100: 2922 0d3e 177c a83d 12e6 1e3e 976f 07bd
00000110: 9d75 843c 69dd 3cbc 75fb c53d 8bf8 56bd
00000120: 401a 103e c0c2 64bd 1276 89bc 8974 123e
00000130: fd11 a63c 3d78 a9bc 7463 50bd 9a9d cabc
00000140: 46ec 1dbd 95e6 593e 0d11 7d3e 4fe0 a13d
00000150: c4ec 55bd 5439 03bd ad27 f93d 7ffc 3fbd
00000160: 2c00 ae3d fae9 53bd 0550 063e 21ca 86bc
00000170: 6011 fd3d e725 5f3e 8d14 b43c eb10 ba3e
00000180: 629b 1b3e fb19 b53d 1468 a53d 6855 dc3d

classifier.weight f4 [2, 100]
0.11863183 -0.26538515 0.3754004 -0.2591042 -0.08607264 -0.097700015 -0.9545853 -0.22343284
0.20877 -0.53601265 0.06367492 0.25270727 0.004375821 0.17139427 -0.13492747 0.1131007
0.14756311 0.15203544 -0.04184582 0.63798374 -0.29334533 0.16472325 0.087956734 -0.40243247
-0.11946703 0.080322415 -0.11428455 0.137785 -0.6366455 0.06360547 -0.5298649 0.07686979
-0.015545462 0.48616317 -0.27849478 -0.10427795 -0.029532287 0.026583135 -0.035826165 0.24622507
-0.010049963 -0.24032605 -0.557096 0.10559526 0.021920409 0.68673426 -0.036749296 -0.16568881
-0.4825619 -0.48369792 0.060892936 -0.107653454 0.020320317 -0.029674577 0.36778075 -0.55190736
-0.67913485 0.14439389 -0.38719684 0.20072868 0.17555428 -0.5219049 0.052335955 -0.6210184
0.41309893 0.15345962 0.5077588 0.10735986 0.07291937 0.06296986 0.22699015 0.063023694
-0.4878993 -0.10231746 -0.010344239 -0.5273349 -0.11597943 -0.027915724 -0.12302331 -0.09535005
0.11100913 0.58085275 0.67329735 -0.21958874 0.08529036 -0.14111355 -0.48282418 0.12883833
-0.1782542 0.00829185 -0.53807026 0.014964352 -0.4691178 -0.82173216 0.10716294 1.0372206
-0.53510135 0.10375436 -0.19837822 0.24183281 -0.10484625 0.30732653 -0.33403596 0.19760892
0.18155982 0.060127173 0.89934754 0.18694973 -0.11085745 0.52254725 0.08776348 -0.17092824
-0.027693342 -0.23365314 0.021457713 0.019854682 0.020855188 -0.16575146 0.058993824 -0.5779354
0.31286535 -0.177108 -0.17526284 0.34537283 0.12903444 0.09107483 0.0103168795 -0.097031176
0.6654164 0.07885218 0.5006629 -0.0431466 -0.10197816 -0.47006205 0.09877295 0.16305481
-0.14198369 0.036514163 -0.11509505 -0.26352513 0.1948815 0.36452752 0.42757344 -0.20351732
0.0631488 -0.70518833 -0.033140298 0.15543398 0.41743228 0.38319293 -0.14620797 0.1040511
0.12081548 0.114477724 -0.2611733 0.5659504 0.537512 -0.30744934 0.45349532 -0.17606641
-0.16807666 0.5042145 -0.13691115 0.5242983 -0.4081588 -0.18604918 -0.3784452 0.028647957
-0.15787722 -0.0021188795 -0.22752857 0.07317845 0.51576394 -0.0068259514 0.09391188 0.505699
-0.0034159673 -0.0895102 0.023528052 -0.05904402 -0.026122164 -0.5789573 -0.6632183 0.17335919
0.04056622 0.07032753 0.39046642 -0.046571765 0.26304325 0.04848814 0.38578057 -0.032906257
0.35988766 0.8482792 -0.020219523 -0.9366342 0.5325694 -0.25422117 0.19888549 -0.2829733
00000000: 3ff5 f23d 90e0 87be 7b34 c03e 4ea9 84be
00000010: da46 b0bd f216 c8bd b45f 74bf 94cb 64be
00000020: cec7 553e 2038 09bf ff67 823d d962 813e
00000030: 0c63 8f3b fb81 2f3e 6d2a 0abe 57a1 e73d
00000040: c91a 173e 2eaf 1b3e 8666 2bbd e752 233f
00000050: 5c31 96be 36ad 283e a922 b43d a10b cebe
00000060: 21ab f4bd 1480 a43d 050e eabd 8317 0d3e
00000070: 33fb 22bf 9643 823d 3aa5 07bf e96d 9d3d
00000080: 65b2 7ebc 61ea f83e de96 8ebe ae8f d5bd
00000090: b2ed f1bc e0c4 d93c 75be 12bd 6d22 7c3e
000000a0: 9aa8 24bc 0818 76be d89d 0ebf 5442 d83d
000000b0: 6e92 b33c d1cd 2f3f 6e86 16bd 54aa 29be
000000c0: 5a12 f7be 41a7 f7be df6a 793d 6a79 dcbd
000000d0: cb76 a63c 1918 f3bc c24d bc3e cd49 0dbf
000000e0: c8db 2dbf fedb 133e aa3e c6be d28b 4d3e
000000f0: 80c4 333e 8f9b 05bf 3a5e 563d 10fb 1ebf
00000100: b481 d33e 8524 1d3e 7bfc 013f 7cdf db3d
00000110: c056 953d 58f6 803d 1b70 683e 9112 813d
00000120: f0cd f9be d18b d1bd e27a 29bc 6cff 06bf
00000130: a086 edbd 84af e4bc a5f3 fbbd e346 c3bd
00000140: c158 e33d c4b2 143f 375d 2c3f dfdb 60be
00000150: b6ac ae3d 1280 10be bb34 f7be 32ee 033e
00000160: 4588 36be 8ada 073c f9be 09bf 0b2d 753c
00000170: 3530 f0be 0a5d 52bf 3e78 db3d a5c3 843f
00000180: 67fc 08bf 2a7d d43d a923 4bbe 05a3 773e
00000190: a1b9 d6bd e759 9d3e c306 abbe fe59 4a3e
000001a0: d1ea 393e e947 763d a43b 663f c06f 3f3e
000001b0: 3b09 e3bd a8c5 053f 57bd b33d d007 2fbe
000001c0: 26dd e2bc c542 6fbe 16c8 af3c 49a6 a23c
000001d0: 80d8 aa3c c0ba 29be 82a3 713d 93f3 13bf
000001e0: e32f a03e cd5b 35be 1a78 33be b5d4 b03e
000001f0: 9b21 043e 7185 ba3d 2108 293c 48b8 c6bd
00000200: bb58 2a3f 407d a13d 722b 003f 7dba 30bd
00000210: edd9 d0bd f9ab f0be 7949 ca3d d7f7 263e
00000220: 2c64 11be e08f 153d f4b6 ebbd c4ec 86be
00000230: 048f 473e 5aa3 ba3e e8ea da3e d866 50be
00000240: 2854 813d 3987 34bf 1fbe 07bd 162a 1f3e
00000250: afb9 d53e dd31 c43e 8bb7 15be be18 d53d
00000260: 1b6e f73d 4c73 ea3d 82b8 85be 20e2 103f
00000270: 639a 093f 006a 9dbe 8a30 e83e c14a 34be
00000280: 4a1c 2cbe 3414 013f 7032 0cbe 6a38 063f
00000290: 31fa d0be ad83 3ebe 92c3 c1be 1faf ea3c
000002a0: 91aa 21be e6dc 0abb 40fd 68be 95de 953d
000002b0: 1b09 043f 3bac dfbb df54 c03d 7d75 013f
000002c0: 6cde 5fbb 2051 b7bd e7bd c03c 24d8 71bd
000002d0: 26fe d5bc 8c36 14bf adc8 29bf 1285 313e
000002e0: c428 263d e107 903d 37eb c73e 09c2 3ebd
000002f0: 9bad 863e 809b 463d 0885 c53e b6c8 06bd
00000300: 3243 b83e d328 593f 6aa3 a5bc 42c7 6fbf
00000310: 7856 083f 4729 82be a3a8 4b3e e0e1 90be

classifier.bias f4 [2]
0.46676314 -0.3414422
00000000: 94fb ee3e 83d1 aebe
