old_paper/ckpt/simple_Conv_100_13.pth (torch, 70625 bytes, 4 tensors)

features.0.weight f4 [100, 1, 13, 13]
-0.024456237 -0.049411654 -0.06967871 -0.053927816 -0.020687416 0.071266845 -0.056857333 -0.028561272
-0.04228514 -0.051004954 -0.025472138 -0.062432908 -0.008993581 -0.017615218 -0.055673108 -0.043130096
0.013117515 0.005625993 0.023700565 -0.053580258 -0.038355067 -0.04209579 0.06396764 -0.023955137
0.015646972 0.0075963214 0.057276823 -0.050299644 -0.007877298 0.015827894 0.06616623 0.032364048
-0.032914244 0.0220896 0.05855628 0.014654808 0.008708023 -0.020954434 0.046495035 0.033533752
-0.06721729 0.052492104 -0.07916878 0.062178917 0.02060882 -0.02054087 -0.019193824 0.06522041
0.01655928 -0.06391985 0.025203623 -0.053882703 -0.023272827 0.06899927 0.06422462 -0.031287313
-0.048946455 0.031299345 -0.01990169 -0.01879859 0.07126672 0.022236891 -0.06452954 0.07126749
0.001001507 -0.048556 -0.08036616 0.026476935 -0.005860634 -0.056134317 -0.046458576 -0.037712794
-0.015869185 -0.062600836 -0.06279566 -0.040794786 -0.05375269 -0.04681515 0.036491513 0.044714086
0.053057216 -0.033558756 -0.0021723509 0.045473345 0.02448108 0.016721651 0.034194387 -0.0015278682
-0.028625507 0.062891625 0.048053898 0.0720312 -0.00369969 0.02116587 0.05356183 -0.0070811063
0.0330873 -0.033537317 -0.03333231 -0.0077386796 -0.043582093 -0.042605504 0.030955084 -0.037708256
-0.031420644 -0.040252578 -0.06498704 -0.054514192 -0.043571666 0.033473462 0.048889317 -0.06881473
-0.05351764 0.05529984 -0.0024743527 0.06347438 0.040170558 -0.026942916 -0.039158832 0.07126674
0.02828598 0.07211302 -0.05134841 -0.010815822 0.017943628 0.00033064187 0.0659247 0.032812417
-0.07866987 0.003763266 0.012909055 0.008781679 -0.035572734 0.032672986 0.019273557 -0.04815805
-4.6491623e-06 0.034161963 -0.0007330254 0.052287064 -0.040304847 0.071267486 0.007486969 -0.06334773
-0.02181213 0.018686183 -0.014359146 -0.056603074 -0.063917264 -0.029172082 -0.049842488 0.047208175
-0.00415162 -0.06571635 -0.042119276 -0.077264786 0.015246443 -0.065451756 -0.049487922 0.055292897
0.043565996 -0.018816654 -0.049827386 0.0076744035 -0.05171282 -0.07865712 0.01734399 0.057305314
-0.005847305 -0.062289663 -0.10014815 -0.12371019 -0.10346741 -0.08899073 -0.09018936 -0.09662884
-0.034663983 -0.08650111 -0.1293749 -0.0145581355 -0.10112022 -0.03393245 -0.036247827 -0.07267175
-0.12548083 0.005901358 -0.061678797 -0.023064274 -0.111696675 -0.13620056 -0.11842515 -0.12358995
-0.13735148 -0.11391831 -0.09361578 -0.07831291 -0.124927774 0.003568845 -0.059538092 -0.081905186
-0.0780006 -0.11802367 -0.13011664 -0.03278595 -0.123138316 -0.10297868 -0.09024645 -0.024913473
-0.094064325 -0.023194192 -0.08509844 -0.11561032 -0.11904204 -0.06627641 -0.12514496 -0.09119807
-0.09363476 -0.12281869 -0.009528098 0.001786076 0.002218107 -0.06837008 -0.114247374 -0.059839774
-0.029039407 -0.1143911 -0.014336317 -0.110099114 -0.11714019 -0.09162399 -0.12788942 -0.04100075
-0.07413721 -0.083801754 -0.02127079 0.014114163 -0.12923639 0.0014100196 -0.09739027 -0.030420892
-0.10531196 -0.105081506 -0.12533127 -0.019297449 -0.033387087 -0.11766298 -0.11675158 -0.12256561
-0.12957083 -0.006203468 -0.0010189032 -0.03665008 -0.007845567 -0.09562784 0.006556754 -0.076421194
00000000: 7258 c8bc e063 4abd b6b3 8ebd 6ae3 5cbd
00000010: a878 a9bc 5af4 913d 3ce3 68bd 54f9 e9bc
00000020: 2f33 2dbd 92ea 50bd f2aa d0bc a6b9 7fbd
00000030: d059 13bc ca4d 90bc 7c09 64bd 2fa9 30bd
00000040: d8ea 563c 405a b83b b027 c23c f976 5bbd
00000050: 341a 1dbd a36c 2cbd 7701 833d 903d c4bc
00000060: 142e 803c 90ea f83b 1a9b 6a3d 0007 4ebd
00000070: c80f 01bc 80a9 813c 2982 873d 2a90 043d
00000080: 16d1 06bd 40f5 b43c b6d8 6f3d b81a 703c
00000090: 18ac 0e3c a2a8 abbc 9471 3e3d b05a 093d
000000a0: 38a9 89bd f601 573d 3e23 a2bd 52af 7e3d
000000b0: d4d3 a83c 5445 a8bc 5e3c 9dbc 4792 853d
000000c0: 54a7 873c 69e8 82bd d477 ce3c 1cb4 5cbd
000000d0: a8a6 bebc 7d4f 8d3d 3388 833d 2027 00bd
000000e0: 147c 48bd be33 003d de08 a3bc 80ff 99bc
000000f0: 49f4 913d 242a b63c 1028 84bd b1f4 913d
00000100: 0045 833a a8e2 46bd 0397 a4bd 28e6 d83c
00000110: 900a c0bb 19ed 65bd 594b 3ebd bb78 1abd
00000120: 1800 82bc de34 80bd 039b 80bd 6f18 27bd
00000130: c82b 5cbd 3ec1 3fbd 2078 153d 1e26 373d
00000140: 8652 593d e874 09bd 005e 0ebb 4242 3a3d
00000150: 8c8c c83c d8fb 883c 6a0f 0c3d c042 c8ba
00000160: 0a80 eabc 53cd 803d 2ad4 443d 1885 933d
00000170: 8076 72bb 0c64 ad3c a663 5b3d a008 e8bb
00000180: 8c86 073d 6d5e 09bd 7687 08bd c094 fdbb
00000190: 2383 32bd 1c83 2ebd 8495 fd3c f973 1abd
000001a0: efb2 00bd e3df 24bd ed17 85bd 464a 5fbd
000001b0: 3478 32bd 781b 093d 2a40 483d bdee 8cbd
000001c0: 5035 5bbd 1682 623d c028 22bb dbfe 813d
000001d0: e289 243d 64b7 dcbc 0365 20bd 4cf4 913d
000001e0: 00b8 e73c feaf 933d b652 52bd d834 31bc
000001f0: 84fe 923c 005a ad39 8703 873d 5066 063d
00000200: ab1d a1bd 20a1 763b 8080 533c 08e1 0f3c
00000210: b7b4 11bd 1cd4 053d 94e3 9d3c 6041 45bd
00000220: 0000 9cb6 6aed 0b3d 8028 40ba f62a 563d
00000230: b216 25bd b0f4 913d 4055 f53b 74bc 81bd
00000240: 5aaf b2bc c413 993c a042 6bbc a0d8 67bd
00000250: 0ee7 82bd 4afa eebc a327 4cbd 5c5d 413d
00000260: 500a 88bb 4b96 86bd 4385 2cbd 003d 9ebd
00000270: 38cc 793c 920b 86bd d9b3 4abd ce7a 623d
00000280: 4272 323d 6225 9abc cd17 4cbd 9079 fb3b
00000290: d2d0 53bd fc16 a1bd fc14 8e3c fab8 6a3d
000002a0: c09a bfbb 7223 7fbd 791a cdbd c55b fdbd
000002b0: b9e6 d3bd c640 b6bd 33b5 b8bd 57e5 c5bd
000002c0: d2fb 0dbd 7e27 b1bd db7a 04be 3f85 6ebc
000002d0: 1e18 cfbd c1fc 0abd 9a78 14bd edd4 94bd
000002e0: 0c7e 00be 2e60 c13b e8a2 7cbd 4af1 bcbc
000002f0: 3ac1 e4bd 2978 0bbe e388 f2bd ba1c fdbd
00000300: dea5 0cbe 014e e9bd a1b9 bfbd 8562 a0bd
00000310: 22da ffbd 49e3 693b 37de 73bd e8bd a7bd
00000320: c7be 9fbd 65b6 f1bd 4c3d 05be 8f4a 06bd
00000330: f12f fcbd 7ce6 d2bd 21d3 b8bd 5717 ccbc
00000340: cca4 c0bd bf01 bebc 1748 aebd 1ac5 ecbd
00000350: 50cc f3bd edbb 87bd 0026 00be 0ec6 babd
00000360: 95c3 bfbd 5e88 fbbd bd1b 1cbc c41a ea3a
00000370: a95d 113b 9d05 8cbd 87fa e9bd 8d1a 75bd
00000380: 0de4 edbc e245 eabd dfe2 6abc a57b e1bd
00000390: 32e7 efbd 5ca5 bbbd 72f5 02be 67f0 27bd
000003a0: 40d5 97bd 41a0 abbd 1440 aebc 173f 673c
000003b0: 8b56 04be 68d0 b83a 8d74 c7bd 3c35 f9bc
000003c0: ccad d7bd f934 d7bd d756 00be af15 9ebc
000003d0: e6c0 08bd 4af9 f0bd 741b efbd ae03 fbbd
000003e0: 37ae 04be 7646 cbbb b88c 85ba 651e 16bd
000003f0: b18a 00bc 87d8 c3bd 0ada d63b b782 9cbd

features.0.bias f4 [100]
-0.071265675 0.14839572 0.12959984 0.08920886 -0.043629155 -0.018238354 0.15688118 -0.04291667
0.116708614 0.038021393 0.10099884 -0.01563278 -0.058579046 0.30045405 0.15072694 -0.061516047
-0.00691274 -0.01990816 0.1171044 -0.064710446 -0.04227322 0.25453264 0.06512377 -0.0515553
-0.022631224 -0.006690056 0.31100047 -0.052220616 -0.027470946 0.07331049 -0.041729506 0.21812654
-0.033466112 0.13422973 -0.030562885 0.2296449 0.29153463 -0.020233389 0.2032 -0.009090659
-0.009355754 0.16064169 0.09969982 0.028929979 0.07524814 0.14040534 0.14336617 -0.046670273
0.16550708 0.09052329 0.048696578 0.12591773 -0.0606511 0.12494167 -0.042142246 0.02442135
0.14256613 -0.035327505 0.0927598 0.092893 -0.064750545 0.019308362 0.1545813 -0.03809924
0.06918794 0.119386576 -0.04025338 -0.055157024 -0.021657651 -0.037258822 -0.016772281 0.06360076
0.03190274 0.109364495 0.09722155 0.116894186 0.11372988 -0.04287515 0.07336116 -0.025321083
-0.039562184 -0.043639593 -0.010912578 0.105013564 0.25533104 -0.027167557 0.043264523 0.09826256
-0.0029802483 0.017001446 -0.02886544 -0.005876034 -0.069920264 0.103219 0.005296597 -0.025295574
0.09925533 -0.0151311075 -0.036461346 -0.00681746
00000000: bdf3 91bd 0cf5 173e d2b5 043e 23b3 b63d
00000010: 7cb4 32bd 9a68 95bc 76a5 203e 64c9 2fbd
00000020: ed04 ef3d 52bc 1b3d 7bd8 ce3d 5110 80bc
00000030: 95f0 6fbd 1dd5 993e 2a58 1a3e 40f8 7bbd
00000040: 4484 e2bb 7016 a3bc 6fd4 ef3d e986 84bd
00000050: af26 2dbd 1a52 823e 9c5f 853d a62b 53bd
00000060: 1e65 b9bc 4238 dbbb 743b 9f3e 49e5 55bd
00000070: c00a e1bc cf23 963d 8fec 2abd 905c 5f3e
00000080: c313 09bd 8573 093e 045f fabc 0828 6b3e
00000090: 0744 953e 7ec0 a5bc a913 503e fdf0 14bc
000000a0: e048 19bc 417f 243e 6b2f cc3d 90fe ec3c
000000b0: b21b 9a3d 6bc6 0f3e 95ce 123e 5429 3fbd
000000c0: b07a 293e 4664 b93d 1076 473d 94f0 003e
000000d0: 4a6d 78bd 6be1 ff3d 599d 2cbd 480f c83c
000000e0: dbfc 113e 93b3 10bd daf8 bd3d af3e be3d
000000f0: ef9b 84bd 922c 9e3c 8f4a 1e3e f30d 1cbd
00000100: 68b2 8d3d f380 f43d bae0 24bd 55ec 61bd
00000110: 636b b1bc b59c 18bd 0666 89bc 1e41 823d
00000120: 73ac 023d 7efa df3d 181c c73d 3866 ef3d
00000130: 36eb e83d da9d 2fbd 603e 963d 296e cfbc
00000140: f50b 22bd 6ebf 32bd abca 32bc 5a11 d73d
00000150: c0ba 823e 7f8e debc 2436 313d e23d c93d
00000160: 4550 43bb 9e46 8b3c 3777 ecbc bf8b c0bb
00000170: 5b32 8fbd 7c64 d33d 138f ad3b aa38 cfbc
00000180: 6146 cb3d 77e8 77bc 7e58 15bd 0065 dfbb

classifier.weight f4 [2, 100]
-0.09263482 -0.4995308 0.46253353 0.15006043 0.015300901 -0.043518197 -0.52138966 -0.091377124
-0.265804 0.2492393 -0.24658188 0.04358817 0.049260154 -1.0851129 -0.45036924 0.003801603
-0.05012048 0.040761307 -0.3234477 0.037761185 0.09839014 0.99170357 -0.09141285 -0.08802136
-0.076205574 -0.16491708 1.3280435 -0.04448829 0.11822757 -0.10332699 -0.13380663 0.8249493
-0.14901865 0.49985117 0.075262085 0.8723345 1.1958195 0.040785298 -0.74680346 0.13363364
0.14934784 0.5810153 -0.22755857 0.14663637 0.13680579 -0.42112756 0.5004194 -0.050360058
-0.52052325 -0.18521172 -0.14115527 -0.38131785 0.10920755 0.41359487 0.046784777 -0.0050868513
-0.35991248 0.07989068 0.25080052 -0.13361329 -0.013833092 0.00049715897 -0.49427617 0.118931375
-0.14740765 0.3460865 0.003500775 0.06807525 0.117545195 -0.13900879 -0.03788734 0.124371275
0.12826644 -0.23936012 -0.13175732 -0.3868012 -0.32286933 -0.044925917 -0.076026574 -0.056581706
0.03918715 -0.054013852 -0.0766489 -0.25488698 -0.8153496 0.054155663 0.1667256 0.23757541
0.106186785 0.120851435 -0.110471584 0.08721518 -0.030088026 -0.23365042 -0.0990137 -0.04620897
0.3281801 0.17455865 0.1205678 0.027607657 -0.0590219 0.4212884 -0.40188685 -0.30488986
0.078748584 0.15043992 0.4806154 0.1280483 0.39681527 -0.17276068 0.2129886 -0.001151101
0.08155981 1.0627886 0.4715734 0.09643522 -0.0064576985 -0.0040760064 0.29317582 -0.0072546867
0.04833782 -1.0518306 0.13852306 0.0020583645 0.071052186 0.08878551 -1.2883345 0.014679239
-0.16696808 0.23291932 0.13922958 -0.82826924 0.11293761 -0.44473803 -0.07564633 -0.8518236
-1.1779172 -0.12709773 0.57136667 0.0478514 -0.07329026 -0.53373563 0.23139055 0.01449091
-0.16528735 0.41154733 -0.47461218 0.07202343 0.4831607 0.16022487 0.05224391 0.35928273
0.0009676103 -0.39054522 -0.13679408 0.11399435 0.5073975 -0.07488162 -0.24068509 0.2769763
0.10773002 -0.097683094 0.45981455 -0.03730986 0.08331494 -0.42755732 0.039407525 -0.107593685
-0.11465302 0.026277717 0.1385375 -0.113845356 -0.016691282 0.33530906 0.2815025 0.26542434
0.28682402 0.091734186 0.1763736 0.13692148 -0.09002585 -0.089174904 -0.008838295 0.27347618
0.95460504 -0.107574455 -0.0091227265 -0.29964304 -0.02814105 -0.078660205 0.14168468 -0.04911134
-0.060856998 0.27659884 -0.025724193 -0.100398935 -0.22029866 -0.05774594 -0.16786565 0.09089498
00000000: 53b7 bdbd 80c2 ffbe 32d1 ec3e 71a9 193e
00000010: a1b0 7a3c 2340 32bd cb79 05bf ee23 bbbd
00000020: 7617 88be 9638 7f3e f67f 7cbe 8289 323d
00000030: 04c5 493d fbe4 8abf cc96 e6be 5124 793b
00000040: 224b 4dbd 54f5 263d f09a a5be 79ab 1a3d
00000050: c580 c93d 49e0 7d3f a936 bbbd 8b44 b4bd
00000060: ab11 9cbd 06e0 28be 54fd a93f 5a39 36bd
00000070: 4c21 f23d 1a9d d3bd 9b04 09be e12f 533f
00000080: 5898 18be 7eec ff3e 0223 9a3d 5051 5f3f
00000090: 9d10 993f 7c0e 273d 832e 3fbf 42d7 083e
000000a0: a4ee 183e 6bbd 143f 1d05 69be d827 163e
000000b0: d116 0c3e 089e d7be 7c1b 003f 5946 4ebd
000000c0: 0341 05bf 24a8 3dbe 028b 10be 183c c3be
000000d0: 35a8 df3d b5c2 d33e 65a1 3f3d 9aaf a6bb
000000e0: 7346 b8be ba9d a33d ed68 803e ecd1 08be
000000f0: 31a4 62bc c653 023a c411 fdbe 4b92 f33d
00000100: 08f2 16be 4032 b13e 426d 653b 096b 8b3d
00000110: 89bb f03d 5258 0ebe c12f 1bbd 5eb6 fe3d
00000120: 4758 033e d21a 75be 64eb 06be cf0a c6be
00000130: 214f a5be 3d04 38bd d2b3 9bbd 38c2 67bd
00000140: b482 203d a13d 5dbd 19fa 9cbd 8c80 82be
00000150: c0ba 50bf 54d2 5d3d 1eba 2a3e f846 733e
00000160: 7578 d93d f580 f73d ed3e e2bd df9d b23d
00000170: 2a7b f6bc 0e42 6fbe b2c7 cabd 9e45 3dbd
00000180: 3907 a83e 81bf 323e 40ec f63d 7429 e23c
00000190: f3c0 71bd 1db3 d73e 1dc4 cdbe 861a 9cbe
000001a0: f046 a13d ec0c 1a3e 3913 f63e 181f 033e
000001b0: 5f2b cb3e 2de8 30be af19 5a3e 8ae0 96ba
000001c0: d408 a73d 7509 883f 1272 f13e d47f c53d
000001d0: 1a9b d3bb 0590 85bb 241b 963e b9b8 edbb
000001e0: e1fd 453d 63a2 86bf fdd8 0d3e a0e5 063b
000001f0: cf83 913d 2dd5 b53d 25e8 a4bf 3181 703c
00000200: aef9 2abe 6782 6e3e 3392 0e3e 7409 54bf
00000210: d54b e73d b4b4 e3be 77ec 9abd 1d11 5abf
00000220: fec5 96bf e825 02be 1645 123f d4ff 433d
00000230: 3419 96bd e6a2 08bf a5f1 6c3e 486b 6d3c
00000240: 1641 29be 55b6 d23e 5e00 f3be 0581 933d
00000250: d760 f73e fd11 243e b6fd 553d e8f3 b73e
00000260: 3aa7 7d3a 8bf5 c7be bf13 0cbe df75 e93d
00000270: cde4 013f 895b 99bd 2776 76be d6cf 8d3e
00000280: 8fa1 dc3d 130e c8bd d06c eb3e 39d2 18bd
00000290: 06a1 aa3d cbe8 dabe c969 213d 145a dcbd
000002a0: 34cf eabd 5e44 d73c c6dc 0d3e c127 e9bd
000002b0: 28bc 88bc a1ad ab3e 1821 903e b3e5 873e
000002c0: 99da 923e 22df bb3d 489b 343e 2535 0c3e
000002d0: 795f b8bd 55a1 b6bd 7fce 10bc 1205 8c3e
000002e0: ff60 743f ff4f dcbd 7d77 15bc d06a 99be
000002f0: 0f88 e6bc 9a18 a1bd ca15 113e f928 49bd
00000300: 3045 79bd 5d9e 8d3e 8bbb d2bc f59d cdbd
00000310: f995 61be 0287 6cbd f9e4 2bbe 2627 ba3d

classifier.bias f4 [2]
-0.3147718 0.28665423
00000000: c529 a1be 58c4 923e
