old_paper/ckpt/simple_FC_100_23.pth (torch, 214613 bytes, 4 tensors)

features.1.weight f4 [100, 529]
0.0020372346 -0.028175086 0.0099292435 -0.04079183 -0.013329521 -0.009840634 0.013950411 -0.01974137
-0.015069185 0.016653229 -0.038506426 0.035165105 0.033671733 0.010714747 0.0035351515 0.04042313
0.021531392 -0.0057804957 0.03384978 -0.003474325 -0.0013054647 0.0154236145 -0.0020609945 0.012057181
-0.016613277 0.04134423 0.024537463 -0.035618506 0.007471226 0.017259132 -0.0068335906 -0.03156147
-0.0040090643 0.0005311556 0.026581239 -0.04195322 -0.018467333 0.0034723133 -0.030952927 -0.02126512
-0.021574669 0.012698837 0.02194548 0.0052729063 -0.02399847 0.0027914084 -0.023617433 0.016282547
0.03248674 -0.0064262263 -0.041457906 0.0015285797 -0.035299018 -0.030282125 -0.013853898 0.023273055
0.0054449514 -0.006908532 0.0014102086 0.016120233 0.00737492 0.041408535 -0.0012219474 -0.011689063
-0.023415344 -0.012422148 0.038088407 0.039362255 0.0325276 0.00790805 0.023123298 0.02854811
0.019467425 0.019685645 -0.036772024 -0.0060206875 -0.006285783 -0.009946186 -0.032193318 -0.016661623
-0.0018904321 0.016181558 0.01947042 -0.034890097 0.023936 0.012344662 0.036286693 0.038514923
-0.020714257 -0.0248995 -0.042193327 -0.032241583 -0.01661719 0.028917398 0.012102209 -0.023371618
0.013530951 -0.023366623 -0.031556603 0.023697633 0.026591297 0.026343074 -0.021010254 0.008379765
-0.026021382 0.036898684 0.015113208 0.018731117 0.042340893 -0.0023794658 0.034346182 -0.03652002
0.0065410174 0.0031440966 0.019226458 -0.04027564 0.014205243 0.039758477 -0.009622339 0.0080495775
-0.03147055 -0.042735294 -0.031768132 0.007816553 -0.025720078 0.0026819594 -0.03448066 -0.04051543
0.015128933 0.029484842 0.016745172 0.0055027306 0.02008083 0.01632737 0.040369976 -0.0015589297
-0.035967916 -0.0036460273 -0.012760799 0.03703243 0.02292807 0.03635272 0.014724918 -0.03367964
0.022130545 0.03491618 -0.033930976 0.012097053 0.042319205 -0.015130904 0.02540237 0.017788157
-0.012855556 0.027822461 0.025727194 0.008088585 -0.030189104 -0.035648428 0.0045165233 0.0062745363
-0.039688706 0.014493041 0.021492694 0.028018396 0.015118852 0.012962848 0.029393863 0.039755058
-0.039529637 -0.025081344 -0.010128219 -0.01954199 -0.040656865 0.031010937 0.018548328 0.0019737072
-0.038796216 0.023115177 0.03270443 0.04006095 -0.024992125 0.036427278 0.018573206 0.004027616
0.0063607655 0.019423198 0.010476865 0.02890512 0.0016072355 0.012789819 -0.0026427656 -0.040002048
0.010107446 0.028959375 0.026634756 -0.021992337 0.037155587 0.025186393 -0.031544052 -0.024675546
-0.038476303 0.018820453 0.018645719 -0.0391698 -0.01716533 0.019397926 0.02502909 0.024252016
0.014414266 0.040174235 0.029639889 -0.0024618022 -0.01994502 0.0350982 0.032937523 -0.031288054
-0.038303424 -0.0024367422 -0.034832053 0.0103241615 0.02741054 -0.029108431 0.008040611 0.027143661
-0.012118455 -0.011873335 -0.007745102 0.00010481104 0.00032892823 0.03976101 -0.00075473636 -0.0045874156
0.0041324683 0.032111544 0.024193477 0.0424054 -0.04200438 -0.021405283 -0.0007403381 0.038413603
0.010428734 -0.0058659613 -0.008794017 0.024812784 0.029080424 -0.042241134 -0.0062425286 0.023728307
0.040395845 0.040104423 0.042294372 0.031830374 0.012854509 -0.009134784 -0.031214409 -0.006673813
00000000: 2083 053b 70cf e6bc 44ae 223c 5515 27bd
00000010: 1064 5abc 9c3a 21bc 4490 643c a7b8 a1bc
00000020: bee4 76bc 5a6c 883c eab8 1dbd 4909 103d
00000030: 5feb 093d e88c 2f3c 00ae 673b b992 253d
00000040: 9a62 b03c 506a bdbb 11a6 0a3d 80b1 63bb
00000050: 201c abba 54b3 7c3c c011 07bb 7c8b 453c
00000060: 9118 88bc 9158 293d ca02 c93c b6e4 11bd
00000070: 30d1 f43b 0663 8d3c 50ec dfbb 9a46 01bd
00000080: 785e 83bb 403d 0b3a e6c0 d93c 24d7 2bbd
00000090: ce48 97bc c08f 633b fe90 fdbc 3034 aebc
000000a0: 5cbd b0bc c80e 503c 02c7 b33c 58c8 ac3b
000000b0: 7098 c4bc 10f0 363b 5979 c1bc fa62 853c
000000c0: d110 053d 1893 d2bb c4cf 29bd a05a c83a
000000d0: b495 10bd 3812 f8bc 76fb 62bc 22a7 be3c
000000e0: 906b b23b f860 e2bb c0d6 b83a 940e 843c
000000f0: 50a9 f13b ff9b 293d c029 a0ba 7c83 3fbc
00000100: 89d1 bfbc 4486 4bbc 9702 1c3d 513a 213d
00000110: a93b 053d c490 013c 126d bd3c badd e93c
00000120: 267a 9f3c ca43 a13c 439e 16bd 3049 c5bb
00000130: f8f8 cdbb 54f5 22bc 24dd 03bd f57d 88bc
00000140: 60c8 f7ba 308f 843c 6e80 9f3c ebe8 0ebd
00000150: 6e15 c43c 4441 4a3c 5ba1 143d d3c1 1d3d
00000160: f2b0 a9bc 09fa cbbc e9d2 2cbd c00f 04bd
00000170: c620 88bc 2ee4 ec3c 5848 463c d675 bfbc
00000180: ecb0 5d3c 5c6b bfbc 7f41 01bd 8a21 c23c
00000190: fed5 d93c 6ecd d73c b21d acbc 484b 093c
000001a0: cb2a d5bc 1323 173d 649d 773c 0072 993c
000001b0: a56d 2d3d d0f0 1bbb 95ae 0c3d 0496 15bd
000001c0: 0856 d63b 300d 4e3b ce80 9d3c 12f8 24bd
000001d0: 1cbd 683c c9d9 223d 04a7 1dbc 60e2 033c
000001e0: 43e7 00bd 340b 2fbd 4d1f 02bd 0011 003c
000001f0: eab2 d2bc d0c3 2f3b 983b 0dbd 82f3 25bd
00000200: 58df 773c 328a f13c 2c2d 893c 4050 b43b
00000210: 8e80 a43c fac0 853c fd5a 253d 0055 ccba
00000220: 1853 13bd 30f2 6ebb ac12 51bc 51af 173d
00000230: a6d3 bb3c 97e6 143d c840 713c aaf3 09bd
00000240: 1e4b b53c 4504 0f3d 35fb 0abd b832 463c
00000250: e756 2d3d 9ce7 77bc a218 d03c 78b8 913c
00000260: 1ca0 52bc eeeb e33c d6c1 d23c fc85 043c
00000270: 244f f7bc 1604 12bd 58ff 933b a09a cd3b
00000280: a090 22bd 3874 6d3c 7211 b03c d686 e53c
00000290: 10b5 773c 2062 543c 66cb f03c 33d6 223d
000002a0: d4e9 21bd 6477 cdbc d4f0 25bc 8616 a0bc
000002b0: d087 26bd a60a fe3c aaf2 973c 5059 013b
000002c0: c8e8 1ebd 0a5c bd3c 15f5 053d f316 243d
000002d0: 49bc ccbc c534 153d d626 983c 18fa 833b
000002e0: f86d d03b 661d 9f3c 28a7 2b3c 6eca ec3c
000002f0: e0a9 d23a 648c 513c 4032 2dbb 30d9 23bd
00000300: b499 253c 363c ed3c 2231 da3c 4629 b4bc
00000310: 7530 183d b253 ce3c 5634 01bd 5f24 cabc
00000320: 5499 1dbd 5a2d 9a3c e8be 983c 8370 20bd
00000330: 4e9e 8cbc 66e8 9e3c ce09 cd3c 2aac c63c
00000340: d029 6c3c bd8d 243d 5acf f23c 3056 21bb
00000350: bd63 a3bc 21c3 0f3d 7fe9 063d e727 00bd
00000360: 0de4 1cbd c0b1 1fbb 0eac 0ebd ac26 293c
00000370: 128c e03c ce74 eebc c4bc 033c 625c de3c
00000380: 7c8c 46bc 6088 42bc a0ca fdbb 00ce db38
00000390: 0074 ac39 71dc 223d 80d9 45ba 0852 96bb
000003a0: a869 873b 6587 033d 6631 c63c 49b1 2d3d
000003b0: c90c 2cbd 225a afbc 4013 42ba 9557 1d3d
000003c0: 48dd 2a3c 4037 c0bb c814 10bc 2e44 cb3c
000003d0: 123a ee3c 0a05 2dbd 208e ccbb de61 c23c
000003e0: 1d76 253d 8944 243d dd3c 2d3d 9160 023d
000003f0: b89b 523c 10aa 15bc 5cb5 ffbc 00b0 dabb

features.1.bias f4 [100]
-0.012036651 -0.014801735 -0.008912486 0.07169077 0.11385172 0.15232906 0.2287184 0.327216
0.3460343 0.3637647 0.3821718 -0.0074504814 0.49823 0.42232007 -0.04144345 0.13034253
-0.017873175 -0.052717395 -0.016625253 0.1533724 0.11850029 -0.032221008 0.2703877 -0.009167547
0.28291512 -0.041652013 -0.010305248 0.119432434 -0.026475834 -0.038557075 -0.016588312 0.3685702
0.27972007 -0.034158096 0.06884745 0.03941538 0.11841165 0.2721415 -0.010135058 -0.023377724
0.0025184467 -0.024193563 0.18800703 -0.03802688 -0.012207393 0.32079315 0.19323784 0.2880799
-0.028741889 0.07101129 0.43033415 0.09022749 -0.031506985 -0.041196834 0.06279415 0.012165322
0.025171366 0.35500672 0.27499005 0.02823515 -0.009678438 -0.038011406 0.021967636 0.055852633
0.12109861 0.07596094 0.61373603 -0.024076177 0.17968403 0.25753003 0.20944239 0.0904728
0.010939899 -0.036153197 0.2471133 -0.036051393 0.2169012 -0.02679276 -0.009150805 0.29271117
0.31053814 0.17856888 -0.021003615 0.2905555 0.3842537 -0.015615873 0.31615537 0.079875745
-0.016659027 -0.029041056 0.1363891 0.4037971 0.024020957 -0.013346128 -0.039881635 0.049972225
0.21322814 -0.025255049 -0.009708568 -0.038804773
00000000: 6035 45bc fa82 72bc ad05 12bc 9cd2 923d
00000010: 172b e93d 26fc 1b3e 2835 6a3e db88 a73e
00000020: 682b b13e 5e3f ba3e 06ac c33e 2b23 f4bb
00000030: 0118 ff3e 563a d83e 9bc0 29bd 8378 053e
00000040: c46a 92bc 32ee 57bd af31 88bc a80d 1d3e
00000050: 48b0 f23d 2dfa 03bd 4270 8a3e 7b33 16bc
00000060: 40da 903e 4d9b 2abd 58d7 28bc fe98 f43d
00000070: d9e3 d8bc 06ee 1dbd 36e4 87bc 3cb5 bc3e
00000080: 7837 8f3e 5ce9 0bbd e4ff 8c3d 0672 213d
00000090: cf81 f23d 2156 8b3e 840d 26bc a482 bfbc
000000a0: 860c 253b 9431 c6bc ea84 403e 13c2 1bbd
000000b0: 8401 48bc 003f a43e 24e0 453e 357f 933e
000000c0: 1c74 ebbc 5e6e 913d c254 dc3e 31c9 b83d
000000d0: 780d 01bd 03be 28bd 389a 803d 0f51 473c
000000e0: 2e34 ce3c 71c3 b53e 7fcb 8c3e 674d e73c
000000f0: 5092 1ebc d9b1 1bbd 79f5 b33c bbc5 643d
00000100: 8c02 f83d 6991 9b3d ce1d 1d3f 673b c5bc
00000110: 17ff 373e fada 833e 1178 563e ce49 b93d
00000120: 433d 333c 6015 14bd 450b 7d3e a0aa 13bd
00000130: 591b 5e3e 7d7c dbbc 42ed 15bc 3dde 953e
00000140: dbfe 9e3e c3da 363e c60f acbc b1c3 943e
00000150: e7bc c43e b8d9 7fbc 1edf a13e e595 a33d
00000160: 8378 88bc 82e7 edbc 96a9 0b3e 7ebe ce3e
00000170: 99c7 c43c b8a9 5abc ed5a 23bd adaf 4c3d
00000180: 7a58 5a3e ade3 cebc b010 1fbc c1f1 1ebd

classifier.weight f4 [2, 100]
0.013172708 0.028979905 -0.031750504 -0.058091868 0.07849664 -0.19897376 0.18450046 -0.31643993
-0.35780197 0.3931829 -0.37891614 0.00816353 -0.4764486 -0.46524954 -0.058033373 0.081184395
0.08308868 0.051315024 -0.03375516 0.08781886 0.12810585 0.021552403 -0.25787756 0.040016178
0.3226951 -0.09036559 0.063561805 0.14611693 -0.026048534 -0.060055602 -0.021470955 -0.3844633
0.29774266 0.03142131 0.09208057 -0.08895892 0.0787097 0.253241 0.042403392 0.087584205
0.049440898 0.040420555 0.23440301 -0.011084756 -0.0135682 0.32199425 0.22241673 0.34675857
0.09200313 0.04150931 0.4676909 0.007950668 0.066879965 0.049840994 0.16108721 -0.019009134
-0.049325276 0.3056 -0.30640697 -0.029903913 0.06389304 -0.0031753033 0.055702522 0.0782814
-0.1643134 0.058265284 -0.61484045 0.029645486 0.25576282 0.19983968 -0.14478615 -0.10945358
0.025040207 -0.017877594 -0.31239608 0.05665148 0.21759133 0.07032811 0.02898537 0.27715582
0.35417506 0.21549392 0.072901875 -0.3555689 0.39645678 -0.0932671 0.34377807 0.09830616
0.0029870868 -0.06652049 0.1592054 0.39300436 0.11195869 0.0062063783 0.07406353 -0.015685461
0.22557327 0.031741105 -0.0788251 0.09064697 -0.024208032 -0.072060466 -0.02426527 0.09728798
-0.19938104 0.105741195 -0.2771941 0.36389217 0.3426601 -0.34751552 0.39052027 0.016046999
0.5308937 0.37846303 0.0996284 -0.18931969 0.028115477 -0.057837017 0.043816768 -0.23676783
-0.1227343 0.01504286 0.3139342 0.07052364 -0.2507281 0.06051088 -0.04704498 -0.09774314
0.0016586864 -0.0996176 -0.011514213 0.3732337 -0.31464142 -0.024822995 -0.04950351 -0.046718635
-0.16975462 -0.32971588 0.07881185 -0.04123775 0.05012502 0.08171395 -0.16320376 -0.085089505
0.06612339 -0.35043615 -0.22444437 -0.26922452 0.06776614 -0.1141567 -0.47914502 -0.1819697
0.01284318 -0.03532456 0.010772815 0.0020467667 -0.09676108 -0.4091274 0.2665153 -0.015945857
-0.0088557135 -0.036696516 0.054949474 -0.04095719 0.08839251 -0.104860984 0.66744477 -0.06771014
-0.10902179 -0.3200732 0.2937634 0.0647241 0.0023560252 -0.08678996 0.18048705 0.006229922
-0.23037519 0.02517999 -0.027357798 -0.35930446 -0.2862321 -0.15235376 -0.015948193 0.28216186
-0.380091 -0.06277655 -0.31389752 -0.08232816 0.095814876 0.01597473 -0.11695636 -0.4307934
0.059841927 0.0010946766 0.050020196 -0.12377881 -0.1996081 -0.034961842 0.05327453 0.013446133
00000000: 58d2 573c 4467 ed3c d10c 02bd bdf1 6dbd
00000010: d9c2 a03d c7bf 4bbe b0ed 3c3e 6a04 a2be
00000020: d231 b7be 454f c93e 4c01 c2be 54c0 053c
00000030: 12f1 f3be 3035 eebe 67b4 6dbd 0144 a63d
00000040: 662a aa3d b42f 523d da42 0abd 60da b33d
00000050: 2e2e 033e aa8e b03c 8708 84be 01e8 233d
00000060: 4b38 a53e 9811 b9bd b12c 823d ad9f 153e
00000070: bc63 d5bc ddfc 75bd dbe3 afbc 60d8 c4be
00000080: ba71 983e a2b3 003d bd94 bc3d 1830 b6bd
00000090: 8d32 a13d cea8 813e 2eaf 2d3d 595f b33d
000000a0: 8a82 4a3d 0690 253d 5807 703e d69c 35bc
000000b0: 284d 5ebc 6edc a43e 36c1 633e 578a b13e
000000c0: 236c bc3d ab05 2a3d 2f75 ef3e 8543 023c
000000d0: 5df8 883d 1226 4c3d 0cf4 243e 0bb9 9bbc
000000e0: 4d09 4abd 9a77 9c3e 60e1 9cbe 0df9 f4bc
000000f0: 5bda 823d c018 50bb 5428 643d 0052 a03d
00000100: c641 28be 94a7 6e3d 2f66 1dbf 17db f23c
00000110: 58f3 823e c6a2 4c3e d242 14be 3329 e0bd
00000120: 1f21 cd3c 0874 92bc 61f2 9fbe 620b 683d
00000130: 43d0 5e3e 2f08 903d ba72 ed3c 5ee7 8d3e
00000140: 6f56 b53e 70aa 5c3e 944d 953d 200d b6be
00000150: 62fc ca3e d202 bfbd ae03 b03e bd54 c93d
00000160: 00c3 433b e53b 88bd be06 233e de37 c93e
00000170: 994a e53d e05e cb3b 9fae 973d cc7e 80bc
00000180: aefc 663e f602 023d 0e6f a1bd 1ea5 b93d
00000190: ec4f c6bc 7094 93bd f6c7 c6bc ec3e c73d
000001a0: 8b2a 4cbe d78e d83d 63ec 8dbe 1350 ba3e
000001b0: 2571 af3e 8eed b1be 46f2 c73e ff74 833c
000001c0: a6e8 073f e8c5 c13e f909 cc3d 05dd 41be
000001d0: 6e52 e63c 82e6 6cbd 3679 333d 4473 72be
000001e0: 1f5c fbbd 5476 763c fcbb a03e b36e 903d
000001f0: 6f5f 80be 42da 773d 3db2 40bd 8e2d c8bd
00000200: 4868 d93a 5004 ccbd 1ca6 3cbc 7d18 bf3e
00000210: ae18 a1be 9859 cbbc 31c4 4abd 0a5c 3fbd
00000220: 28d4 2dbe 85d0 a8be 1b68 a13d eae8 28bd
00000230: e54f 4d3d a559 a73d e31e 27be 6843 aebd
00000240: b36b 873d 5e6c b3be bfd4 65be ccd7 89be
00000250: f9c8 8a3d fdca e9bd 7f52 f5be 4456 3abe
00000260: 346c 523c 7cb0 10bd 7680 303c 0c23 063b
00000270: ac2a c6bd 2679 d1be b274 883e e3a0 82bc
00000280: 8e17 11bc 164f 16bd b312 613d bac2 27bd
00000290: 2207 b53d 5bc1 d6bd a9dd 2a3f 9dab 8abd
000002a0: d146 dfbd a2e0 a3be 2868 963e 128e 843d
000002b0: 8b67 1a3b efbe b1bd 99d1 383e 6024 cc3b
000002c0: 79e7 6bbe 4446 ce3c 761d e0bc c1f6 b7be
000002d0: 048d 92be a002 1cbe c9a5 82bc 8577 903e
000002e0: 4a9b c2be fe90 80bd 2db7 a0be ab9b a8bd
000002f0: 973a c43d 70dd 823c d186 efbd f490 dcbe
00000300: cf1c 753d 407b 8f3a fae1 4c3d bf7f fdbd
00000310: 1166 4cbe 2634 0fbd 6536 5a3d 2b4d 5c3c

classifier.bias f4 [2]
-0.20845556 0.37722737
00000000: 6075 55be f223 c13e
