old_paper/ckpt/simple_FC_100_9.pth (torch, 35407 bytes, 4 tensors)

features.1.weight f4 [100, 81]
000000 64 ca ce bc 36 63 2b 3d b2 e6 02 bd 78 fd f6 bc
       -0.025242992 0.04184266 -0.03195829 -0.03015016
000010 a7 04 7d bd 78 6f d4 bc 00 71 9b bc c4 21 5b bd
       -0.061772015 -0.025932059 -0.018974781 -0.053499
000020 b6 0d 25 bd 48 4f 0c bc 1c 93 b8 bc 45 08 d2 3d
       -0.04029628 -0.008563824 -0.022531085 0.102554835
000030 b0 7e 8d bc 1c 00 ca bc bb 78 94 3d ce a8 27 bd
       -0.017272323 -0.024658255 0.0724959 -0.04093247
000040 88 13 15 bd 97 23 cc 3d e7 da 90 3d b2 e8 db bd
       -0.03639558 0.09967726 0.07073002 -0.107377425
000050 2e 8f 25 3d 9d be e1 3d ff 0a c9 3d 14 07 db bc
       0.04041975 0.11022685 0.098165505 -0.026736774
000060 b5 47 c4 3d 00 48 94 3b 10 40 bc bc 4d a6 9f 3d
       0.095839895 0.0045251846 -0.022979766 0.07795391
000070 6b 99 ae 3d d2 f8 5c bd 4d 38 df bd fc b2 1c bd
       0.08525356 -0.05394823 -0.108994104 -0.03825663
000080 30 b4 c3 bc 58 e1 22 bc bc 79 da 3c 80 cf c9 ba
       -0.023889631 -0.009941421 0.026669376 -0.0015396923
000090 ae d4 4e bd ae 57 64 3d 2f 18 95 3d 80 80 54 bc
       -0.050495796 0.05574768 0.07280003 -0.01297009
0000a0 f9 c0 c0 3c a3 6a b4 3d 7b 19 a6 bd 29 ec ca 3d
       0.023529517 0.08809402 -0.08110329 0.09908325
0000b0 87 1c 91 bd 2f 3c cf 3d b6 92 53 3d 20 16 20 bd
       -0.07085519 0.10118901 0.051653586 -0.0390836
0000c0 01 d6 9d 3d 3e 99 a0 bd a4 86 e0 bc 7d 92 67 bd
       0.07706834 -0.07841729 -0.027407952 -0.056536186
0000d0 91 68 be 3d 49 e0 cb 3d a4 c9 0e bd 74 4c bd bd
       0.09297288 0.099548884 -0.03486027 -0.09243098
0000e0 0c 2a f1 3c 42 61 50 3d 24 de 3d bd 2a a4 36 3d
       0.029438995 0.050874002 -0.046354428 0.044590153
0000f0 33 23 bf 3d b8 0c 6f bc e9 0e aa bd 32 d7 27 3d
       0.093328856 -0.014590435 -0.08303625 0.04097671
000100 5a a6 12 3d ca 8c 2c 3d ce 93 22 bd e0 69 91 bd
       0.035803176 0.042126454 -0.03969174 -0.07100272
000110 c5 84 a0 3d 10 de c8 bd 79 d2 db bd 6c 3e 94 bd
       0.07837824 -0.0980798 -0.10733504 -0.072384685
000120 e1 2e 9e 3d 25 2a e2 3d 2e e9 50 bd 02 02 a3 bd
       0.07723785 0.11043195 -0.051003627 -0.07959367
000130 c8 87 27 bc d2 56 24 bd 70 c6 c4 3b c4 03 a8 3c
       -0.010225244 -0.04012186 0.006005101 0.020509608
000140 8e c5 21 3d ac 72 92 3c 11 c4 c1 3d b6 a6 3e bd
       0.039495043 0.017876945 0.09461225 -0.046545707
000150 a8 70 61 3c 8a c2 9a bd 9e a0 40 3d 2e a5 ad bd
       0.0137597695 -0.07556637 0.047028176 -0.08478771
000160 94 c7 a6 bd 20 f1 e9 3b 00 84 4d b9 8e 2e 05 3d
       -0.08143535 0.00713934 -0.00019599497 0.0325151
000170 80 6b 79 3b 0e c1 7e bd e7 a1 7e bd 3f 3e b3 3d
       0.003805846 -0.06219583 -0.06216612 0.08752107
000180 e4 12 8f 3c ee 75 25 3d 9d 42 98 3d 12 71 bc bd
       0.017465062 0.04039567 0.074345805 -0.09201254
000190 45 12 d8 3d af 08 d0 3d fd d1 cb 3d 94 0d cf bc
       0.1055036 0.10157906 0.099521615 -0.02527503
0001a0 94 a6 95 3c 8c dc b7 bd 04 ae b9 bd 09 5d 9b 3d
       0.018267907 -0.08977613 -0.09066394 0.075861044
0001b0 20 6a 24 bc 40 0e de 3a a0 f9 26 bc a0 36 4b 3b
       -0.010035068 0.0016941503 -0.010191351 0.00310079
0001c0 e9 5f d7 bd 67 70 af bd 56 3a 81 bd 00 ef 3a ba
       -0.1051634 -0.08566361 -0.06309955 -0.00071309507
0001d0 a6 b9 7d 3d 6c 85 b9 3c 76 a5 2e 3d cb ae ac bd
       0.061944626 0.022646628 0.042638265 -0.084317766
0001e0 87 42 be bd b4 80 a8 be 9e c4 93 bd c0 fa f1 bb
       -0.09290033 -0.32910693 -0.07215236 -0.007384628
0001f0 a5 df b8 3d d7 a3 b8 3d 70 de d6 bc bb b9 d0 3d
       0.09027032 0.09015625 -0.026229113 0.10191675
000200 6b 57 d7 3d 90 4a 03 3c a4 63 b3 3c db e1 80 3d
       0.105147205 0.008013383 0.021898098 0.062930785
000210 2a cd 60 3d d8 9b 0a 3c 5a cf 98 bd 32 4c 0f bd
       0.05488316 0.008460008 -0.07461424 -0.034984775
000220 a8 51 06 bc 27 57 e1 3d 5d f0 cc 3d 4f 55 a9 3d
       -0.008198179 0.11002951 0.10006783 0.082682244
000230 e0 39 88 3b 31 1d 91 3d d9 9d 98 bd 5c 91 e6 bc
       0.00415729 0.07085646 -0.07451982 -0.028145485
000240 30 92 c2 bd 92 1a c4 bd 50 d4 f8 3b d3 44 9c 3d
       -0.09500539 -0.095753804 0.007593669 0.07630315
000250 c2 50 a9 bd 78 d5 87 bc 80 6f b9 3a 60 5f 5d bc
       -0.082673565 -0.016581282 0.001414761 -0.013511509
000260 79 29 bd 3d 1e ca 8c bd 29 f8 be 3d a2 e2 33 3d
       0.09236426 -0.06874488 0.093246765 0.043917306
000270 06 5e 90 bd e0 b6 4e bb 7d 06 49 bd 36 d2 34 3d
       -0.070491835 -0.0031542107 -0.049078453 0.044145785
000280 80 a6 94 bc 13 63 ac 3d 32 54 8d bd b0 52 ac bb
       -0.0181458 0.084173344 -0.069008246 -0.0052588806
000290 48 bc 18 3c a7 86 79 bd f3 c8 c4 3d f7 5b b6 3d
       0.0093222335 -0.06091943 0.096086405 0.0890426
0002a0 70 75 18 bc 60 38 37 bc 59 4e e3 3d 20 4a 21 bc
       -0.009305343 -0.011182874 0.11098928 -0.009844333
0002b0 52 eb 0c 3d 76 40 04 bd 2e cb 17 bd 96 f1 62 3d
       0.034404106 -0.032288037 -0.037059 0.055406176
0002c0 ae f9 d1 bd 94 00 d3 bc 67 c7 c2 bd a8 e5 07 3c
       -0.10252701 -0.025757112 -0.09510689 0.0082945
0002d0 44 ee e9 3c 54 45 8d bc fe 29 4a 3d c4 dc da 3c
       0.028555997 -0.017244972 0.049356453 0.026716597
0002e0 ea 50 60 3d fd cc ac 3d 64 c7 e3 bc 90 16 87 bc
       0.054764666 0.08437536 -0.027805038 -0.01649025
0002f0 d4 d8 c7 bc b0 04 dd bc 14 e9 89 bc 72 ed 6d bd
       -0.024395384 -0.026979774 -0.016834773 -0.058087774
000300 a2 6e 24 3d 95 53 e1 bd 5c fa f0 3c 7f da 8e 3d
       0.04014457 -0.1100227 0.029416256 0.069752686
000310 cb ab c8 bd ee cf 32 3d 21 a1 92 3d e2 49 66 3d
       -0.09798392 0.04365533 0.07159639 0.056222804
000320 d8 c8 25 bd 64 68 e5 3c 77 65 55 be 8f d4 af 3d
       -0.040474743 0.028003879 -0.20839487 0.08585464
000330 eb 98 98 3d e7 32 5d bd eb 14 5c bd 00 2d 92 bb
       0.07451042 -0.054003622 -0.053730886 -0.004460931
000340 a4 08 d7 3c 10 66 e8 bc f0 a2 93 bd 30 12 f0 bc
       0.026249237 -0.02836898 -0.07208812 -0.029305547
000350 50 e3 d2 bc 15 14 7a bd 5f 2c ca 3d 5d 2d a5 3d
       -0.025743157 -0.061054308 0.09871744 0.08065293
000360 3c c3 36 bd 8c 48 bb bd 10 61 bd bc 00 25 d5 bc
       -0.044619784 -0.091446966 -0.023117572 -0.02601862
000370 21 52 9e 3d b8 0f 24 bd 27 de 6c bd 64 a5 1f bd
       0.077305086 -0.040054053 -0.05782905 -0.03897609
000380 40 92 27 3b c8 ad 96 bc 09 17 d7 3d 14 49 82 3c
       0.002556935 -0.018393412 0.105024405 0.015903987
000390 1b f8 d4 bd a8 5c 42 bd 94 a3 9a 3c cb 11 ba bd
       -0.10398885 -0.047451645 0.018876828 -0.09085425
0003a0 f6 4d 8a bd 32 fb 12 3d 10 3e 5d bc cb fd 96 3d
       -0.06753151 0.03588409 -0.013503566 0.07372626
0003b0 40 63 ff bc b7 04 df 3d 44 f2 cf bd 3b 94 92 3d
       -0.031175256 0.10889571 -0.101536304 0.07157179
0003c0 2e ad 7f 3d 0b 42 dd bd 20 9b 92 bb ff d7 85 3d
       0.062421016 -0.10803612 -0.0044740587 0.065353386
0003d0 5d 7c 4c bd 82 07 55 3d ac 6c fd 3c fa 43 15 3d
       -0.04992329 0.052009113 0.030935608 0.03644178
0003e0 92 c1 85 bd 00 b8 12 39 46 80 29 3d f6 82 99 bd
       -0.06531061 0.0001399219 0.041382097 -0.07495682
0003f0 c7 d4 e0 3d 5c 23 e8 bc f6 ba ac bd 29 5f c4 bd
       0.10978084 -0.028337173 -0.084340975 -0.09588463

features.1.bias f4 [100]
000000 e2 59 06 bd 6f 10 99 3e 58 b7 47 3e 2c c8 8e 3e
       -0.032800563 0.2989535 0.19503534 0.27887094
000010 85 7d 57 3e 0d d3 a7 3c 1e 2a 02 3e 31 2c 78 bd
       0.21043976 0.020486379 0.12711379 -0.06058902
000020 f9 31 a1 3d 02 60 c9 3d aa 5a 1a bd 24 10 62 3e
       0.0787086 0.09832765 -0.03768412 0.2207647
000030 ff 80 3e bd 2e 62 27 bd f3 ec 86 3e ce b1 be bd
       -0.04650974 -0.040865116 0.26352653 -0.09311257
000040 74 24 bf bd ed 2e 7d 3d 7f f8 8b 3e 68 d4 3a 3e
       -0.09333125 0.06181233 0.27338025 0.18245089
000050 cb 3a b8 3d 83 bc a2 3e 79 52 cd bd 79 b2 87 3e
       0.08995589 0.31784448 -0.10025496 0.2650335
000060 c6 05 7f 3e 02 9c a2 3e 52 5e b0 3e bc 19 4d 3e
       0.24904546 0.3175965 0.3444696 0.20029348
000070 65 4b d8 bd 48 29 7b bd 9d 19 44 3e 38 dc 93 bc
       -0.10561255 -0.061318666 0.19150396 -0.018049344
000080 6e 08 95 3e da fc ec bd dc 80 33 bd a1 fb 6f 3d
       0.29107994 -0.11571665 -0.04382406 0.05858958
000090 c4 7a d1 bd fd 9a 99 3e e7 d0 ae bd 67 ec d0 bd
       -0.10228494 0.3000106 -0.08535939 -0.1020134
0000a0 54 15 8c 3e 6f 5e 4a 3e a6 65 05 3e e9 0c ba bd
       0.27360022 0.19762586 0.13027057 -0.09084494
0000b0 8e 1f 4f bd b9 73 5b bd 3d fa 9e 3d 2c 93 27 bc
       -0.050567202 -0.05357716 0.07762573 -0.01022796
0000c0 c5 0f 03 3e 07 d1 dc 3e 0e 1f 91 bd a0 9c b4 3e
       0.12798984 0.43128225 -0.07086001 0.35275745
0000d0 b1 e0 e4 3d ac e5 b6 3c 19 48 27 3e 83 8a ef 3e
       0.11175669 0.022326313 0.16336097 0.46785364
0000e0 6c b9 d1 bd 0d c2 e2 bd 1d 1a 80 3e c2 82 ae 3e
       -0.102404445 -0.110721685 0.25019923 0.34084135
0000f0 93 4a 39 3e 24 cd c0 3d b2 97 cf 3e ca 75 00 3d
       0.18094854 0.094141275 0.40545422 0.031362332
000100 e2 d9 8b bd 55 d3 e3 3b 4e 82 c2 3d 9c 84 d7 3e
       -0.06828667 0.006952683 0.0949751 0.4209336
000110 90 56 8c 3e 77 85 18 bd d1 1b d5 3d 6a 6f 5d 3e
       0.27409792 -0.037236657 0.10405696 0.21624532
000120 c0 76 18 3e 14 1f bc bd 6b 82 b5 bd 8e 69 23 3e
       0.1488905 -0.09185615 -0.08862766 0.15958235
000130 87 2f 5b 3d b6 ce a6 3d 63 cd 95 3d be 17 be 3e
       0.053512122 0.08144896 0.07314565 0.3712749
000140 e0 65 4d 3e 7e 07 d1 bd ae 4b ab bd fc 6f e7 3d
       0.20058393 -0.10206507 -0.08364044 0.11300656
000150 8d cf 31 3e 9f 6e 9c 3e 89 6f 8b 3e 52 3a 0d 3e
       0.1736433 0.30553147 0.27233532 0.13791779
000160 1e 5c ec 3d 5b c6 e9 3d cf 17 0a bc 2b 04 88 3d
       0.115410075 0.114147864 -0.008428528 0.0664142
000170 65 a8 ca bd 83 09 ee 3e 44 8e bd bd 54 8b 0f 3e
       -0.098954 0.46491632 -0.09255651 0.14017993
000180 4e b0 71 3d cb 68 d1 3a 1e 5c a9 bd ca 1d 0f 3e
       0.059006028 0.0015976665 -0.08269523 0.13976207

classifier.weight f4 [2, 100]
000000 c0 48 5a bd cf 20 84 be 1c 43 4b be 9f 14 7c 3e
       -0.053292036 -0.2580628 -0.19849819 0.24617241
000010 c0 2e 48 be b3 4d 85 3d 97 16 e4 bd 25 d7 3e 3c
       -0.19549084 0.065089606 -0.11137121 0.011647974
000020 00 c0 ba bb 90 f4 58 bd be 3a 78 3d a7 b4 88 be
       -0.0056991577 -0.052967608 0.060602896 -0.26700327
000030 9b 05 b6 bd 00 06 40 3b 17 fa 8a 3e 0a 87 1c 3d
       -0.08887788 0.0029300451 0.27143928 0.03821472
000040 30 a1 4b bd 25 f7 26 be 7f 5c 8d be 13 5b 01 3e
       -0.049714267 -0.16305216 -0.2760963 0.12632398
000050 6c 3b f4 3d be ce ac be 48 a2 cb bc 57 b5 9c be
       0.11925396 -0.33751482 -0.024857655 -0.306071
000060 49 6b 52 be 33 59 c8 3e e4 ee c5 3e 62 d7 4f 3e
       -0.20548739 0.39130554 0.38658822 0.20297006
000070 20 22 ed bc cb 64 83 bd d7 e2 49 3e b0 2a e1 bb
       -0.028946936 -0.06415709 0.19715439 -0.006871544
000080 e7 8a 71 3e 90 8e 0e 3c f9 1c 94 3d 94 d0 08 be
       0.23588143 0.008700982 0.072320886 -0.13360816
000090 12 ec 50 3d c8 3d a8 3e f1 65 8a 3d 45 d8 96 bd
       0.051006384 0.32859635 0.06757725 -0.07365469
0000a0 6d af a7 be fd 3d 2c 3e 84 b3 35 3e dd e3 78 bd
       -0.32751027 0.16820522 0.17744261 -0.060764182
0000b0 b7 8b 60 bd 19 96 29 3d 69 e0 aa 3d bc 80 58 3d
       -0.054820742 0.04140291 0.08343584 0.052857146
0000c0 ec a6 2c be 99 11 dd be 5d 50 4e bd a6 2c d4 be
       -0.1686055 -0.43177488 -0.05036961 -0.41440314
0000d0 b7 f3 e8 3d 02 cb 56 bd 0d e7 6b be dc 73 07 3f
       0.1137461 -0.052439697 -0.23037358 0.5291116
0000e0 d0 84 43 3c ce c9 85 bd 1c 55 90 3e 72 10 db 3e
       0.01193352 -0.06532632 0.28189933 0.42785984
0000f0 61 7f 03 be ec c7 bd 3c 39 35 d3 be c5 d7 4b bd
       -0.1284156 0.02316662 -0.41251543 -0.04976632
000100 b8 4b b3 3c 13 08 59 bd e5 e1 6a be 90 29 c7 be
       0.021886691 -0.052986216 -0.22937734 -0.38898897
000110 ce d9 97 3e 41 75 ca bb ff 47 23 be 72 cb 3c be
       0.2965836 -0.0061785285 -0.15945433 -0.18436983
000120 61 90 84 3e 15 43 aa bd 92 56 cb bd 22 de 49 be
       0.25891402 -0.08313576 -0.09928621 -0.19713643
000130 e4 3b 17 3e ec f9 2a be 29 94 5d 3d b5 5f d8 be
       0.1476894 -0.166969 0.054096375 -0.4226052
000140 b3 3b 82 be 02 e1 07 3d cf ae a0 bd cf e1 4c be
       -0.25436172 0.03317357 -0.07845842 -0.20008014
000150 4d 5f 5b be 2a 4c be 3e f1 b6 85 3e f5 5e 00 3d
       -0.21423073 0.37167484 0.26116136 0.031340558
000160 5e bc da 3c 2c b9 3f be c7 33 46 3c d9 8e 3b be
       0.026701149 -0.18722981 0.012097306 -0.18316211
000170 2d fc 82 bd f4 30 03 3f 2a e6 3e 3d 6a f9 64 3e
       -0.06395755 0.5124657 0.04660622 0.22360769
000180 6f 77 9d 3b 43 bd 96 3d a1 cb 79 bd 0c 6c 12 be
       0.0048054974 0.073603176 -0.06098521 -0.14299029
000190 3c 9d 9e 3c 72 cf b7 3e ce 8b 52 3e dc 05 a8 be
       0.019362085 0.35900456 0.20561144 -0.3281697
0001a0 fd 5d 6d 3e 55 8b 07 be cc 7b 1a 3e fe d6 91 bd
       0.23180385 -0.13236745 0.15086287 -0.07121085
0001b0 4d 79 90 3c fa 82 d7 3c 2b 80 c3 bd 4a 2a 69 3e
       0.017635966 0.026307572 -0.095459305 0.22770038
0001c0 2a 64 62 bd 5a 84 62 3d 09 52 84 be 9d 17 6c bd
       -0.055271305 0.055302 -0.25843838 -0.057639707
0001d0 0a 01 6d 3d 91 29 96 3d 06 b7 94 3e 81 ae 52 be
       0.05786232 0.07332147 0.29045886 -0.2057438
0001e0 7b d6 5a be cf d7 cb 3e 60 e4 2c 3b 59 87 9a 3e
       -0.2137088 0.39813086 0.002638124 0.30181387
0001f0 17 f7 96 3e b1 e4 a8 be 4d 8f a2 be 4d 48 6a be
       0.2948539 -0.32986978 -0.31749955 -0.22879143
000200 08 07 92 bd c3 5d 16 3d 2d 6e 5c be a8 71 4b bc
       -0.07130247 0.036710512 -0.21526404 -0.0124172345
000210 d6 61 b3 be b2 44 79 bd 3d dd b1 3d 20 3d 06 3e
       -0.3503558 -0.06085653 0.08684776 0.13109255
000220 ea c2 ac bd 5a a9 86 be af 0c 82 3d 58 04 3b 3c
       -0.084356144 -0.2630108 0.063500755 0.01141461
000230 22 88 66 3e d9 26 70 be c9 a6 01 be e6 47 9e bd
       0.22512868 -0.23452319 -0.1266128 -0.07728557
000240 10 01 4e 3c ee af a5 bd 37 fe 95 bd be 03 03 bc
       0.0125734955 -0.080901965 -0.07323878 -0.007996498
000250 c9 1f 38 3e ae f6 f3 3e ad 2e ab 3d d5 f7 9b 3e
       0.17980875 0.4764914 0.08358512 0.30462518
000260 d1 62 e2 bd 74 1c 06 3d 75 eb cc 3d 0d a3 02 bf
       -0.11054004 0.03274198 0.10005847 -0.51030046
000270 0a 8d a6 bd aa bc 3e 3d ac 76 59 be fd 1e 91 be
       -0.0813237 0.046566643 -0.21236676 -0.28343955
000280 55 1e 8f 3e 55 88 80 3b 1e 7e cf 3e 3e 41 9d 3d
       0.2795283 0.003922502 0.40525907 0.076784596
000290 c0 cf 71 bc 8c fa 94 bc 05 5b 8e 3d 22 21 f3 3e
       -0.014759004 -0.018185876 0.06950954 0.47486216
0002a0 f5 fd b0 be df 6e 21 bb 3b 8c e4 3d 9f 6b 86 3e
       -0.34568754 -0.0024632735 0.11159559 0.26253983
0002b0 8e 35 26 be 2d 96 68 bd 00 ba 97 bb a8 26 23 3e
       -0.16231367 -0.056783844 -0.004630327 0.15932715
0002c0 c2 6d 13 3c 79 8c c8 3c 44 1a b7 3d 30 df c1 3e
       0.008998336 0.024481045 0.08940557 0.3786559
0002d0 0f e3 73 3e a8 bd 8f bd f7 8a b8 bc 4d 4d ea 3d
       0.23817085 -0.07018596 -0.022527201 0.11440525
0002e0 fa f4 08 3e 3b 9b 97 be 93 2c 91 be 9a 7c 4a be
       0.13374701 -0.2961062 -0.2835432 -0.19774094
0002f0 45 99 54 be 30 d1 4e 3d ee 12 61 bd f7 df 02 3e
       -0.20761593 0.050492465 -0.054949693 0.12780748
000300 13 23 49 bd 15 cc e5 be 11 cb 8f 3d 2c 6d eb bd
       -0.049105715 -0.44882265 0.07021154 -0.11495432
000310 05 a7 e7 3d 4d 03 9a 3d 0b 84 25 bd 9c 8d 54 3e
       0.11311153 0.07520161 -0.04040913 0.20757145

classifier.bias f4 [2]
000000 18 07 2c 3e bd 1d f4 bc
       0.16799581 -0.029799337
