old_paper/ckpt/simple_FC_100_17.pth (torch, 118613 bytes, 4 tensors)

features.1.weight f4 [100, 289]
00000000: a18c 6f3d 6a99 06bd 9d2b 073d 483c af3b
00000010: 8bfe 52bd 0ead d93c b37d 093d 4cd7 0fbc
00000020: 42b3 ca3c f5f2 ffbc 4271 973c 00a4 f5b9
00000030: b900 1a3d ee3e dfbc 7076 7ebc d36a 32bd
00000040: 37d3 183d 3078 83bb 8a75 e73c 158f 61bd
00000050: cd33 37bd b101 2bbd 5e33 a13c 4837 d33b
00000060: 9010 60bc 7c5f fcbc 249c 573c 308d 383b
00000070: 8bec e7bc 664d 28bd 0941 633d 35f1 583d
00000080: b7e9 4c3d 90d6 783b c8a8 26bd 178d 223d
00000090: e4cd 213c 8b08 4bbd 78e0 73bc 420e 6bbd
000000a0: 807d 333b d6dd 13bd d01e 1bbb add9 55bd
000000b0: 48f6 a2bb 62d0 d23c 4bb9 6fbd 7309 5d3d
000000c0: b1d2 6fbd 8879 52bd 7380 413d 8436 353c
000000d0: 1ad9 d03c 3c8a cebc a511 1e3d 0627 5fbd
000000e0: f982 143d fe99 0fbd a866 17bd d09a b4bb
000000f0: 294c 523d 880c 70bd ef1a 5c3d f07e c8bc
00000100: 743c 173c 94a9 613c bcce 32bc e675 65bd
00000110: 6004 55bd b234 d73c 9dde 5b3d 61d9 163d
00000120: 0f8a 24bd 82b8 43bd ecf3 27bd 6e52 88bc
00000130: f459 aebc 207c 53bb b5fd 333d e0ec 5fbc
00000140: 685f 833b 968b 8abc f04a dcbb 7280 963c
00000150: f52e f0bc 14c6 283c 6233 eb3c ca22 3bbd
00000160: 7a95 50bd 219a 2e3d a2f9 ec3c 57ca 5dbd
00000170: 2a67 80bc 1e7a babc a9a0 5c3d 73fb 3b3d
00000180: 66a7 863c 02d8 f73c fd93 543d 608d 55bd
00000190: 0061 c43a 1d0f 653d 7e5c 2fbd d60b 863c
000001a0: 88f3 9cbc 709b 6cbc feb1 ed3c 51ff 693d
000001b0: 9140 333d b80f c2bb a0dd 33bb f70f 4dbd
000001c0: b000 2ebb 2ae0 a1bc 4b1f f7bc baa1 3dbd
000001d0: 70c9 75bc 2e69 bfbc 2874 a43b 9780 fdbc
000001e0: 69b1 5b3d 4e46 de3c cb3a 603d 210f 553d
000001f0: 2084 22bd d9b9 233d 8a22 9f3c cd61 18bd
00000200: 8023 a3ba bc0f 8fbc 784b a13b 83c5 673d
00000210: 90c8 323b 7b21 4e3d 34fe 48bc adc9 15bd
00000220: c635 c93c 8493 263c 5ec2 db3c a693 c93c
00000230: 2654 ab3c 8821 b3bb 4cfb c2bc 73d6 443d
00000240: e649 7b3e 9cf6 6ebd 5b5f 4a3d 7012 4dbc
00000250: 410a 133d 96d1 8dbc 8899 91bb 029e e23c
00000260: 3417 5d3c 2091 86ba cae2 f23c 553f 63bd
00000270: b505 53bd 818c 5a3d 4435 04bc a75a 653d
00000280: 424e f33c 5495 43bc 0a17 0cbd 6570 1c3d
00000290: 0ee3 ef3c 52d4 bc3c bc4c 0bbc f552 6cbd
000002a0: cba9 2a3d 68aa 74bc 43e4 043d bc67 b8bc
000002b0: 74d0 d8bc a29d e63c 0cc4 97bc 2cf1 1fbc
000002c0: 174d 013d 2fcc 353d 0f85 62bd 17b5 213d
000002d0: 5642 e43c 1530 1d3d 4b70 33bd 44c1 83bc
000002e0: b161 573d db92 6d3d e868 993b 68be 4abd
000002f0: 2c59 4a3c ccd7 c3bc 40a0 90bb 5eb6 01bd
00000300: 3d50 083d 9312 4a3d b7da 5a3d d737 2b3d
00000310: 82ef ef3c dce1 0dbd b924 373d 84de 553c
00000320: 0032 203a cc0b 85bc 8ba2 39bd 84e4 073c
00000330: 0089 6d3a 2840 35bd 19af 6abd 6f86 45bd
00000340: 4198 543d 9b52 623d 4fc8 0a3d 188d 1cbc
00000350: d096 b4bc e4fd 64bd 0a1c c13c 32fd eb3c
00000360: f81e 8ebc 5268 babc 5a38 a93c c695 3ebd
00000370: c6ee 843c 2a95 d7bc 1e6d 65bd 14ae 24bd
00000380: ed67 6ebd 4908 033d 35c3 1b3d 3420 57bc
00000390: a259 b8bc 62e9 e73c 38d3 a63b dec2 ae3c
000003a0: 3a32 c93c a04b 5fbb 64a6 553c 78f4 cbbc
000003b0: 5420 443c d45b 3c3c 80a0 e1bc 77c1 043d
000003c0: 2615 ae3c 7515 013d d397 3fbd 0436 603c
000003d0: 78df 2bbc b4c5 cdbc 442b 61bd 84e7 14bd
000003e0: 22dc cf3c e022 03bc 50f3 4a3b e8d2 0dbc
000003f0: 5475 3d3c 300d b1bc 8f48 0d3d 8487 53bd
0.058483724 -0.03286115 0.033000577 0.0053477623 -0.051512282 0.026571777 0.03356714 -0.008779358
0.02474368 -0.03124378 0.018486623 -0.0004685223 0.037598345 -0.027251687 -0.015531167 -0.043558907
0.037310805 -0.00401213 0.02825429 -0.055068094 -0.044727135 -0.04174966 0.019677814 0.006445799
-0.013675824 -0.03080725 0.013159785 0.0028160326 -0.028311035 -0.041089438 0.055481944 0.052964408
0.050027575 0.0037969686 -0.040688306 0.039685335 0.009875748 -0.049568694 -0.0148850605 -0.057386644
0.0027388036 -0.03610023 -0.0023669489 -0.052209545 -0.0049732067 0.02573413 -0.05852632 0.05396409
-0.05855054 -0.051385432 0.04724164 0.011060361 0.025494147 -0.0252124 0.038591046 -0.054480575
0.036257718 -0.035058968 -0.036963135 -0.005511619 0.051342163 -0.0586057 0.053736623 -0.024474591
0.009230722 0.013773341 -0.010913547 -0.05602064 -0.052006125 0.026270244 0.053679097 0.036828402
-0.040170725 -0.047783382 -0.041004106 -0.016640868 -0.021283127 -0.003227003 0.043943126 -0.013667315
0.004009176 -0.016912263 -0.0067228004 0.018371794 -0.029319266 0.010301132 0.028711025 -0.045687474
-0.050923802 0.042627458 0.028927628 -0.054148044 -0.015674192 -0.022763308 0.053864155 0.045894098
0.016437244 0.030254368 0.051898945 -0.05213678 0.0014982522 0.055922616 -0.042812817 0.016363066
-0.019159093 -0.014441356 0.029015537 0.057128254 0.043762747 -0.005922284 -0.0027445331 -0.050064053
-0.0026550703 -0.01976021 -0.030166289 -0.046296813 -0.01500164 -0.023365583 0.0050187297 -0.030945105
0.05363599 0.027133133 0.05474357 0.05201638 -0.039676785 0.03997216 0.01942565 -0.037202645
-0.0012446493 -0.017463557 0.0049223267 0.056584846 0.002728019 0.0503249 -0.012267638 -0.036569286
0.024561774 0.010167006 0.02682608 0.024606537 0.020914149 -0.0054666437 -0.023801468 0.048056077
0.24539909 -0.058340654 0.049407344 -0.012516603 0.03589845 -0.017311852 -0.004443351 0.027663235
0.013494302 -0.0010266639 0.029649157 -0.05548032 -0.051519115 0.05335665 -0.00806934 0.055994656
0.029700402 -0.011937458 -0.03420166 0.038193125 0.029283073 0.023050461 -0.008502182 -0.0576963
0.041665833 -0.014933206 0.03244425 -0.022510402 -0.026466586 0.028151337 -0.0185261 -0.00976209
0.03156766 0.044384178 -0.055302676 0.03947934 0.027863663 0.038375933 -0.043808263 -0.016083367
0.0525834 0.05800138 0.0046816953 -0.04949799 0.012350362 -0.02390661 -0.0044136345 -0.03166806
0.033279646 0.04933412 0.05343124 0.0418013 0.02928901 -0.034639224 0.044712756 0.01305354
0.0006110966 -0.016240977 -0.04532103 0.008294228 0.0009061247 -0.044250637 -0.057295892 -0.04822391
0.051903013 0.05525456 0.033882435 -0.009555124 -0.02204457 -0.05590619 0.02357294 0.028807256
-0.017348751 -0.022754822 0.020656753 -0.046529554 0.016227137 -0.026316244 -0.056012265 -0.040205076
-0.05820458 0.031990323 0.03802796 -0.013130236 -0.022503678 0.028309528 0.005091097 0.021333154
0.024560083 -0.0034072176 0.013040159 -0.024896845 0.011970598 0.011496503 -0.027542353 0.032411065
0.021250319 0.031514604 -0.04677565 0.013684753 -0.010490291 -0.025118686 -0.054972902 -0.036353603
0.025373522 -0.00800392 0.003096778 -0.008656241 0.011563618 -0.021612734 0.034493025 -0.05164291

features.1.bias f4 [100]
00000000: e62c 633e 52de aebc dfcc f93d 8fd7 3fbd
00000010: 0e2c 623e b442 a5bc 4ccb a33e 8f9a a33e
00000020: 9328 873e 7eba 943d fc50 acbc 3624 d73d
00000030: f5c4 42bd 1efc 32bd 9b9b 893e 7eaf 27bd
00000040: a40c a93e f962 a23d 4cd6 6bbd 7fef 7e3e
00000050: b8a8 c93e 9a6f 603e 2456 0fbd f871 113d
00000060: 0a7d 59bd bc22 0d3f 84d6 56bd 26a5 97bc
00000070: 3483 19bc 6604 65bd c10f 18bc 84ea e1bc
00000080: 80d8 17bd 5120 ad3d c8db 28bd 6cf7 183e
00000090: bec0 ef3d a9b2 e8bc dcf1 60bd 6bf1 59bd
000000a0: 2672 80bd 52f8 fa3d 9163 3cbd 7fef 143f
000000b0: 5684 1abd a691 07bd 7069 bfbc 0c7b 51bd
000000c0: 98c7 6c3e 26ff 613e ea8e 5cbd 3322 02bd
000000d0: cb55 51bd 2288 57bd 2280 1dbd 1689 27bd
000000e0: c01f 46bd 0b88 c83d 3812 cc3d a855 01bd
000000f0: 94f6 4e3e 4180 5c3d 6d93 e73e f64b 413d
00000100: 686a fe3d bbd1 843d 74be b23d 77b6 3c3e
00000110: 9bae 663e 28d4 9f3c a27a 65bd 1e82 37bd
00000120: 0a82 31bd db40 b73e 4564 233e cc82 5fbd
00000130: 65c0 c6bb b57c 873e 98b1 7cbc 6642 23bd
00000140: 0e9d ff3e 2ad3 c4bc ada4 bc3e 6490 f93d
00000150: f581 c63e c66e 13bd 6dc5 9c3d 5b4a d63e
00000160: bdc5 ad3e 0670 38bd 6d4c f5bc e2b4 16bd
00000170: ae76 103f fbbf 633e 0269 64bd da79 843e
00000180: fc9c 3ebd e94e 6e3e 2841 23bd 057a 443d
0.22185096 -0.021346245 0.12197279 -0.046836432 0.22087118 -0.020173408 0.3199104 0.31953856
0.26398143 0.07262133 -0.02103471 0.105049536 -0.047551114 -0.04369747 0.2687653 -0.040938847
0.33017457 0.07929034 -0.057577416 0.24896048 0.39386535 0.21917573 -0.03499426 0.03550908
-0.053097762 0.55131125 -0.05245067 -0.018511366 -0.00936966 -0.055912398 -0.0092811 -0.027577646
-0.037071705 0.084534295 -0.041225225 0.14938134 0.117066845 -0.028405504 -0.054918155 -0.05320875
-0.06271772 0.122543946 -0.04599339 0.5817794 -0.03772386 -0.033097886 -0.023365706 -0.051142737
0.23123014 0.22069988 -0.05384723 -0.031770896 -0.05110721 -0.05262006 -0.038452275 -0.04090222
-0.048370123 0.09791573 0.099644125 -0.03157583 0.2021125 0.05383325 0.45229664 0.047191583
0.12422639 0.064853154 0.08727732 0.1842898 0.22527544 0.019510344 -0.056025155 -0.044801824
-0.043336906 0.35791668 0.15956219 -0.054568097 -0.0060654157 0.2646233 -0.015423201 -0.039858244
0.4992451 -0.024026472 0.36844388 0.121857435 0.38771024 -0.035994314 0.076548435 0.41853604
0.33939925 -0.04502871 -0.02994367 -0.036793597 0.5643109 0.22241203 -0.055764206 0.25874215
-0.04653643 0.2327229 -0.03985706 0.04796793

classifier.weight f4 [2, 100]
00000000: e768 753e 16d6 a7bd c797 c83d 6062 65bb
00000010: fcdc 75be 3abd 603d d7c4 9abe 9f3f 9fbe
00000020: 95d7 50be c4ad 01bd 5864 423c 65de 88bc
00000030: 480a c6bd 8a5a 913d 05dc 9e3e c098 6fbd
00000040: cba1 8d3e a8a1 28bc 0548 9ebd e611 713e
00000050: 3d47 d4be 3871 843e 6fd2 853d 9931 88bd
00000060: 93d6 97bd 0b94 0dbf c857 9fbc ca43 bbbd
00000070: 9078 82bd 42ff 1b3d 714c cd3b dd73 41bd
00000080: f548 ba3d a6c1 c93c c563 b7bd 48db b0bd
00000090: 1423 30be bb1c 8b3d f655 97bd 6eff 593d
000000a0: 06de 5cbd 9dcb b73d 00f5 9c3b 75d2 1bbf
000000b0: 303f d13b 007b d6b9 948c e33c 62a0 63bd
000000c0: db08 3cbe 1368 8f3e 26f5 7e3d 92d8 343d
000000d0: 4b1e a4bd 6701 b4bd d22c c6bd 3a7e 56bd
000000e0: aabb 3e3d 62ad 74bd 3d4b df3d e5b5 943d
000000f0: 400d 643e 0fc2 743c cb5b f53e 7255 d0bd
00000100: a6ca 75bd ea59 2bbc a73a 023e afde 5b3e
00000110: c993 76be 7f91 50bc c123 c23d 58a2 e9bc
00000120: 0ba8 e0bc 6765 c33e 3b21 63be d89c 6abb
00000130: 9ca6 a6bc 0694 933e b0a3 95bd 8097 cfba
00000140: 8acc 053f d844 bdbc 9c77 ce3e d263 03be
00000150: 18db d33e 4ebc 3b3d 526f 2dbd 88a1 e33e
00000160: 3dc2 ab3e d468 9b3c d068 74bd e808 f5bc
00000170: 7f34 18bf 905b 82be 8066 143c fdad 9cbe
00000180: 701a 6bbd 4bd9 853e baba 40bd 4b53 92bc
00000190: 7460 6bbe 609c 6dbb e634 30be 51f9 ab3d
000001a0: 887b 863e 00ae 03bc 1a33 b03e 7feb b73e
000001b0: aac3 ab3e aa89 303e 9891 edbc ea1c 4e3e
000001c0: ea86 5e3d 57f2 06bd 7e70 9abe f35b 50bd
000001d0: e264 c4be 3946 0d3e 00d1 193d addf 93be
000001e0: 2e39 d73e 1532 4abe 68a7 ecbc b651 c7bd
000001f0: 42ce a4bd aa0a 143f d23d 0b3d e039 72bd
00000200: 3d4a 7cbd 32bc bfbd d8ad a03b b09a df3b
00000210: 8586 bcbd bbf5 10be 0af2 a3bd d306 613e
00000220: e1a1 243e 525e 2b3d 9dcd 41bd f7ca a63d
00000230: 2a24 963d 828a 20be 47f2 b5bd 11ab 1b3f
00000240: acf9 893c 1481 87bc 5722 933d 2548 74bd
00000250: 180d 943e d41b 2abe 46c3 1a3d 07a7 45bd
00000260: 8cc8 debc b2cb 463d 4e2e 80bd 1644 323d
00000270: 8edb 78bd 63d0 103e 5d52 c9bd f499 8cbd
00000280: 96e5 42be c05d 63bb 763d e4be fb5c df3c
00000290: b8ef 4c3e 5384 ee3d 57c6 50bd e2bc 5dbe
000002a0: d205 5b3e 089f e13c d98b b33d b1d8 863d
000002b0: bb3e 63bd 9a08 bebe cd97 1b3e 1938 9a3d
000002c0: b6cb 36bd 7821 84be d14b 923c 747c 963c
000002d0: 4364 04bf 20ea 56bd 73f7 bebe 54d5 1a3e
000002e0: b617 debe 00e1 193c 369b 063e 5eb0 ecbe
000002f0: 8703 babe 32d5 583d 6945 813d 8c46 ef3c
00000300: 8639 0b3f 6d64 423e 9d4a bfbd 1b44 5e3e
00000310: 00a6 ebbb 10b8 76be 3a3e 2cbd e702 08be
0.23965798 -0.081951305 0.09794574 -0.0035001263 -0.2401008 0.05486796 -0.30228302 -0.31103227
-0.20394738 -0.031659856 0.011864744 -0.016707608 -0.0966993 0.07097347 0.31027237 -0.058495283
0.276625 -0.010292448 -0.077285804 0.23541984 -0.414606 0.2586763 0.06534278 -0.06650085
-0.07413974 -0.5530402 -0.019451037 -0.09143789 -0.06370652 0.03808523 0.006265216 -0.047229636
0.09095947 0.024628472 -0.089545764 -0.086355746 -0.17200881 0.06792589 -0.073894426 0.053222112
-0.053922676 0.08974383 0.0047899485 -0.60868007 0.0063857064 -0.00040908903 0.027776994 -0.055572875
-0.18362753 0.2800909 0.06224551 0.04415185 -0.080135904 -0.0878933 -0.096765175 -0.052366473
0.04656569 -0.059735663 0.109030224 0.07261256 0.2227068 0.014938845 0.47921595 -0.101725474
-0.060007714 -0.010458449 0.12717687 0.21471666 -0.24079813 -0.0127300015 0.09479476 -0.028519794
-0.02742388 0.381633 -0.22180645 -0.0035799053 -0.020343117 0.2882387 -0.073066115 -0.0015837997
0.52265227 -0.023104116 0.4032563 -0.12831047 0.41378093 0.04583388 -0.04234249 0.44459176
0.3354663 0.018970884 -0.05967027 -0.029911473 -0.594551 -0.25460482 0.009057641 -0.30601493
-0.05739826 0.26142344 -0.047053076 -0.017861983 -0.22986013 -0.0036256537 -0.17207679 0.08397163
0.26266122 -0.00803709 0.34413987 0.35921857 0.33547717 0.17240015 -0.029000089 0.20128217
0.054327883 -0.032945957 -0.3016395 -0.05086894 -0.38358217 0.13796319 0.037552834 -0.2888159
0.42035812 -0.19745667 -0.02888842 -0.09732382 -0.08047153 0.5782877 0.033994503 -0.059137225
-0.061594237 -0.09362067 0.0049035363 0.00682386 -0.09205345 -0.14156239 -0.0800515 0.2197526
0.16077377 0.041837998 -0.04731523 0.08144181 0.073311165 -0.15677837 -0.08884101 0.608079
0.016842686 -0.016541041 0.07184284 -0.059639115 0.2891624 -0.16612178 0.037783884 -0.048254993
-0.027195238 0.048534103 -0.06258832 0.043521963 -0.06075626 0.14141993 -0.09830163 -0.06865302
-0.19032893 -0.003469333 -0.4457814 0.027266016 0.2001332 0.116463326 -0.0509704 -0.21654084
0.21388939 0.027541652 0.08766908 0.06584299 -0.055479746 -0.37115937 0.15194626 0.07530231
-0.044627868 -0.25806785 0.017858418 0.01836989 -0.5171549 -0.052469373 -0.37298164 0.1512044
-0.43377465 0.009392023 0.13145146 -0.46228307 -0.36330816 0.052937694 0.06312067 0.029208444
0.5438465 0.18983622 -0.09340403 0.21705668 -0.0071914196 -0.24093652 -0.04205153 -0.13282357

classifier.bias f4 [2]
00000000: 243a c2bd 7c28 653a
-0.09483746 0.00087416894
