old_paper/ckpt/simple_Conv_100_21.pth (torch, 179425 bytes, 4 tensors)

features.0.weight f4 [100, 1, 21, 21]
0	0xbd061e10	-0.032743514
1	0xbdb26d79	-0.087122865
2	0xbd8286b7	-0.06373351
3	0xbd4051fa	-0.04695318
4	0xbd688f8b	-0.05677752
5	0xbd8e0832	-0.06935157
6	0xbd997f4e	-0.074949846
7	0xbdb30c92	-0.08742632
8	0xbd934eb8	-0.07192749
9	0xbd5bc447	-0.05365398
10	0xbd8559d3	-0.06511273
11	0xbd2ae2b3	-0.041720103
12	0xba511833	-0.0007976323
13	0xbda407e4	-0.080093175
14	0xbd206349	-0.039157186
15	0xbd9432f7	-0.07236283
16	0xbb1dbd52	-0.0024069143
17	0xbd06bd55	-0.032895405
18	0xbc30f4bf	-0.0108005395
19	0xbd6dae41	-0.05802751
20	0xbc07cc84	-0.008288506
21	0xbd883461	-0.066506155
22	0xbcedd797	-0.029033465
23	0xbc2e1e67	-0.010627366
24	0xbd58e96b	-0.05295698
25	0xbd6d66b7	-0.057959285
26	0x3bf9c888	0.007622782
27	0xbbc92b7b	-0.0061392165
28	0xbd024ee0	-0.031813502
29	0xbd85e52a	-0.0653785
30	0xbd4a758f	-0.04942852
31	0xbd7f75eb	-0.062368315
32	0xbd75de26	-0.06002631
33	0xbdb47120	-0.088106394
34	0xbcc07f97	-0.02349834
35	0x3b13be89	0.0022543988
36	0xbcb87fb7	-0.022521837
37	0xbd67ec7f	-0.056622025
38	0xbd13deb9	-0.036101077
39	0x3c00c61a	0.007859731
40	0xbd86dcd6	-0.0658509
41	0xbd02686b	-0.031837862
42	0xbda72785	-0.081618346
43	0x3b903e9e	0.004401996
44	0xbc8ee9f4	-0.017445542
45	0xbc6091e1	-0.013706655
46	0xbcdc6fd1	-0.026908787
47	0xbcc1e841	-0.023670318
48	0xbda37179	-0.079806276
49	0xbd69a011	-0.057037417
50	0xbae6d384	-0.0017610644
51	0xbd482e50	-0.048872292
52	0xbd9614db	-0.073281966
53	0xbc86f440	-0.01647389
54	0xbd180d9b	-0.03712235
55	0xbd70b42e	-0.058765583
56	0xbdaae58e	-0.08344565
57	0xbdb33d2f	-0.08751904
58	0x3b3807e8	0.0028080884
59	0xbd8ffc91	-0.07030595
60	0xbd78c6f4	-0.06073661
61	0x3980be9b	0.00024556075
62	0xbced0e27	-0.028937412
63	0xbc96733a	-0.018365491
64	0xbd80a2ab	-0.062810265
65	0xbdb4305f	-0.087982886
66	0xbbd12f77	-0.006383832
67	0xbccf4661	-0.025302114
68	0xbd85cfb1	-0.065337546
69	0xbd8171b8	-0.06320518
70	0xbd131497	-0.035908308
71	0x3bfba9d8	0.007680159
72	0xbd76a67c	-0.060217366
73	0xbcdd2449	-0.026994841
74	0xbda945c8	-0.08265263
75	0xbc1b3a8a	-0.009474406
76	0xbcdc3b11	-0.026883634
77	0xbd4b39f4	-0.049615815
78	0xbdb36ceb	-0.08761009
79	0xbdb35ef4	-0.08758345
80	0xbda30e20	-0.079616785
81	0xbda90df7	-0.08254617
82	0xbdb34303	-0.08753016
83	0xbdb071b0	-0.08615434
84	0xbd436f40	-0.04771352
85	0xbd9ca2d4	-0.076482445
86	0xbcf928f9	-0.030415045
87	0xbd7348a4	-0.059395447
88	0x3bd9d38e	0.0066475337
89	0xbd9bc951	-0.076067574
90	0xbd941349	-0.07230241
91	0xbd9c1a69	-0.07622225
92	0xbc04abfd	-0.008097646
93	0xbd8682e8	-0.06567937
94	0xbd668731	-0.056281272
95	0xb9d95777	-0.00041454632
96	0xbda71ebc	-0.08160159
97	0xbd6acf71	-0.057326738
98	0xbdb45dd2	-0.08806957
99	0xbd9ace07	-0.07558828
100	0xbd0a2b92	-0.03373296
101	0xbdafd4bf	-0.085855
102	0xbc73be52	-0.014876919
103	0xbdb0e459	-0.08637304
104	0xbc184672	-0.009294139
105	0xbc3f6df1	-0.011683927
106	0xbd76b2b6	-0.060229026
107	0xbc96a8ce	-0.01839104
108	0xbc614e19	-0.01375153
109	0xbc4cea9b	-0.012507106
110	0xbd18b972	-0.03728623
111	0xbbb7c7c8	-0.0056085326
112	0xbc4dfc43	-0.012572351
113	0xbd5300d3	-0.051514458
114	0xbd866107	-0.06561475
115	0xbdadcb4b	-0.08486041
116	0xbd9492d5	-0.072545685
117	0xbd7a87aa	-0.061164536
118	0xbd130585	-0.035893936
119	0xbd7be448	-0.061497003
120	0x3bdd09ec	0.0067455675
121	0xbd8b2e2b	-0.06795915
122	0xbcfff953	-0.031246817
123	0xbdb426d9	-0.08796472
124	0xbd8ee11f	-0.06976532
125	0xbda0f9e8	-0.07860166
126	0xbd9986c0	-0.07496405
127	0xbda0a6a9	-0.07844288
128	0xbd65bf53	-0.056090664
129	0xbd88be2a	-0.06676896
130	0x3bf099d9	0.007342559
131	0x3bbbe2f2	0.005733841
132	0xbdb1d80b	-0.08683785
133	0xbce85893	-0.028362548
134	0xbdaf8a02	-0.08571245
135	0xbda4564b	-0.080242716
136	0xbd146ff2	-0.036239572
137	0xbcf4ce11	-0.029883416
138	0xbcc45f37	-0.023971183
139	0xbb9af29a	-0.0047286274
140	0xbcf28ecf	-0.029609112
141	0xbd8476d0	-0.06467974
142	0xbbe6c8ce	-0.0070429808
143	0xbdb2e489	-0.08734996
144	0x3b73bf29	0.0037192798
145	0xbd254618	-0.04035005
146	0xbd91b13c	-0.07113883
147	0xbd219a1e	-0.03945362
148	0xbd05b87a	-0.032646634
149	0xbd46d61f	-0.048544046
150	0x3b86290a	0.0040942477
151	0xbd09ac52	-0.033611603
152	0xbd62ee71	-0.055403177
153	0xbdac0435	-0.0839924
154	0xbc49f123	-0.012325558
155	0xbd9c0406	-0.07617955
156	0xbdb30ccd	-0.08742676
157	0xbda12158	-0.07867688
158	0xbd9e5af1	-0.077321894
159	0xbd96b6a3	-0.07359054
160	0xbcc0cbbf	-0.023534654
161	0xbdb1a5f9	-0.08674235
162	0xbd803e92	-0.06261934
163	0xbcd02d23	-0.025412148
164	0xbda16c36	-0.07881968
165	0xbc61c551	-0.013779954
166	0xbd4c7549	-0.04991654
167	0xbda70741	-0.081556804
168	0xbd433c9d	-0.047665227
169	0xbca5c711	-0.020236524
170	0x3bee7177	0.0072767097
171	0xbb624dc8	-0.0034531225
172	0xbd65cd81	-0.056104187
173	0xbda3d675	-0.07999889
174	0xbd529fc5	-0.0514219
175	0xbd96a1ab	-0.073550545
176	0xbc95204a	-0.018203873
177	0xbd3d7525	-0.046254296
178	0xbbe4bdbf	-0.0069806273
179	0xbd681e2b	-0.056669395
180	0xbd9a574d	-0.075361826
181	0xbdaff477	-0.0859155
182	0xbd40e274	-0.047090963
183	0xbc069004	-0.008213047
184	0xbd98b8a4	-0.074570924
185	0xbc617f21	-0.01376322
186	0xbd1b7d28	-0.037961155
187	0xbd6b5075	-0.057449777
188	0xbd46f84c	-0.048576638
189	0xbd871b1f	-0.0659697
190	0xbd637b2b	-0.055537384
191	0xbb6e74fc	-0.0036385646
192	0xba0307b4	-0.0004998401
193	0x3779abc0	1.4881545e-05
194	0xbc002b15	-0.007822772
195	0xbdb48fde	-0.08816503
196	0xbdb48eb7	-0.08816283
197	0x3b0c74f7	0.0021432021
198	0xbd6d816f	-0.057984766
199	0x3b0dcaf7	0.002163587
200	0x39ae349b	0.0003322706
201	0xbb521c19	-0.0032060205
202	0xbdb328b0	-0.08747995
203	0xbd406239	-0.046968672
204	0xbce7302f	-0.028221218
205	0xbd9c659d	-0.07636569
206	0xbd93af50	-0.072111726
207	0xbdb0735f	-0.08615755
208	0xbdb36253	-0.08758988
209	0xbd8ba6ca	-0.06818922
210	0xbd79573a	-0.0608742
211	0x3b91c576	0.004448588
212	0xbd74e05e	-0.059784286
213	0xbd9cdb68	-0.07659036
214	0xbd9ca910	-0.076494336
215	0xbda22031	-0.07916296
216	0xbd895b9e	-0.06706928
217	0xbdb1c191	-0.08679498
218	0xbabe9160	-0.0014539175
219	0xbda0b9be	-0.078479275
220	0xbccec3c5	-0.025239835
221	0xbcc4d473	-0.024027085
222	0xbb80712a	-0.00391974
223	0xbcc5c1f9	-0.024140345
224	0xbd9a942a	-0.07547791
225	0xbd92d721	-0.07169939
226	0xbd972772	-0.073805705
227	0xbd9ab954	-0.0755488
228	0xbd688ac9	-0.05677298
229	0xbcef810f	-0.029236345
230	0xbce72c43	-0.028219348
231	0xbd235188	-0.039872676
232	0xbd823896	-0.06358449
233	0xbd635f13	-0.05551059
234	0xbd389f4a	-0.045073785
235	0xbcc99163	-0.024605459
236	0xbda115a1	-0.078654535
237	0xbda45e14	-0.080257565
238	0xbd432998	-0.04764709
239	0xbbcde597	-0.0062834728
240	0xbd64870d	-0.055792857
241	0xbc965b6a	-0.018354136
242	0xbdae33ac	-0.085059494
243	0xbd69900f	-0.05702215
244	0xbd096cdb	-0.03355108
245	0xbda084b9	-0.07837815
246	0xbda4dc44	-0.08049825
247	0xbdb2a2e0	-0.08722472
248	0xbdb11f81	-0.08648587
249	0xbdb33932	-0.087511435
250	0xbd5211e1	-0.051286582
251	0xbd9c30d9	-0.076265045
252	0xbd8f1337	-0.06986087
253	0xbb7cb253	-0.0038558438
254	0xbdb344f5	-0.08753387
255	0xbd98c393	-0.07459178

features.0.bias f4 [100]
0	0x3dc26f23	0.09493854
1	0x3d4150b2	0.047196098
2	0xbb3273b0	-0.00272296
3	0x3e563b9a	0.20921174
4	0xb9733100	-0.0002319254
5	0x3d4478b8	0.04796669
6	0x3e5ef246	0.21772107
7	0xbcb3b034	-0.021934606
8	0x3e56f133	0.20990448
9	0xbd166602	-0.036718376
10	0x3db09209	0.08621604
11	0xbb9d55f0	-0.0048015043
12	0xbce2414e	-0.02761903
13	0xbbb59578	-0.0055414997
14	0x3daafa0d	0.08348475
15	0x3cd77df8	0.026305184
16	0x3d9c98c9	0.07646329
17	0xbcd50d04	-0.026007183
18	0x3eaf6e7f	0.3426399
19	0x3c7b3d63	0.01533446
20	0x3987aa60	0.00025876146
21	0xbcb18684	-0.021670587
22	0x3d9c4bb5	0.076316275
23	0x3cbb03ad	0.022828901
24	0x3d2587e4	0.0404128
25	0xbc750638	-0.014955096
26	0xbb035db0	-0.0020044856
27	0x3d37896c	0.04480879
28	0xbb80d8a8	-0.0039320774
29	0x3c735570	0.014851913
30	0xbd16fa57	-0.036859836
31	0xbcdcfb0c	-0.026975177
32	0xbd0ebd52	-0.03484852
33	0xbd099a1d	-0.03359424
34	0xbcd30e45	-0.02576364
35	0x3d0b1b34	0.03396149
36	0x3d757547	0.059926298
37	0xbcb52fef	-0.022117583
38	0x3cefc638	0.029269323
39	0xbc4b38b4	-0.012403656
40	0x3cd40a30	0.025883764
41	0x3e8388af	0.2569022
42	0x3d909316	0.070593044
43	0xba284bc0	-0.0006419979
44	0x3e897634	0.26847994
45	0xb9780500	-0.00023652986
46	0xbd03a427	-0.03213897
47	0xbd258a9d	-0.040415395
48	0xbc9ddd42	-0.019270543
49	0x3d3b0c04	0.045665756
50	0xbcb2d2ba	-0.021828998
51	0xbcea8b28	-0.028630808
52	0xbd1438b0	-0.036186874
53	0xbd23c65a	-0.039984085
54	0xbc9af76c	-0.018916808
55	0xbc4cac5e	-0.012492267
56	0xbd016c10	-0.031597197
57	0xbd029cb1	-0.031887714
58	0xbc6314cc	-0.013859939
59	0xbd1528ec	-0.03641598
60	0xbcf21219	-0.029549645
61	0xbceaa3af	-0.028642504
62	0x3aa18460	0.0012322776
63	0x3cd16c70	0.025564402
64	0x3d8186fd	0.06324575
65	0x3ccbf3d8	0.024896547
66	0x3e8d59de	0.27607626
67	0xbba58f5e	-0.005052491
68	0xbd0d2ccb	-0.034466546
69	0xbd25b038	-0.04045126
70	0xbd06ef9c	-0.032943353
71	0x3d7f652c	0.062352344
72	0xbd19c3ff	-0.037540432
73	0xbced0c5c	-0.028936557
74	0xbd0379c2	-0.03209854
75	0xbbdc9671	-0.006731801
76	0xbb5a7530	-0.003333401
77	0x3cd3fc70	0.025877208
78	0xbd159aa5	-0.036524434
79	0x3dcf0f17	0.101103
80	0xbc74c739	-0.0149400765
81	0x3b7289a8	0.003700832
82	0x3d8ba349	0.068182535
83	0xbca980c4	-0.020691283
84	0xbcf385e7	-0.029726936
85	0xbd0c4562	-0.034245856
86	0x3d03257a	0.032018162
87	0xbaf6e980	-0.0018837899
88	0x3b93a008	0.004505161
89	0xbc8ba78d	-0.017047668
90	0x3d429e6a	0.047514357
91	0xbd065607	-0.032796886
92	0x3c7adcb0	0.015311405
93	0x3d617708	0.055045158
94	0x3cc9c1e2	0.024628583
95	0xbcfc7990	-0.030819684
96	0x3e700810	0.23440576
97	0x3c6cbe10	0.014449611
98	0xbce48b8b	-0.02789857
99	0xbd379643	-0.044821035

classifier.weight f4 [2, 100]
0	0xbe4e805a	-0.2016615
1	0xbe944cff	-0.28964993
2	0x3d867a20	0.06566262
3	0xbe978cfc	-0.2959975
4	0x3e2abdcb	0.16673963
5	0x3edb1ad6	0.42793912
6	0xbe9dc77b	-0.30816254
7	0xbc49481a	-0.012285257
8	0xbea77202	-0.3270417
9	0x3979c5a0	0.00023820112
10	0xbe4be309	-0.19910826
11	0x3e2b71be	0.16742608
12	0x3d174c85	0.03693821
13	0xbd9c5b05	-0.07634548
14	0xbe5e6882	-0.21719554
15	0x3e7970dd	0.2435946
16	0xbe6ad3f0	-0.2293241
17	0x3dc167ed	0.094436504
18	0xbf07fa25	-0.53116065
19	0xbd748ffe	-0.059707634
20	0x3d810fc3	0.063018344
21	0xbd99b2f6	-0.07504837
22	0xbe2f35c9	-0.17110361
23	0xbdddedbd	-0.108363606
24	0xbda9440d	-0.08264933
25	0x3db5e706	0.08881955
26	0x3e14703e	0.14495942
27	0xbe039cd1	-0.1285279
28	0x3e072750	0.1319859
29	0x3e7044cf	0.23463748
30	0x3d9612c9	0.07327802
31	0x3e7ca532	0.24672392
32	0x3e73607a	0.23767272
33	0x3ddbcc9b	0.10732385
34	0xbd5fb9fb	-0.054620724
35	0xbdf4fe92	-0.11962618
36	0xbe48559b	-0.19563906
37	0xbd63fe85	-0.05566265
38	0x3e77bf1d	0.24193998
39	0xbd5b07bb	-0.05347417
40	0x3e8c3641	0.27385142
41	0xbebd9206	-0.3702547
42	0xbe7c5fce	-0.24645922
43	0x3ddc7f7a	0.10766502
44	0xbecabed7	-0.39598724
45	0x3e60573a	0.21908274
46	0x3d8b9645	0.06815771
47	0xbd6d96cc	-0.05800514
48	0xbbe91f1d	-0.0071143047
49	0xbe05ed26	-0.13078746
50	0xbd4caebd	-0.04997133
51	0x3e45ad81	0.19304468
52	0xbda9b23a	-0.08285947
53	0xbcea29fe	-0.028584477
54	0xbdb38007	-0.08764654
55	0xbc3da861	-0.011575789
56	0x3e3eaec8	0.18621361
57	0x3dbdb31e	0.092626795
58	0x3d5c0224	0.05371298
59	0x3e3a6ea7	0.18206273
60	0xbdc89510	-0.097940564
61	0xbc34377e	-0.0109995585
62	0x3e03ab0c	0.12858218
63	0x3e67b383	0.22627072
64	0xbe1a5279	-0.15070523
65	0x3e74296b	0.23843925
66	0xbed538d9	-0.41644934
67	0xbd842958	-0.06453198
68	0x3dab3575	0.083598055
69	0x3dde1dde	0.108455405
70	0xbc3ad724	-0.011403833
71	0xbe589c8a	-0.21153465
72	0xbdb126cd	-0.08649979
73	0xbcc3ac11	-0.023885759
74	0xbd84d42a	-0.064857796
75	0x3d15b4ab	0.03654925
76	0x3e13ea7c	0.14444917
77	0xbdbe37d0	-0.09287989
78	0xbd669e44	-0.056303278
79	0xbe8daaab	-0.27669272
80	0x3d1f6f1d	0.038924325
81	0xbe1eb024	-0.1549688
82	0xbe28a38d	-0.1646864
83	0x3e1c222c	0.1524741
84	0x3d5f4d02	0.0545168
85	0xbda818a2	-0.08207823
86	0xbd888e1a	-0.06667729
87	0x3db581c6	0.08862643
88	0x3e2a8696	0.16652903
89	0x3b874960	0.00412862
90	0xbe569933	-0.20956878
91	0x3e01c2f0	0.12672019
92	0x3e76d42f	0.24104379
93	0xbe48b7db	-0.19601385
94	0xbd5d5da5	-0.054044385
95	0x3d1c37bd	0.038139094
96	0xbeb8fb38	-0.36129165
97	0x3df94d48	0.12172943
98	0xbdcb8575	-0.09937564
99	0x3c278dbe	0.010226665
100	0x3e8cf6cc	0.2753204
101	0x3e598769	0.21243061
102	0x3d08b9cd	0.03338032
103	0x3eaf986c	0.34295976
104	0xbe763284	-0.24042708
105	0xbec66a79	-0.38753107
106	0x3eb4dabe	0.35323137
107	0x3da4bc7d	0.08043764
108	0x3ea0379a	0.3129242
109	0xbdf0db71	-0.11760605
110	0x3e60efb6	0.21966442
111	0xbe0763cb	-0.13221662
112	0xbdf635d3	-0.12021985
113	0x395c42f0	0.00021005771
114	0x3e6b3721	0.22970249
115	0xbe8eb966	-0.27875823
116	0x3e6cdad5	0.23130353
117	0xbdab4bae	-0.08364044
118	0x3efb0f62	0.49035174
119	0x3d253982	0.040338047
120	0xbc2cd902	-0.010549786
121	0x3e10f5e6	0.14156303
122	0x3e4eacce	0.20183107
123	0x3cb74196	0.022370141
124	0x3e207b80	0.15672112
125	0x3d461813	0.048362803
126	0xbdbc5f4e	-0.091978654
127	0x3e035a7d	0.12827487
128	0xbe563825	-0.20919855
129	0xbe416086	-0.18884477
130	0x3cecd671	0.028910847
131	0xbdc9e5b5	-0.09858266
132	0xbe2bb985	-0.16769989
133	0x3d7a723f	0.06114411
134	0x3dfa754c	0.12229404
135	0x3d908b70	0.070578456
136	0x3e0d26c2	0.13784316
137	0x3da4d2b8	0.08048004
138	0xbea04777	-0.31304523
139	0x3d7b766e	0.06139224
140	0xbe7a3107	-0.24432765
141	0x3ecdec61	0.40219405
142	0x3dd61880	0.10453892
143	0xbd65f662	-0.056143172
144	0x3ed1c0f2	0.40967518
145	0xbe0281f5	-0.12744887
146	0xbda1d90e	-0.07902728
147	0xbbaef43e	-0.0053391745
148	0x3c74640a	0.014916429
149	0x3dfea247	0.12433296
150	0xbd212eec	-0.03935139
151	0xbe4d0b16	-0.2002376
152	0xbc6f9938	-0.014623933
153	0xbd56695b	-0.05234657
154	0x3cd6e7fe	0.02623367
155	0x3d1f2883	0.038856994
156	0xbe8728b6	-0.26398247
157	0xbd4cab3f	-0.049968
158	0x3da7ab28	0.08186942
159	0xbe609f6c	-0.21935815
160	0x3d5337a0	0.05156672
161	0x3a2acce6	0.00065155176
162	0xbd10f92c	-0.03539388
163	0xbe92bdd6	-0.28660458
164	0x3e3c8c1a	0.1841282
165	0xbe8b634e	-0.272242
166	0x3ed30bf7	0.41220066
167	0x3d660c00	0.056163788
168	0xbd5c464f	-0.05377799
169	0xbd38e0cc	-0.045136258
170	0x3de59f19	0.11211986
171	0x3e6a0d5f	0.22856663
172	0x3cb2ffc3	0.021850472
173	0x3cf1ff1a	0.029540587
174	0xbdc3be24	-0.09557751
175	0x3da962e2	0.082708135
176	0xbe124c9d	-0.14287038
177	0x3e710ab0	0.23539233
178	0xbd15c8b3	-0.036568355
179	0x3e35f3b6	0.1776875
180	0xbd1f64c1	-0.038914446
181	0x3e3479f3	0.17624645
182	0x3e315248	0.17316544
183	0xbe6d49c7	-0.23172675
184	0xbd52e3d9	-0.051486824
185	0xbce709bb	-0.028202882
186	0x3deb4237	0.11487239
187	0xbe3f52a5	-0.1868387
188	0x39c68160	0.00037861895
189	0x3e01cf42	0.12676719
190	0x3e58aec5	0.2116042
191	0xbdbe4b6e	-0.09291731
192	0xbe0ebbd8	-0.13938844
193	0x3dd0a554	0.10187784
194	0x3ddea3d3	0.10871091
195	0xbdf4a23e	-0.11945008
196	0x3eb1c811	0.3472295
197	0xbe83f90a	-0.2577594
198	0x3d897b82	0.0671301
199	0x3d64a3b5	0.055820186

classifier.bias f4 [2]
0	0x3de52e64	0.11190489
1	0xbd7b49c8	-0.06134966
