old_paper/ckpt/simple_Conv_100_9.pth (torch, 35419 bytes, 4 tensors)

features.0.weight f4 [100, 1, 9, 9]
0.06933492 -0.047423877 0.044910245 -0.006996006 0.062765874 -0.036704265 -0.043927707 -0.113017224
-0.05357949 0.03130374 0.01482188 -0.07614376 0.08313613 -0.0003540814 -0.022674456 -0.05919613
0.04562568 -0.05185546 0.018472724 -0.039432205 -0.07707959 -0.06830609 0.06999377 -0.009839021
-0.081900485 -0.027069211 0.07955363 -0.09516931 -0.07690455 -0.021323308 0.09328621 -0.016874738
-0.072405286 0.007699184 0.10245784 -0.101280786 0.01383996 -0.056249276 0.013229474 0.06531092
-0.09324885 0.0014694035 0.010907441 0.070202805 0.08918398 0.062457792 0.09790277 -0.04127504
-0.08312753 -0.08429732 -0.067727685 0.012503304 -0.10414823 -0.04859446 -0.10282316 0.0056903064
-0.10928907 0.047724895 -0.013925113 -0.09162259 0.036344342 0.07586218 -0.058753267 -0.06311415
-0.10778088 -0.05800654 -0.0394509 -0.052879743 0.097603895 -0.022067837 0.035474546 -0.046405822
-0.052561443 -0.051460665 -0.08009166 0.045268036 0.07513934 0.006962724 -0.022868462 0.102820136
0.024010532 -0.02920333 0.037639115 0.13016325 0.013988538 0.06525684 0.05300525 0.024685156
0.13548982 0.07643045 -0.07509359 0.056708127 0.013955569 -0.052635353 -0.033515107 -0.06503745
-0.01936609 0.13171619 0.0020990185 0.113665454 0.097243346 0.11785301 -0.02488238 -0.0798546
-0.030670535 0.042957347 -0.069340125 0.12194737 0.12195968 0.0020097154 -0.045654945 0.011307539
0.012389146 0.083412334 0.024697814 -0.029862862 0.08554199 0.113107614 -0.06161639 0.103356294
-0.0037376944 0.039682988 0.010221075 0.009601538 -0.0026828637 0.036952663 0.055106346 -0.0028857957
-0.078653395 -0.041336175 0.063680075 -0.08051545 0.014950216 0.12305882 -0.06105145 0.081092216
0.06944243 -0.012875119 0.10743678 0.07942634 -0.044582684 -0.08123641 -0.040457297 0.019296136
0.09004802 -0.018564988 -0.07272327 0.013323452 0.0074019865 -0.07757839 -0.014054782 0.09781354
0.08780465 0.06096881 -0.04870842 -0.026659649 0.071905226 0.0955782 0.0913843 -0.014656473
0.11181084 0.06345914 -0.02592916 -0.031588264 0.09021128 0.10647342 0.14645977 0.067021795
0.047305893 0.08631744 0.070006914 -0.062340606 0.13581881 0.05675581 -0.026146824 0.1278184
0.062345557 -0.0059818765 0.04690964 0.11435234 -0.052814376 -0.0088113155 0.06439922 0.13583712
0.110365056 0.09529594 0.10593904 -0.026995305 0.06962467 0.13246731 0.13851936 0.14546995
-0.028832264 0.10775071 0.103987984 0.11274009 -0.05714329 0.06798632 0.11527591 0.09741352
0.03207504 0.13282892 0.044098534 0.13866542 0.12344877 0.015903365 0.15330133 0.04270531
-0.034284048 0.115464844 0.081311055 0.11676108 0.114738084 -0.007918017 0.12867635 0.10154515
0.13288173 0.074037515 0.048337594 0.0828369 0.12317649 0.04839456 -0.027141517 0.14813323
0.014017286 -0.037690952 0.14372182 0.11546146 0.087230496 0.15371567 -0.034649357 0.016031463
0.13576774 0.117332004 0.13145415 -0.02909635 0.13397719 0.117404945 -0.009875711 0.12552406
0.027302515 0.11567541 0.12804115 0.0589405 -0.11961523 -0.013510665 -0.10889405 -0.07919062
-0.016791089 -0.0748396 0.06351839 -0.086580746 0.076271236 0.048303723 -0.029651666 -0.047182493
00000000: 77ff 8d3d 8a3f 42bd cef3 373d c03e e5bb
00000010: 658b 803d 3657 16bd 8aed 33bd 9375 e7bd
00000020: 2b76 5bbd 5a38 003d 78d7 723c 42f1 9bbd
00000030: 4643 aa3d 00a4 b9b9 c8bf b9bc a477 72bd
00000040: fee1 3a3d 6466 54bd 1c54 973c aa83 21bd
00000050: e7db 9dbd 10e4 8bbd e558 8f3d d833 21bc
00000060: 71bb a7bd 40c0 ddbc 03ed a23d 21e8 c2bd
00000070: 2280 9dbd 38ae aebc d70c bf3d e43c 8abc
00000080: 3949 94bd 7049 fc3b 6bd5 d13d 4d6c cfbd
00000090: 00c1 623c a465 66bd 70c0 583c bbc1 853d
000000a0: 41f9 bebd 0099 c03a 20b5 323c 7dc6 8f3d
000000b0: 17a6 b63d bed3 7f3d 3f81 c83d 0410 29bd
000000c0: c43e aabd 13a4 acbd d0b4 8abd a8da 4c3c
000000d0: ab4b d5bd fc0a 47bd f394 d2bd c075 ba3b
000000e0: f3d2 dfbd 2e7b 433d 2826 64bc a0a4 bbbd
000000f0: cedd 143d a15d 9b3d 44a7 70bd fe41 81bd
00000100: 39bc dcbd 4498 6dbd 4497 21bd 6e98 58bd
00000110: 8de4 c73d 9cc7 b4bc c24d 113d 0814 3ebd
00000120: ab4a 57bd 6bc8 52bd 1907 a4bd fa6a 393d
00000130: a7e2 993d 9027 e43b a456 bbbc 5d93 d23d
00000140: bcb1 c43c d23b efbc 792b 1a3d 8449 053e
00000150: 2e30 653c 61a5 853d 081c 593d 8638 ca3c
00000160: d8bd 0a3e 9187 9c3d abca 99bd c846 683d
00000170: e6a5 643c 2b98 57bd 2347 09bd 5b32 85bd
00000180: a2a5 9ebc 9ce0 063e b08f 093b 6fc9 e83d
00000190: 8527 c73d eb5c f13d 22d6 cbbc cf8a a3bd
000001a0: c640 fbbc 0bf4 2f3d 3202 8ebd 8bbf f93d
000001b0: ffc5 f93d 6eb5 033b ae00 3bbd 4243 393c
000001c0: d8fb 4a3c 16d4 aa3d 1253 ca3c f6a2 f4bc
000001d0: a430 af3d f7a4 e73d 7861 7cbd 77ac d33d
000001e0: 1bf4 74bb a18a 223d 4c76 273c c54f 1d3c
000001f0: fcd2 2fbb ad5b 173d 31b7 613d 9e1f 3dbb
00000200: 0815 a1bd 1f50 29bd b36a 823d 49e5 a4bd
00000210: c0f1 743c 4306 fc3d 1611 7abd ad13 a63d
00000220: d537 8e3d 2af2 52bc d107 dc3d 47aa a23d
00000230: 559c 36bd 465f a6bd 8db6 25bd ee12 9e3c
00000240: 196b b83d 9a15 98bc f0ef 94bd 9c4a 5a3c
00000250: 5d8c f23b 6be1 9ebd 0746 66bc 7752 c83d
00000260: edd2 b33d 6eba 793d 7b82 47bd 5665 dabc
00000270: 0c43 933d 81be c33d b127 bb3d b421 70bc
00000280: 15fd e43d def6 813d 6469 d4bc b262 01bd
00000290: b1c0 b83d bd0e da3d 8df9 153e b942 893d
000002a0: d3c3 413d 33c7 b03d c95f 8f3d dd58 7fbd
000002b0: 1614 0b3e c878 683d dd31 d6bc d4e2 023e
000002c0: 0e5e 7f3d 9e03 c4bb 5324 403d 8f31 ea3d
000002d0: e353 58bd 565d 10bc bde3 833d e318 0b3e
000002e0: 1307 e23d 852a c33d 91f6 d83d 4225 ddbc
000002f0: 6197 8e3d 83a5 073e 05d8 0d3e 13f6 143e
00000300: a431 ecbc 67ac dc3d a7f7 d43d 47e4 e63d
00000310: 150f 6abd 693c 8b3d c715 ec3d bd80 c73d
00000320: 1e61 033d 4e04 083e aaa0 343d 4ffe 0d3e
00000330: b5d2 fc3d c647 823c 06fb 1c3e c3eb 2e3d
00000340: 6e6d 0cbd d578 ec3d 6986 a63d 6f20 ef3d
00000350: cdfb ea3d 92ba 01bc bcc3 033e e7f6 cf3d
00000360: 2612 083e fba0 973d a4fd 453d 65a6 a93d
00000370: f543 fc3d 6039 463d e357 debc 3db0 173e
00000380: c2a8 653c d461 1abd d02b 133e 0f77 ec3d
00000390: e7a5 b23d a467 1d3e 7cec 0dbd 6a54 833c
000003a0: b306 0b3e c34b f03d eb9b 063e 785b eebc
000003b0: 5131 093e 0172 f03d bccd 21bc 6189 003e
000003c0: 86a9 df3c 3be7 ec3d 381d 033e 986b 713d
000003d0: d4f8 f4bd d65b 5dbc d803 dfbd b12e a2bd
000003e0: 778d 89bc 8145 99bd ee15 823d 3f51 b1bd
000003f0: 1834 9c3d 20da 453d 0de8 f2bc 6e42 41bd

features.0.bias f4 [100]
-0.07834713 0.062766105 0.16968882 0.1139955 -0.045989707 -0.04964486 -0.020118428 0.07831691
0.17504656 0.030797463 0.15302874 -0.017797874 0.26472053 0.11596862 -0.005780999 -0.10349043
0.10562185 0.20347025 0.10615456 0.37339 0.025730943 0.045383964 -0.043999445 0.3294388
-0.0808676 0.2251594 -0.06679092 -0.072100796 0.038196694 -0.028589474 -0.06262546 -0.10451146
0.07020033 0.08700975 0.052438468 0.3633018 -0.07800004 -0.05908267 0.11500375 -0.02091688
0.086962014 0.01905618 -0.017252207 -0.051983446 -0.08067233 -0.11004771 0.0007248602 -0.082997166
-0.085016534 0.22597234 0.2221512 0.093749136 0.10592575 0.12526754 0.064706616 0.16172647
-0.07060842 -0.092715986 -0.07236929 -0.044770505 -0.029956596 0.23967195 0.021620596 0.1473105
0.20303173 0.0135997245 -0.080960214 -0.09798108 -0.010612591 -0.017843882 -0.06672364 0.07142832
0.31334785 0.05544025 -0.07704698 0.15629822 0.3515254 0.012849877 -0.043371785 -0.03944001
-0.10491085 -0.04751488 0.16811933 -0.010513569 0.1602697 -0.0063361377 0.025124261 0.14053062
0.15775402 0.2791809 -0.022146275 -3.0962576e-05 -0.09496174 -0.10570198 0.06290541 0.15776975
0.055701695 0.12819727 -0.02363275 0.15090327
00000000: 7674 a0bd 848b 803d e8c2 2d3e 7976 e93d
00000010: b45f 3cbd 6958 4bbd 67cf a4bc 9e64 a03d
00000020: 683f 333e f64a fc3c 91b3 1c3e d9cc 91bc
00000030: 7389 873e f580 ed3d 896e bdbb caf2 d3bd
00000040: 4550 d83d 815a 503e 9067 d93d f92c bf3e
00000050: b3c9 d23c 89e4 393d c338 34bd 34ac a83e
00000060: ea9d a5bd 3090 663e aec9 88bd 95a9 93bd
00000070: 2374 1c3d 7934 eabc c741 80bd 1b0a d6bd
00000080: 31c5 8f3d 2b32 b23d b8c9 563d b202 ba3e
00000090: 7cbe 9fbd ab00 72bd 1687 eb3d e059 abbc
000000a0: 2419 b23d b51b 9c3c 8054 8dbc 98ec 54bd
000000b0: 8937 a5bd b260 e1bd 8b04 3e3a 6bfa a9bd
000000c0: 261d aebd 4b65 673e 9b7b 633e 8cff bf3d
000000d0: 9aef d83d 2246 003e e784 843d a09b 253e
000000e0: 269b 90bd e1e1 bdbd 5a36 94bd 4761 37bd
000000f0: 8967 f5bc 906c 753e ad1d b13c 90d8 163e
00000100: 8de7 4f3e 61d1 5e3c 78ce a5bd 4eaa c8bd
00000110: 6fe0 2dbc 552d 92bc 67a6 88bd 0349 923d
00000120: 216f a03e 5115 633d cfca 9dbd a40c 203e
00000130: 23fb b33e 4a88 523c 9da6 31bd d98b 21bd
00000140: 80db d6bd f69e 42bd 7927 2c3e 1b41 2cbc
00000150: be1d 243e 609f cfbb 65d1 cd3c 42e7 0f3e
00000160: 458a 213e cdf0 8e3e 1b6c b5bc d0dd 01b8
00000170: 4d7b c2bd 487a d8bd 8dd4 803d 658e 213e
00000180: 7627 643d 2546 033e 7899 c1bc 6386 1a3e

classifier.weight f4 [2, 100]
-0.075127125 0.16222443 0.3969138 -0.23160048 0.12690915 0.06411082 -0.14719807 0.014638314
-0.47891137 -0.1553196 0.30206287 0.16245435 -0.95551467 -0.22177638 0.05549529 0.08602062
-0.123640545 -0.7481062 0.16300216 1.1164823 0.043480016 0.020085668 0.07774488 0.87371814
0.087559916 -0.76363355 -0.09250144 0.112935886 0.067449324 0.11297717 0.034999687 -0.09838157
0.13049349 0.060488183 0.07514403 1.0465082 0.10021992 -0.13447031 -0.15281744 -0.07797283
0.07419939 -0.03188854 -0.01343614 0.12950379 -0.10321825 0.08325977 0.011160972 0.032898366
0.06885848 0.5767805 -0.75105506 -0.14907028 -0.26344156 -0.3363853 -0.05768591 0.35786486
0.047587562 0.099509336 -0.037672684 -0.042199507 0.0661967 0.6510744 -0.13196328 -0.2900179
-0.62181 -0.064240985 -0.116608 -0.068509884 0.2085329 0.006767614 -0.0033320552 -0.21985844
-1.1554313 0.035534102 0.037920497 -0.46554795 -1.4756228 0.02350473 0.10530726 -0.10983358
0.05588659 -0.0020182063 -0.47125003 0.0018365796 0.34624568 -0.11809128 -0.0144154215 -0.36265978
-0.47711846 0.74347454 0.039408088 0.03965935 -0.008870164 -0.08508283 -0.18503332 0.3995073
-0.08826544 0.30760467 -0.10734784 0.25983113 -0.0391399 -0.12863715 -0.38811958 0.14834358
-0.05098386 0.06424269 0.13686858 -0.20750213 0.5887918 0.015161882 -0.2813318 -0.16374575
1.0272611 0.25234136 0.016235394 -0.008216993 0.24231283 0.64581734 -0.1383828 -1.041503
0.013335889 -0.1534283 -0.07771407 -0.87608975 0.00017373178 0.7486146 0.023373282 -0.03489754
-0.08832899 -0.050732754 -0.008569428 0.014223403 -0.07864767 -0.18217103 -0.09088864 -0.97063786
0.034620028 0.0888279 0.23377825 -0.014841496 -0.17684576 0.06539075 0.044264432 -0.07375606
-0.043136287 0.09898112 -0.0013426262 -0.093293026 -0.101426415 -0.59338224 0.72314984 0.15525883
0.1856563 0.27613658 0.18487221 -0.329576 0.022554003 0.018923026 -0.102006994 -0.025287505
-0.1250598 -0.6285014 0.02172059 0.41641304 0.70253277 0.1021619 -0.0567735 -0.00390621
-0.22168064 0.12095607 -0.027325321 0.20809117 1.1842046 -0.16219829 0.103234425 0.38522622
1.395462 0.02463829 -0.03436512 0.012253173 0.09078165 -0.043100923 0.57826746 0.14961925
-0.33310038 0.02895097 -0.1346413 0.35645348 0.48708498 -0.73346686 -0.1458837 -0.103144474
-0.09375328 -0.07961715 0.05240195 -0.24716035 0.11229271 -0.16012749 0.028719392 -0.31231263
00000000: 40dc 99bd 291e 263e 4938 cb3e ad28 6dbe
00000010: 79f4 013e 894c 833d 17bb 16be 8ad5 6f3c
00000020: df33 f5be 1a0c 1fbe fca7 9a3e 6f5a 263e
00000030: 9c9c 74bf 5919 63be 074f 633d 942b b03d
00000040: 4137 fdbd e383 3fbf 0aea 263e e4e8 8e3f
00000050: 1a18 323d b38a a43c b538 9f3d feab 5f3f
00000060: 9d52 b33d 7d7d 43bf 6571 bdbd ee4a e73d
00000070: df22 8a3d 9360 e73d d55b 0f3d 477c c9bd
00000080: 16a0 053e 75c2 773d 1de5 993d fbf3 853f
00000090: 1a40 cd3d 96b2 09be 2d7c 1cbe 38b0 9fbd
000000a0: daf5 973d 8f9d 02bd 4123 5cbc a49c 043e
000000b0: 1764 d3bd 1984 aa3d 82dc 363c 70c0 063d
000000c0: ad05 8d3d e3a7 133f 2545 40bf e1a5 18be
000000d0: d0e1 86be b23a acbe 1048 6cbd 103a b73e
000000e0: 2deb 423d 8dcb cb3d ac4e 1abd 64d9 2cbd
000000f0: 2392 873d d0ac 263f 6221 07be 3a7d 94be
00000100: f12e 1fbf c790 83bd 2dd0 eebd e94e 8cbd
00000110: a689 553e dcc2 dd3b 9c5e 5abb 9222 61be
00000120: 2ce5 93bf 358c 113d 8652 1b3d 4d5c eebe
00000130: 35e1 bcbf fe8c c03c 55ab d73d 6ef0 e0bd
00000140: 56e9 643d e243 04bb af47 f1be 63b9 f03a
00000150: 1d47 b13e d7d9 f1bd a92e 6cbc 8bae b9be
00000160: df48 f4be 5954 3e3f 606a 213d d871 223d
00000170: 2a54 11bc e83f aebd 6079 3dbe 398c cc3e
00000180: 83c4 b4bd 5c7e 9d3e 2fd9 dbbd 9608 853e
00000190: 2951 20bd 75b9 03be 9cb7 c6be 61e7 173e
000001a0: 74d4 50bd ac91 833d 4727 0c3e 707b 54be
000001b0: 0fbb 163f 8b69 783c b90a 90be f7ac 27be
000001c0: 4b7d 833f e332 813e 1700 853c 91a0 06bc
000001d0: db20 783e 4954 253f 39b4 0dbe f84f 85bf
000001e0: c67e 5a3c 4f1c 1dbe 8e28 9fbd 6b47 60bf
000001f0: c52b 3639 35a5 3f3f 5379 bf3c b9f0 0ebd
00000200: d4e5 b4bd 26cd 4fbd c966 0cbc 4709 693c
00000210: 0812 a1bd 0b8b 3abe d323 babd b97b 78bf
00000220: bbcd 0d3d 67eb b53d 9163 6f3e bf29 73bc
00000230: 0e17 35be 96eb 853d 9f4e 353d 6b0d 97bd
00000240: adaf 30bd 9db6 ca3d 0ffb afba 6a10 bfbd
00000250: a7b8 cfbd e6e7 17bf 5920 393f 2cfc 1e3e
00000260: af1c 3e3e c661 8d3e 244f 3d3e 2fbe a8be
00000270: 2cc3 b83c 7604 9b3c 0be9 d0bd be27 cfbc
00000280: ad0f 00be 78e5 20bf 61ef b13c 1734 d53e
00000290: 30d9 333f 423a d13d 548b 68bd 54ff 7fbb
000002a0: 4000 63be d1b7 f73d 5ad9 dfbc da15 553e
000002b0: 0494 973f 4f17 26be 926c d33d 5f3c c53e
000002c0: 809e b23f 3dd6 c93c 71c2 0cbd 88c1 483c
000002d0: bbeb b93d 988a 30bd 5609 143f ca35 193e
000002e0: 228c aabe 962a ed3c 69df 09be 1281 b63e
000002f0: 3463 f93e 7cc4 3bbf 8962 15be 693d d3bd
00000300: b801 c0bd 510e a3bd 6da3 563d 9a17 7dbe
00000310: b8f9 e53d 76f8 23be ee44 eb3c 71e7 9fbe

classifier.bias f4 [2]
0.35531694 -0.42483956
00000000: 1aec b53e 9284 d9be
